model_save/bc/bc_policy50.pt (torch, 289751 bytes, 6 tensors)

fc1.weight f4 [256, 17]
000000 ba 70 9f 3e ab 43 6b 3e ae 96 11 3f e8 fe 6e 3f
       0.3114069 0.22975032 0.56870544 0.93357706
000010 52 1e 5d 3e b5 d1 ea 3d ee 92 39 bf b3 c8 09 be
       0.21593598 0.1146578 -0.7248982 -0.13455467
000020 b9 2b b5 be 33 60 51 3e b7 42 98 3e d1 78 1e 3e
       -0.3538492 0.20446853 0.297384 0.15475775
000030 de 93 54 3e 91 54 48 3d c2 f0 0a be 83 8e 25 be
       0.20759532 0.048908774 -0.13568404 -0.16167645
000040 6a ea b0 3b 17 41 3b c0 8f ba 31 be 95 69 0d 3e
       0.005399038 -2.9258478 -0.17356323 0.13809808
000050 6b 56 86 3e ad 27 2f be 7e ad ff bd 62 4f c5 3d
       0.26237807 -0.17104979 -0.12484263 0.09634282
000060 e2 98 12 bf b5 fe 4c 3c 40 2c 19 bf 41 78 77 3e
       -0.5726453 0.012511899 -0.59833145 0.24166967
000070 93 51 9e 3d 35 7b 9a 3d 79 c3 25 bd fd 32 a0 3d
       0.07730403 0.07543031 -0.04046962 0.07822225
000080 fa f1 ed 3d d8 38 e9 3d b6 bc 09 c0 1a b8 8f be
       0.11618419 0.11387795 -2.152143 -0.28070146
000090 94 04 da be e8 55 40 bf c7 a1 b7 be 29 48 ca be
       -0.42581618 -0.7513108 -0.35865614 -0.3950818
0000a0 4e 46 4c be d1 5e 08 bf 99 17 e4 bd db f8 61 be
       -0.19948694 -0.5326968 -0.111373134 -0.22067587
0000b0 f6 b3 31 3c 45 cf a6 3c 2e e3 d0 3c c1 19 be 3c
       0.010846129 0.020362506 0.025498953 0.02320564
0000c0 d4 7e b5 bc 97 a0 3c bd 3f a1 2f 3d ef cf 19 bf
       -0.022155203 -0.046051588 0.042878386 -0.60082906
0000d0 ec b7 9e bd 77 d5 0b bd dc 21 8c be b3 41 06 be
       -0.07749924 -0.034139123 -0.27369583 -0.13111
0000e0 2b 26 20 bd d6 01 ed 3d 47 e2 00 3e 5f f5 56 be
       -0.0390989 0.11572616 0.12586318 -0.20992039
0000f0 fc d7 10 be 9f ef 82 3e f9 19 5f 3e dd 8e d1 3d
       -0.14144892 0.2557344 0.21787252 0.10232327
000100 ea 86 a3 bd c5 d3 63 3e 7b df 0c bd f2 bd fa bc
       -0.07984717 0.22248752 -0.034392815 -0.030608151
000110 30 16 1b 3f 65 c7 39 c0 87 53 83 3e 15 d5 a9 be
       0.6058073 -2.902795 0.25649664 -0.3317038
000120 07 4e 91 3e 31 4b ae 3e 1a 35 4a 3e 82 6c 87 3e
       0.28379843 0.34041741 0.19746819 0.26449972
000130 34 d5 84 ba 97 c0 51 bd 36 55 43 be 6f 61 b4 bc
       -0.001013434 -0.05120906 -0.19075474 -0.022019116
000140 8b 6d 9d 3c 42 ee 73 bd d4 71 01 3d 07 a8 ba 3b
       0.019217273 -0.059553392 0.031602696 0.0056963
000150 bb 9f 8b 3c fa 3b bf bf 07 c6 05 3f 05 f5 f9 be
       0.017043939 -1.4940178 0.5225529 -0.48819748
000160 cf 3e 4a bf 81 89 97 3f 43 65 5d 3f cb ae a3 3d
       -0.7900209 1.1838838 0.8648264 0.079923235
000170 a6 d4 9e 3c 30 0c 69 be 2f b9 21 bf e8 0e e5 bd
       0.019388508 -0.22758555 -0.6317319 -0.11184484
000180 b4 6d 54 3d 3d 94 11 bd f0 b5 f8 bb 15 f5 87 bd
       0.051862434 -0.03554176 -0.007590048 -0.066385426
000190 00 7d 59 bd ed b3 46 bd a1 19 77 3f 46 eb 82 be
       -0.053097725 -0.048511434 0.9652348 -0.25570124
0001a0 f2 fc ff 3e c4 78 e9 bd cf 46 64 be 38 81 1c 3f
       0.4999767 -0.11399987 -0.22292636 0.6113467
0001b0 8f 71 15 bf 68 52 f0 3e 74 6e b6 bd c8 ba 3a 3f
       -0.583764 0.4693787 -0.08907786 0.72941256
0001c0 92 57 fb 3e fd 9a 23 bc 5a 26 cb bc 95 37 f5 3d
       0.49090248 -0.009985683 -0.02479856 0.11973492
0001d0 13 7e 73 bd ce d7 07 3e a4 35 c8 bd 8a da 8e 3e
       -0.059446406 0.13265917 -0.09775856 0.27901107
0001e0 7e 5a f2 3e 50 55 8c 3e d2 da 31 3f 6e e6 35 3d
       0.47334665 0.27408838 0.6947452 0.044409208
0001f0 f4 fa c2 be 61 bb 9b be 37 d7 41 3f eb 6d 74 3c
       -0.38082087 -0.30416396 0.75719017 0.014918785
000200 28 8b 04 be 51 5e 52 3e e8 e8 81 3d 25 ec 83 3b
       -0.12943709 0.20543791 0.063432515 0.0040259534
000210 24 c3 50 3d 92 bb 8d 3d 8e 65 70 3d 1f 60 c4 bc
       0.05096735 0.06920542 0.0586906 -0.023971615
000220 5a 17 bc bf a3 b7 2a 3e 6f 48 80 3e 8e e5 b6 be
       -1.4694626 0.16671614 0.25055262 -0.3572201
000230 11 44 23 be 10 ae 84 bf af bb 37 bf 01 88 0e 3f
       -0.15943934 -1.036562 -0.7177076 0.55676275
000240 6a dd 18 be b8 c4 ca be b3 ed 55 3f d1 63 17 be
       -0.14928213 -0.3960321 0.83565825 -0.1478417
000250 e2 97 2a bd 67 f2 17 3d 65 c5 c5 bc 1d 72 75 3d
       -0.041648753 0.037096407 -0.024141977 0.05992328
000260 fc 69 54 3d 03 10 64 bf 92 20 30 bf ec 05 de bd
       0.051858887 -0.8908693 -0.687997 -0.10840973
000270 2a ee da be 3c 4e 22 be 69 30 63 bf 09 18 b1 3e
       -0.4275983 -0.15850157 -0.88745743 0.3458865
000280 aa c8 06 bf 1f fd e5 bd 32 47 49 bf b8 fb b1 bd
       -0.5264994 -0.1122992 -0.7862426 -0.0869059
000290 61 f1 ae 3c 25 61 4f bd 17 bf fe 3d d4 9b 3b 3d
       0.021355333 -0.050629754 0.12438791 0.045802906
0002a0 c3 bc 91 3c 7e b4 47 bd 2f 00 df be ec 8a de 3d
       0.017790204 -0.048756115 -0.43554828 0.10866341
0002b0 96 51 dc bd e1 79 21 be dd f1 9a 3e fd 69 12 bf
       -0.10757749 -0.1576915 0.30262652 -0.57192975
0002c0 fe fb 83 3e f8 3c a4 be fc 3c e7 bd 43 ef 40 bf
       0.25778192 -0.32077765 -0.11290929 -0.75365084
0002d0 c3 a9 86 3e 44 b6 90 3d dd 51 c9 bd c8 53 c8 3d
       0.26301393 0.070660144 -0.09830067 0.09781605
0002e0 36 8a 17 3e 2a d6 2e bd cf 5e b1 3c 65 e4 79 bf
       0.14798817 -0.04268471 0.021651654 -0.9761413
0002f0 4e 73 92 3e f0 13 ed be f6 ca 07 bf fc 1d 9b be
       0.28603595 -0.46304274 -0.5304407 -0.30296314
000300 51 a7 07 3f 96 63 ad bf 83 10 83 be 99 2b 26 be
       0.5298968 -1.3546016 -0.25598535 -0.16227569
000310 e0 95 02 bf c9 78 99 3e e1 fb d7 3c 42 e8 1e 3e
       -0.5100994 0.29974964 0.026365222 0.15518287
000320 55 35 52 bd e4 8f 81 3d e1 3d 18 bd 9b 3c bc 3c
       -0.051320393 0.06326273 -0.037168387 0.022978118
000330 ed c4 32 c0 73 28 15 c0 0a 5a 3a bf 8a 22 a6 be
       -2.7932694 -2.3305938 -0.7279364 -0.32448226
000340 33 ee 97 be ff d3 76 be 0a 5c d6 bd ab ca 8e be
       -0.2967392 -0.24104308 -0.10466774 -0.27888998
000350 2c 6d e6 bc fb 13 7b be 77 ef d2 bd f3 96 f9 3d
       -0.02812823 -0.2451934 -0.102995805 0.121869944
000360 71 ac 4d bd 3f 89 cf 3c 38 28 25 3a 27 41 25 3c
       -0.05021328 0.025333999 0.00063002435 0.010086334
000370 5e 02 b9 bc 5d d0 bc bf a1 83 a3 bd 39 a9 cb be
       -0.022584137 -1.4751087 -0.079840906 -0.39777544
000380 66 31 fa 3d 19 cf 22 3f b0 07 80 3c 48 ea b3 be
       0.12216453 0.63597256 0.015628666 -0.3513968
000390 d5 7b 97 bd f7 bc 8b bd 3b 30 87 be 27 8e 36 3e
       -0.07396666 -0.068231516 -0.26403984 0.17827664
0003a0 c8 42 6d bc 96 1c a1 3d 69 3d 62 bc f0 51 57 bd
       -0.014481254 0.078667805 -0.013808587 -0.052568376
0003b0 fe cd cf 3d 47 55 e7 bd fe a4 40 40 97 32 66 3e
       0.10146712 -0.11295562 3.0100703 0.22480236
0003c0 18 83 e9 bd 96 2a 22 be 76 c8 df 3e e7 20 c7 3d
       -0.11401957 -0.15836558 0.43707627 0.097230725
0003d0 c6 5a 91 3e 74 d4 b6 bd 5f fa 6a 3d 19 4f df 3e
       0.28389567 -0.08927241 0.05736768 0.43615034
0003e0 5c 54 c7 be 1e c6 56 3d 92 08 27 bd ca ab 31 bd
       -0.3893155 0.052435033 -0.040779658 -0.04337672
0003f0 df 41 d9 bc 4a 37 9e bb 7e 92 be 3b 8a 01 6d bd
       -0.026520668 -0.0048283683 0.005815803 -0.057862796

fc1.bias f4 [256]
000000 ad 5b 21 be 2d 08 d8 3c 0a 98 00 3f cf c7 54 bc
       -0.15757628 0.026371086 0.50231993 -0.012987091
000010 ac 6a 6f be d0 9e e4 3e 4e 4d 17 bc 7d 28 43 3d
       -0.23380536 0.44652414 -0.0092347395 0.047646035
000020 bf 14 f7 bd 12 b7 14 3f f0 15 f4 be cd 9e 95 bd
       -0.12064504 0.58091843 -0.47672987 -0.073056795
000030 53 f5 6a bd b6 4b b5 3d 72 19 be bd 2d b8 22 be
       -0.057362866 0.08852331 -0.09282197 -0.1589057
000040 f1 da 84 3e d1 ac 87 3c c9 07 10 3c ab 6c 28 bd
       0.2594829 0.016561897 0.008790919 -0.04111926
000050 38 76 fe bd 4f 30 2d 3e ac f9 64 3e 08 2a 10 3e
       -0.12424892 0.1691296 0.22360867 0.14078534
000060 09 7c 05 3e b4 16 64 3e 3d fe 80 be 29 7e a0 3d
       0.13035597 0.22274286 -0.25193968 0.07836563
000070 c8 2f 3a 3e 4a 8d 0e bf f7 38 14 bd 31 0a 2e 3e
       0.1818229 -0.5568434 -0.03618714 0.16996075
000080 f4 6f 61 be 3f e4 1b bd 95 15 1a be d3 47 a0 be
       -0.22015363 -0.03805947 -0.15047295 -0.31304798
000090 a4 f7 7b be fd 15 45 be 1d 67 9c 3d 8e 04 cc 3d
       -0.24606186 -0.19246669 0.07636855 0.09961806
0000a0 44 bd 12 3f 9b 48 9d bd 95 2a 70 3e 0c 04 58 bd
       0.57320046 -0.07679864 0.23453744 -0.052738234
0000b0 93 40 8c be 4c 83 db bd 16 ae 2e 3e bb b6 c5 3e
       -0.27393016 -0.10718402 0.17058596 0.38615975
0000c0 62 73 1a 3e f3 df 0b bf a5 d0 0a be 53 eb 12 bf
       0.15083078 -0.54638594 -0.13556154 -0.57390326
0000d0 5e 4a c3 3e 8b 01 8d be 70 4a ff bc 9e e4 cd be
       0.38142675 -0.2754024 -0.031163424 -0.40213484
0000e0 ba bb 03 bb 63 6e 77 bd 3a 90 29 bb 06 ea b7 3e
       -0.0020100907 -0.060408007 -0.002587332 0.35920733
0000f0 ee 29 64 3d 3a 79 b9 be 72 f1 5f be 3a 91 1b 3d
       0.05570405 -0.362253 -0.21869448 0.037980296
000100 c8 89 01 be 6e a8 2a bf f7 24 4a be cb d9 dd be
       -0.12650216 -0.66663253 -0.19740663 -0.43330225
000110 d8 77 3a 3e 1c c9 4f 3e fb 77 83 be 99 a6 13 be
       0.1820978 0.20291561 -0.25677475 -0.1441902
000120 0e 69 d7 be de e8 8a 3e a5 fc 34 3e f0 05 28 be
       -0.42072338 0.2713079 0.17674501 -0.16408515
000130 a0 c9 91 bd ee 3f 09 3f 9c 69 58 3e cb 55 1a be
       -0.07118535 0.53613174 0.21134037 -0.1507179
000140 09 16 aa be 5f 39 4b 3e 71 37 3c 3e 30 47 27 be
       -0.33219936 0.19846104 0.18380524 -0.1633575
000150 40 8e 2e 3e eb 39 26 be b8 7c d2 bd 99 47 fd 3d
       0.17046452 -0.16233031 -0.102776945 0.12367172
000160 c2 9b f4 3e f7 5a e7 3b b1 17 7c bd ad 5e ed 3e
       0.47775084 0.0070604044 -0.06154603 0.46361294
000170 43 74 70 be 1c 33 18 be 17 1e cf 3c 6b 40 0c 3d
       -0.2348185 -0.14863247 0.025282903 0.03424112
000180 a7 cc dc 3e fb be 27 3d e5 a7 8a be f9 68 94 be
       0.43124887 0.040953618 -0.27081218 -0.28986338
000190 57 3a b3 3e 8c a3 56 be 68 27 b4 3e f8 05 2f be
       0.35005447 -0.20960826 0.35186315 -0.1709212
0001a0 c1 d2 df 3e d0 ce b4 3e 2a 28 e6 bd dc 1c 72 bc
       0.4371548 0.35314035 -0.112381294 -0.014777388
0001b0 95 cc cd be 8e 3a 5b bd 3e 35 52 be 95 9d 74 3c
       -0.40195146 -0.05352264 -0.20528123 0.014930149
0001c0 e0 f4 fe 3d 88 1b 7a bd d3 a2 59 bd 3e 91 ae bc
       0.1244905 -0.061061412 -0.053133797 -0.021309491
0001d0 62 de 0f 3f 7a ab b8 3d 5f 17 23 bd 14 f1 16 3e
       0.56198704 0.090170816 -0.03981721 0.14740402
0001e0 a1 bc 11 bf d4 9c 96 be 69 32 b7 be 9a a2 d3 3d
       -0.5692845 -0.29416525 -0.35780647 0.10333748
0001f0 f0 e6 9b be 75 a0 36 3e 3c 20 b3 bd 80 4e 27 bf
       -0.3044963 0.17834647 -0.087463826 -0.65354156
000200 7a 01 a6 be 83 01 a4 3e cb 88 25 be b0 8a b8 bb
       -0.32423002 0.32032403 -0.16165464 -0.005631767
000210 a3 7f a6 be e4 10 48 bb 15 cc 2b 3f 2b c9 c8 3e
       -0.32519254 -0.0030527646 0.6710828 0.3921598
000220 8d 41 07 3e a7 fb 8e bd eb 3d 06 bf 13 98 99 be
       0.132086 -0.069815926 -0.5243823 -0.29998836
000230 38 87 a2 3e e1 f1 3d 3d c8 31 45 be 89 fc 0c bd
       0.3174379 0.04637325 -0.19257271 -0.034420524
000240 7c 98 02 bf 85 65 23 be 3a 34 95 3d a8 70 09 bf
       -0.5101392 -0.15956695 0.07285352 -0.53687525
000250 ab 6d 21 3e df 52 93 be aa b9 d1 3e 14 8c 60 be
       0.15764491 -0.28774163 0.40961963 -0.21928436
000260 6a 95 52 be fd 69 97 be aa 7d f8 3d 04 7f 97 be
       -0.2056481 -0.2957305 0.121333435 -0.29589093
000270 c2 af d9 be 3e 16 18 bd 0d 77 2b be bc a8 01 3f
       -0.42516905 -0.037130587 -0.16744633 0.50648093
000280 c6 37 5b be cb 94 01 3c 64 b9 59 be 10 cc f0 3d
       -0.21407995 0.00790901 -0.21262127 0.11757672
000290 5c b6 98 3d 3d ba 3b 3e ff 1d b9 be 15 31 4e 3c
       0.07456657 0.18332763 -0.36155698 0.012584944
0002a0 73 0e d9 3e 5f 86 c0 3c 42 54 2b be 90 d7 a2 bd
       0.42393836 0.023501573 -0.1673136 -0.079512715
0002b0 98 98 e9 bd 3c 04 a6 bd 9f 45 24 3e c4 42 36 3e
       -0.11406058 -0.081062764 0.16042183 0.17798907
0002c0 df 83 3a be 3f ce 54 3d b8 b4 0c be b9 07 9a be
       -0.18214367 0.051954504 -0.13740814 -0.30084017
0002d0 6e 7d 22 3c 1d 10 b6 3e 0e 55 b9 bd 3c 57 df 3e
       0.0099176 0.35559168 -0.09049426 0.43621242
0002e0 c6 51 b5 be 34 16 f9 3d 05 c3 ca be 1e dd 87 be
       -0.3541395 0.12162438 -0.39601913 -0.26535887
0002f0 c0 4e 34 3f c6 9d b1 3d 02 b4 21 3d 1d 24 1b be
       0.7043266 0.08672671 0.03947831 -0.15150495
000300 a8 d7 75 be 89 82 ea be 35 24 e3 bd 7c bc da bc
       -0.24008048 -0.45802715 -0.1109089 -0.026701204
000310 b6 24 d4 bc 8d 89 71 be 21 23 43 3e 47 3a d2 bd
       -0.025896411 -0.23587628 0.1905637 -0.10265022
000320 4f b0 3a 3d 02 a6 a1 be 3b 88 15 3e 86 1b 09 bd
       0.045578297 -0.31571966 0.14602749 -0.033473514
000330 66 3d b0 3e d3 40 b1 be ff e7 09 3e 3f a7 18 be
       0.34421843 -0.3461977 0.13467406 -0.1490755
000340 6e e4 9d be b2 20 76 3d 5e b1 fd bd 0c 93 cd 3d
       -0.3083834 0.060089774 -0.12387346 0.100378126
000350 b8 89 b1 be 3c 9e b4 3d 48 8c 4b 3e 2f f1 98 be
       -0.34675384 0.08819243 0.19877732 -0.29871508
000360 ce ea 2d 3e a2 bf d6 be 9f 08 b6 be 64 a8 0e 3f
       0.16984102 -0.4194308 -0.35553452 0.55725694
000370 82 85 3e be 6e 65 ae 3d 71 c3 f8 bd 8f a1 1b be
       -0.18605617 0.0851544 -0.121466525 -0.15198348
000380 5a 00 24 3d 47 66 6c 3e d1 00 c5 be 10 f9 35 be
       0.040039398 0.2308589 -0.38477185 -0.17770791
000390 2b 1e 95 3d 24 04 19 be 18 86 e6 bd 1e 85 6e 3f
       0.07281145 -0.14942986 -0.11256045 0.9317187
0003a0 51 7b 22 3f 0f 1b 9d be d2 b9 97 be cb 27 64 bc
       0.63469416 -0.30684707 -0.29633957 -0.013925503
0003b0 a6 88 63 3d cc 3d ae be f0 fb dc bc 9e db d8 3e
       0.05555024 -0.34031522 -0.026975602 0.42355055
0003c0 68 75 d5 be 59 13 d0 bd 30 13 8b be 48 56 22 3e
       -0.41691136 -0.1015994 -0.27163076 0.15853226
0003d0 76 6f 99 3e aa 0a 08 be 6a e0 a0 bd 12 7c d1 3d
       0.2996785 -0.13285318 -0.078553036 0.10228743
0003e0 4d 72 ab bd f4 84 84 3d ef d1 b1 3e e4 e9 2f bd
       -0.083714105 0.06470671 0.3473048 -0.042947665
0003f0 76 9b c6 3c e6 23 22 3d 39 be c6 bc 93 8e 2b be
       0.024244051 0.039585017 -0.024260627 -0.16753606

fc2.weight f4 [256, 256]
000000 63 fe 09 3c 5e 1d 19 be 2f 21 90 bd 54 88 89 bd
       0.008422467 -0.14952609 -0.07037579 -0.06715456
000010 f7 24 8d 3c 1e 88 2b 3e 81 64 0b be 35 c5 8c bd
       0.01722954 0.16751143 -0.13612558 -0.06873552
000020 b0 b9 90 bd 35 3d 9d bd ed 6e ac 3d 43 17 68 bd
       -0.07066667 -0.0767769 0.08419595 -0.05666281
000030 c9 97 c0 bd 74 d9 32 3d ed 5c d3 3d 59 ac c5 3c
       -0.09403951 0.04366441 0.103204586 0.024130033
000040 94 0f 01 bd be 69 39 bd 16 61 9c bd ad c8 a3 bd
       -0.031508997 -0.04526686 -0.07635705 -0.0799726
000050 e5 41 ff 3b cc 73 83 bd 16 46 82 3c be 0b 5e bd
       0.0077898377 -0.06418571 0.01590256 -0.054210417
000060 84 76 24 be 8e a7 04 3b 83 ba 92 bc 8a 90 8c bd
       -0.16060835 0.0020241472 -0.017911201 -0.06863506
000070 ef 83 dc bd 36 8f 2f bd 1f df ea bd 79 57 85 bd
       -0.10767352 -0.042861186 -0.11468338 -0.06510825
000080 8f c9 b2 bc 42 ed bd bd 79 bb a1 bd 36 85 4d 3d
       -0.021824626 -0.09273769 -0.07897086 0.050175868
000090 f2 90 11 3d 69 7e ea 3c b7 84 0c be 16 06 c4 bd
       0.03553862 0.02862473 -0.13722502 -0.09571473
0000a0 34 53 4b be ca 37 eb bc 9a 3b 85 3c c9 21 b2 bc
       -0.19855958 -0.028713126 0.016263772 -0.021744626
0000b0 f6 bf a0 bc 60 06 ef 3c e2 ae e6 bb c1 a7 54 bd
       -0.019622784 0.029177845 -0.0070398906 -0.051917795
0000c0 ef 1c 86 3c e9 72 e8 3d 4b 7e 89 bd 22 6e 52 3d
       0.016371218 0.113500424 -0.067135416 0.051374562
0000d0 6f a6 9b bd e3 0a d4 bc f4 fc 7b bd 25 71 26 be
       -0.07600104 -0.025884097 -0.06152053 -0.16254099
0000e0 50 3c fd bc 7e f5 a2 3d 93 d4 64 be e4 9d b6 bd
       -0.030912548 0.0795698 -0.22346716 -0.08916834
0000f0 27 99 ab 3c ea a2 82 3b de d1 af bd 4c f5 6a bd
       0.020947052 0.003986706 -0.08584951 -0.05736284
000100 9d 72 4e bd 9d 44 9c bc 34 b5 ee 3c 97 b3 e3 bc
       -0.050402272 -0.019075686 0.029139139 -0.027795596
000110 54 4d 9b 3d 7a 5b 89 bd 9d c0 1a be 27 fc 9c bc
       0.075831085 -0.06706901 -0.15112539 -0.019163204
000120 f9 69 8e bd d1 10 76 3d c7 f7 42 3d 28 d7 28 be
       -0.069538064 0.06007463 0.04759958 -0.16488326
000130 55 ae bf 3d e1 1e bc bc 99 dd bb bd c8 6f 25 3d
       0.09359423 -0.022963943 -0.09173126 0.040389806
000140 b2 09 1d 3d af 2b c2 bc 61 2c af bd 39 41 2f bc
       0.038339324 -0.02370247 -0.085533865 -0.010696703
000150 11 7a f1 3d c4 56 c4 bc a1 a3 10 bd d9 1a 52 bd
       0.117908604 -0.023967154 -0.0353123 -0.051295135
000160 89 10 8b bd 73 a7 35 3d e0 7b bb bc 17 be e3 bc
       -0.06790263 0.044349145 -0.022886217 -0.027800603
000170 3d 5f 29 3d 8c d7 40 bd f2 da 65 3d fa 04 6b 3d
       0.041350592 -0.04708056 0.056117006 0.057377793
000180 a9 80 7d 3d d1 80 f5 bd 6e 6d 8a 3c 93 7d e0 3d
       0.061890278 -0.119874604 0.016897883 0.109614514
000190 0a fe 91 3d 4e 88 cb bc 85 7b 27 3c ad b8 27 3c
       0.07128532 -0.024845269 0.01022232 0.010236901
0001a0 f3 1c 54 bd 5f 47 14 bd e9 c2 52 3d 36 e6 26 bd
       -0.05178542 -0.036200877 0.051455412 -0.04074689
0001b0 27 d8 01 3e ff 6b 56 bd 09 3d 43 bd 21 72 a9 3d
       0.12680112 -0.052349087 -0.04766563 0.082737215
0001c0 8e 8a 23 bc 18 86 8d bd 89 d8 8f bd ca d0 3d bc
       -0.0099817645 -0.06910342 -0.07023723 -0.011585424
0001d0 ed 6e 4b 3d 85 59 71 bc a5 61 13 be 1e e3 65 3d
       0.049666334 -0.014730816 -0.14392717 0.0561248
0001e0 56 c9 4a bd 9a 30 48 bd 08 67 ec bd 07 3a d3 3d
       -0.049508415 -0.048874475 -0.11543089 0.10313802
0001f0 45 30 da 3c 0a a2 1e bc 11 6a d2 bd 8e 44 88 3d
       0.026634345 -0.009682188 -0.10274137 0.06653701
000200 95 0d 8d bc 5a a6 de bc 74 5e b3 3c e4 fa 21 3d
       -0.01721839 -0.027178932 0.021895625 0.03954591
000210 31 a9 a3 3c 55 79 ba 3d 68 52 c8 bd 07 6b 77 bd
       0.019978138 0.091051735 -0.09781343 -0.060404804
000220 56 d0 ed ba 0d a0 15 3d 40 b7 20 3d 3d 27 3e bd
       -0.0018143754 0.03652959 0.03923726 -0.04642414
000230 d3 ca 94 3d 05 c7 11 bd 53 27 fb 3c 82 52 47 3d
       0.07265248 -0.03559019 0.0306584 0.04866267
000240 42 d1 88 bd 15 b1 07 3d d5 05 79 bc 36 b9 8d bd
       -0.06680538 0.033127863 -0.015199144 -0.06920092
000250 97 10 77 bd 59 06 0a bd f1 23 8d bd 22 de 1d be
       -0.060318556 -0.03369746 -0.06891621 -0.15416768
000260 22 36 32 3c 1b c6 e3 3b f5 49 2f bd 31 47 a4 3c
       0.010877164 0.0069511062 -0.04279514 0.020053478
000270 0f 7e 7a 3d a1 41 47 bd e9 3c 13 bd 1a 0a e8 bd
       0.061155375 -0.048646573 -0.03594676 -0.11330052
000280 0d 5a 8a bd 78 dc 8e 3d 08 b6 5c bd ff 76 d6 bd
       -0.06755457 0.06975645 -0.053884536 -0.104719155
000290 e3 08 6d 3c 48 51 ba 3c 9e 9c 46 3d 08 ce c4 bc
       0.014467451 0.022743836 0.048489206 -0.024024025
0002a0 88 d0 e4 3c 17 12 c4 3c 55 3e 7f 3c f5 fb f2 bb
       0.027931467 0.023934407 0.015578826 -0.0074152895
0002b0 e9 36 08 bb f3 b9 8f bd 56 d3 c4 3c aa bc 88 bb
       -0.0020784682 -0.07017889 0.024026554 -0.004172881
0002c0 53 91 39 bd 7b 8c c2 bd 43 a5 d9 bd 37 52 35 3d
       -0.045304608 -0.09499451 -0.10627224 0.04426786
0002d0 bc a5 ae 3d e7 82 d1 bc 87 9e 8f bd 62 28 66 3d
       0.08527705 -0.025575114 -0.070126586 0.056190856
0002e0 54 1e 7a 3c cb 29 9d 3d b2 2e ca bb a3 cd 59 bd
       0.01526602 0.07673987 -0.0061701173 -0.053174626
0002f0 6c be dc bb fc 07 6a 3d e5 f0 3f bc 36 e2 12 be
       -0.0067365672 0.05713652 -0.011715149 -0.14344105
000300 58 7e a4 bd 3c 5a c6 3d 21 69 e0 bd 77 44 f4 3d
       -0.08031911 0.096851796 -0.10957552 0.11927121
000310 e3 2c 21 be 00 7f a7 bc 18 94 0d bd 8d 2c 7c bc
       -0.15739779 -0.0204463 -0.03456506 -0.015391481
000320 2d ea 42 3d 08 12 66 bc 80 7e e4 3b cd 97 2b 3c
       0.04758661 -0.014042385 0.006973088 0.010473204
000330 c7 d6 19 3d 48 f7 eb bc 9d b4 ad bd d2 d7 2f bd
       0.037558343 -0.028804436 -0.08481715 -0.04293043
000340 ec 95 80 3d d1 73 dc bb 45 a5 2f 3b 49 68 8e 3c
       0.06278595 -0.0067276736 0.002680139 0.017383711
000350 ac 3a ad 3d bc 69 dd 3b 38 1c 83 bd d0 7c 0f 3d
       0.084584564 0.0067569893 -0.06401867 0.03503114
000360 2d de 57 3d 64 c7 de bb c6 6c 97 bb 82 54 ad bd
       0.052702118 -0.0067986716 -0.004621121 -0.08463384
000370 2e eb a1 3c 2a 6b 13 3d 67 11 bc 3c 86 84 a7 bc
       0.019765463 0.03599087 0.022957517 -0.020448934
000380 f2 32 6a bd 53 8a 05 be eb 07 4f bd c5 2d b7 3b
       -0.05717749 -0.13041048 -0.05054466 0.005590173
000390 09 ca 81 bd 7a d1 82 bd b1 2a 0e be 4d bd e7 3c
       -0.06337363 -0.06387611 -0.13883473 0.028288508
0003a0 04 31 25 3d 87 15 14 bd d2 b0 09 3c ee 2f 6a bc
       0.040329948 -0.036153343 0.008403974 -0.014293654
0003b0 ff 8e b6 bd 36 f6 63 3d da 67 ee 3b 10 94 ec bc
       -0.08913993 0.055654727 0.0072755637 -0.028879195
0003c0 f2 64 03 bd e7 9c a3 bd b3 2f 89 3c fd 8d 62 3d
       -0.03207869 -0.07988911 0.016746378 0.05531119
0003d0 b8 7a de bd 63 6b 98 3c cf 54 b2 bd 58 15 69 bd
       -0.108632505 0.018605893 -0.08707582 -0.05690512
0003e0 09 ad 29 be f4 7f 8a bc 0e 10 34 3d af 1a 9e 3d
       -0.16569914 -0.016906716 0.043960623 0.07719933
0003f0 77 93 21 be be 3c 42 be 3d 9f 57 bc 84 7b ed 3d
       -0.1577891 -0.18968484 -0.013160524 0.11595824

fc2.bias f4 [256]
000000 7d ea 42 bd 11 a9 e3 bd f9 e2 40 3e 39 19 c8 bd
       -0.047586907 -0.11116231 0.18836583 -0.09770436
000010 97 2d 25 be 81 5a 83 3e b7 dd 4a bd 2c ef 94 3e
       -0.16130672 0.25654987 -0.04952785 0.29088724
000020 51 d6 41 bd 06 77 13 3e 08 29 39 bd ea 6f 05 be
       -0.04732353 0.14400873 -0.045205146 -0.13030973
000030 df 42 33 bd 25 3e ef 3d da f3 80 bb 0e e7 ae 3d
       -0.043764945 0.11681775 -0.0039353194 0.08540164
000040 79 fe e7 bb 93 87 9a 3d 9b bd ff 3c 4b 62 c2 3c
       -0.007079896 0.0754539 0.03121834 0.02372851
000050 9e 2c c3 3b 5a dd 2f 3e 25 58 34 bd 2b f7 2d bc
       0.0059562465 0.17174283 -0.044029374 -0.0106180115
000060 af 09 66 be 46 0c 23 be f4 f6 8d be 5e 74 31 3d
       -0.22464631 -0.1592265 -0.27727473 0.043323867
000070 a3 ec 14 3e 3e 40 5d be 1e 34 71 bd 79 42 43 bd
       0.14543395 -0.21606538 -0.058887593 -0.047670815
000080 97 5c 43 be dd 49 9f bd ab cb 64 3d 40 b6 4b 3e
       -0.19078289 -0.0777776 0.055858295 0.19893742
000090 c1 11 78 be 80 bd 12 3d 9d 47 81 bd 9b 3d 9b 3e
       -0.24225523 0.035825253 -0.06312487 0.3032044
0000a0 83 99 0e 3e 51 56 32 3d a9 0f 64 be 4f 5e 2a 3c
       0.13925748 0.04353935 -0.22271599 0.0103984615
0000b0 84 44 88 3d bd da f8 bd e6 87 04 3d 90 52 96 be
       0.06653693 -0.12151096 0.032356165 -0.29359865
0000c0 5d 80 a9 3d 1a 1b a7 3b 1e 99 2a bd 9f 0c 0c 3e
       0.082764365 0.0050996663 -0.04164993 0.1367669
0000d0 9d 84 5c be 37 96 ff bd b0 c8 13 bd cf 76 36 3d
       -0.21534963 -0.12479823 -0.036080062 0.0445469
0000e0 16 a3 34 3e 92 e2 79 3e 08 ae 84 bd 7c a6 10 3e
       0.17640337 0.24402836 -0.06478506 0.14126009
0000f0 8d f4 4d 3e 6e f6 b4 3d 47 f5 b5 3d a1 2e 24 3e
       0.2011282 0.08836065 0.088846736 0.16033413
000100 fc ca 88 bc 5b 00 7a be a7 89 62 be c9 44 b0 3e
       -0.016698353 -0.24414198 -0.22122823 0.3442748
000110 e9 1d 09 3c 0a 7f 6e be d1 cf 37 3c b3 10 95 3c
       0.008368948 -0.23290649 0.011218981 0.01819644
000120 53 b1 2f be c8 70 0c be 43 0f 16 be 65 f7 61 3e
       -0.17157488 -0.13714898 -0.1465426 0.2206703
000130 ae 4a 3d 3d 25 84 92 bd 2d 6d 2b bc c5 e8 12 bd
       0.0462138 -0.07154111 -0.010463041 -0.035866518
000140 4c 6c 39 be 11 e8 bd bd 43 de c1 3e eb 9e 32 be
       -0.18107718 -0.09272779 0.37864885 -0.17443435
000150 57 11 f6 bb 2d 24 4a be 47 58 13 3d 34 f6 23 be
       -0.0075093913 -0.19740362 0.03597286 -0.16011888
000160 f9 1e 55 be 6c 50 3f 3e 62 5b 74 bd 99 7d 70 bd
       -0.20812596 0.18683022 -0.059657462 -0.05871353
000170 ea 76 09 3e 21 71 0a 3e 1f 73 2b 3d 15 63 b6 bd
       0.13424268 0.13519718 0.041857835 -0.08905617
000180 e5 cf 70 bd 21 e2 e1 bd 48 a9 1f bb d5 19 2f 3e
       -0.058792014 -0.11029459 -0.0024362374 0.17099698
000190 c9 90 8e bd 03 ab e0 3d a1 45 ef 3d fe 1c 91 3b
       -0.06961209 0.10970118 0.116832025 0.004428505
0001a0 99 11 db 3d 99 cc 14 3d 6f 9e 73 3e aa f3 62 3d
       0.10696716 0.036327932 0.23790906 0.055408157
0001b0 bb 07 cc 3c 6c 21 a0 bc 19 26 8b be 26 aa 46 be
       0.02490603 -0.019547187 -0.27177504 -0.19400844
0001c0 9b bc b2 3d bf 40 26 bd c4 f2 5e 3c 29 0c 07 be
       0.0872738 -0.04058909 0.0136076845 -0.13188232
0001d0 0b c7 9d 3c be 3c df bd 55 5c c9 3c a9 34 14 be
       0.01925995 -0.109002575 0.02458016 -0.14473213
0001e0 a7 fb 28 bd 56 a9 0e bd b0 57 90 be 8e b7 ed 3c
       -0.04125562 -0.03482946 -0.281919 0.02901819
0001f0 55 9f 2d be 4c 94 d5 bd 9f 78 80 3e 9e 44 04 3e
       -0.16955312 -0.10428676 0.25092027 0.129168
000200 30 2d ed 3d 42 2e cd 3d 7b 73 35 3e c3 dd bd 3d
       0.115808845 0.100185886 0.17719834 0.09270813
000210 4f 72 41 3d 50 77 44 3e 63 27 eb 3d f2 ae ba bc
       0.047228154 0.19186139 0.11482122 -0.022788499
000220 88 a8 2a 3e d7 13 c0 3d 20 a5 48 be 20 65 ae bd
       0.16665852 0.09378784 -0.1959424 -0.08515382
000230 6e 27 e0 3d 57 db 1b 3c df 83 93 bd b3 68 37 be
       0.109450206 0.009512744 -0.07202887 -0.17911033
000240 4c 3d 8e bd b5 fb 16 3e d5 e4 23 3e 96 eb 19 3e
       -0.06945285 0.14744456 0.16005261 0.15031275
000250 fd 7f f5 bc 0a 6b a9 bd 0f 17 09 3e ba 07 2c 3e
       -0.029968256 -0.08272369 0.13387702 0.16799822
000260 dd cc 9b be 20 ea 7e 3d 87 c8 57 be d6 2f 19 bc
       -0.30429736 0.062234998 -0.21072589 -0.009349784
000270 03 07 76 be 51 cf 3e bd e8 35 fc bb 41 0f c8 bc
       -0.24026112 -0.04658443 -0.007696856 -0.024421336
000280 89 1e 3a 3e 40 fb 21 3e 14 0d 49 be 2a 6b ab 3c
       0.1817571 0.158185 -0.19633895 0.020925123
000290 c3 ed bc ba 7c 03 c1 3c c0 59 aa 3d cf 79 64 3e
       -0.001441412 0.023561232 0.083179 0.22312091
0002a0 9b 0e 43 bd ec ac e3 3d cd b3 fb bd 04 fb 4d 3e
       -0.04762135 0.111169666 -0.12290154 0.20115286
0002b0 6a 83 e5 3c aa 35 a9 3d 73 f1 a2 3b 76 68 15 be
       0.028016765 0.08262189 0.0049726306 -0.1459063
0002c0 5b 8a 13 bc fd 0c 06 3e da cf 5f 3e 87 c7 6f 3d
       -0.0090051545 0.13090892 0.21856633 0.058539893
0002d0 12 02 17 be a7 b9 a3 3d d8 b3 a4 bd 66 c6 ed bc
       -0.14746884 0.07994395 -0.08042115 -0.029025268
0002e0 82 09 d6 3d fc a4 cd bd 6b 80 d1 3d 2d a9 ca 3b
       0.10451032 -0.10041234 0.10229572 0.006184718
0002f0 62 05 e6 bc 2d 5a 6c bd 55 b2 19 3e 90 f7 9b 3d
       -0.028078739 -0.057703186 0.15009435 0.07615578
000300 4d 64 1a be db 52 09 be 9f 1c 5b 3e 55 b1 ce 3d
       -0.15077324 -0.13410513 0.21397637 0.10092417
000310 b3 d4 37 3e 35 9c c7 3d 2a 88 56 bd d6 fa 11 3c
       0.17952232 0.09746591 -0.05237595 0.008909902
000320 86 d4 e8 3d 92 d5 e1 3d 7a 1c 4d be bf b4 a3 bd
       0.11368661 0.110270634 -0.20030394 -0.07993459
000330 04 52 a6 3c 10 e0 67 bc 5b 6e eb 3d 42 c2 10 be
       0.02030278 -0.014152542 0.11495658 -0.14136603
000340 fe d5 05 bd 81 14 71 bb d7 56 09 be ee 0f 0c 3d
       -0.032674782 -0.0036785903 -0.13412033 0.03419488
000350 99 02 5b be 16 58 87 be 4c 07 06 be c9 63 6e be
       -0.2138771 -0.26434392 -0.13088721 -0.23280253
000360 e6 1b 70 3d ee 30 cc bd d6 d5 fc bd 1c 40 1c be
       0.058620356 -0.0997027 -0.123454735 -0.15258831
000370 ec 2f 5c 3e ac bd 15 3e 4a 90 69 be 2d b9 80 3d
       0.21502656 0.14623135 -0.22808948 0.062853195
000380 42 57 bd 3d 58 29 d9 3d 03 c1 e8 bd 5b 18 b1 be
       0.09245159 0.10603589 -0.11364939 -0.34588894
000390 a9 b5 05 3e 90 5e 8f be 08 32 43 be ed ef c1 bd
       0.13057579 -0.28001833 -0.19062054 -0.0946959
0003a0 1a 37 8d 3d f0 03 a6 3d ec dc 6d 3e 8a 73 20 bc
       0.068952754 0.0810622 0.23228806 -0.009793172
0003b0 56 bf 3a 3e 44 8e b5 3d 34 ea 0b 3e 33 cd 54 be
       0.18237051 0.08865026 0.1366356 -0.20781402
0003c0 de ee e4 bd b5 93 8c 3d 21 93 79 bd a9 32 78 be
       -0.11178373 0.068641104 -0.06093133 -0.24238075
0003d0 5f 35 b4 bd c4 5e 53 bd 93 dc 72 be 99 da c6 bd
       -0.08799242 -0.051604047 -0.23716955 -0.09709663
0003e0 b0 3b bc bc 7e 44 db 3d ec b1 01 bd d5 e8 05 bc
       -0.02297768 0.10706423 -0.03166382 -0.008173187
0003f0 b1 64 87 bd 12 74 45 be b9 bd 96 be 9e 3a 8b bc
       -0.06611002 -0.19282559 -0.29441622 -0.016995724

fc3.weight f4 [6, 256]
000000 92 7f 8f bd ec c0 41 3e e8 29 14 be f9 3e 8b 3d
       -0.07006754 0.1892125 -0.14469111 0.067991205
000010 d8 55 83 3d 26 57 46 3e 78 a3 dd bc 23 63 08 bd
       0.06412858 0.19369182 -0.027055487 -0.03329767
000020 f1 b2 91 bd f0 6a 72 3e 5c 60 4c 3d 95 4a a6 3d
       -0.071142085 0.23673606 0.049896583 0.08119694
000030 05 ff ed 3d 8b f8 35 3b cd 30 1e be 9c 24 db 3d
       0.11620907 0.0027766551 -0.15448304 0.10700342
000040 3e db 54 3d 05 01 1e be 02 da 78 bd 5e 1f 14 be
       0.0519669 -0.15430076 -0.060754783 -0.1446509
000050 ab d0 b9 bc 19 65 a1 ba 5c 3e ad bd ee d1 72 be
       -0.022682508 -0.0012313455 -0.0845916 -0.23712894
000060 01 ed 00 bd 85 4e 42 be 0f 44 eb bc 91 2b a3 bd
       -0.031476025 -0.18975265 -0.028718976 -0.07967294
000070 60 69 8d 3c 05 da 42 3e 59 92 81 3d 27 cb 86 be
       0.01726216 0.1902848 0.06326742 -0.26326868
000080 14 73 71 3c fc 9b dd 3d 70 9f a7 3d f1 24 36 bd
       0.014736909 0.10820767 0.08184707 -0.044468824
000090 b1 28 f3 bb 32 49 ec bc 64 6e 76 3d b6 c4 9a be
       -0.0074206223 -0.028843496 0.06016387 -0.30228204
0000a0 a7 d2 b2 3c 5a 93 2f 3d e2 78 bc 3d c6 1a d9 bc
       0.021828962 0.042865135 0.09202744 -0.026502024
0000b0 48 3a 12 3e 43 6e 07 3d 97 9d 55 3c f5 40 95 bc
       0.14280045 0.03306414 0.013038061 -0.01821945
0000c0 a9 8e 79 3d 32 bc 34 bd b1 9e 55 3e 85 0a 2c 3e
       0.060927067 -0.04412479 0.20861317 0.16800888
0000d0 fe 1a e2 bd e3 07 04 3d 66 ee 3e 3d 8a e5 cf 3a
       -0.110403046 0.032234084 0.046614073 0.0015861255
0000e0 ab b3 4a 3b 32 22 a1 be fc b7 e1 3d c4 b6 bd 3d
       0.0030929844 -0.314714 0.1102142 0.092633754
0000f0 53 df c5 bc 65 c7 41 3d 15 49 bc be 0d 91 9c bc
       -0.02415434 0.047309298 -0.36774507 -0.019112134
000100 fd 01 1c 3d 07 79 ec bc d7 76 b6 3d b3 52 7e be
       0.038087834 -0.028866304 0.08909386 -0.24836235
000110 43 89 82 3d 80 73 cc 3b 25 70 b4 3b b9 14 6b bd
       0.06373837 0.0062393546 0.0055065327 -0.05739281
000120 bd 17 20 3e 32 48 7f bd f6 e7 ed 3c dd 51 1e 3d
       0.15634055 -0.06232471 0.029041272 0.03865229
000130 70 25 60 bc 9c 9b 51 3d 1b 84 d3 bd b7 51 5d 3d
       -0.013680801 0.05117379 -0.103279315 0.054033007
000140 dd 00 7d 3d c7 2f 5a 3d 77 6d 69 be 3b 77 2a bd
       0.0617684 0.05326822 -0.22795664 -0.041617613
000150 4d 34 99 bd 9b 3a 2c 3d 2b 52 49 3d 4b 4b 23 bc
       -0.07480679 0.042048078 0.049150627 -0.009966682
000160 15 df 32 3d 57 09 88 bc 2a f7 d6 bd cd a5 a3 3b
       0.04366978 -0.016606016 -0.104963616 0.00499413
000170 12 56 4b bb 81 b5 dd 3d d9 df 3f bd 3c 9c 60 3d
       -0.0031026644 0.10825635 -0.046844337 0.054836497
000180 11 bf 34 3e d3 ae 2f 3e 07 35 8c 3e 69 6d 2b bd
       0.17651011 0.17156534 0.27384207 -0.04185239
000190 71 2c 8a be 21 8c 32 3b dc 5a ab 3c ab 1c 40 bd
       -0.2698703 0.0027244168 0.020917349 -0.04690234
0001a0 cc e2 4b bc e7 12 0b bd f0 36 e7 3d 07 54 82 3b
       -0.012444209 -0.033953574 0.11289775 0.003977302
0001b0 45 96 2b bc 42 15 be bc e4 4a cd 3c a0 c8 9c bc
       -0.010472839 -0.023203496 0.025060125 -0.019138634
0001c0 58 1a da bd 05 bd 34 3e 39 4a 38 be 54 9a 88 3e
       -0.10649556 0.1765023 -0.17997064 0.26680243
0001d0 17 c0 32 be 4d bb 88 bc fe f5 85 3d 48 33 2d 3e
       -0.17456089 -0.016690874 0.0654106 0.16914093
0001e0 5e 5e db 3c c7 17 93 bc 66 82 ce bc 9b d6 bb bd
       0.026778396 -0.017955674 -0.025208663 -0.09171792
0001f0 91 db 2c be 17 c7 69 3d 44 a3 6d bd cf 3c 01 be
       -0.16880633 0.057074632 -0.05801703 -0.12620853
000200 be 2f 5a bd 6a 65 86 3d 9c b0 e6 bd 7a 09 08 bf
       -0.053268187 0.06562312 -0.11264154 -0.5313946
000210 63 5d 94 3d 4d 60 94 3d 6c e2 33 3d 0d d5 52 be
       0.072443746 0.072449304 0.043917105 -0.20589085
000220 7e c2 bc bd 7d 53 c3 3d aa d5 2a 3e c4 4c c3 3d
       -0.09216784 0.095374085 0.16683069 0.09536126
000230 cb 37 7b bc e0 4a 80 3d 5d 2d 9a bc 90 8f 8e 3b
       -0.015333126 0.06264281 -0.018820459 0.00435061
000240 e1 ad b2 bc 49 6d ee 3d de 0d 1b 3f 1a c2 d9 bd
       -0.021811428 0.11641938 0.60568035 -0.10632725
000250 9c cf 39 3c 0c bf 97 3d 6c cf 3c bd 84 5c e8 bd
       0.011341002 0.07409486 -0.04609625 -0.11345771
000260 6a bc bd 3d 37 66 4b bc d5 f8 53 be 57 35 6f bd
       0.09264453 -0.012414507 -0.2070039 -0.05840048
000270 f8 bf dd 3d 44 ac 2c 3e 66 15 91 3d 58 86 31 bd
       0.10827631 0.16862589 0.070841596 -0.04334101
000280 ad c7 1b 3d 2f d1 0e bd 3f 35 8a 3d f8 f3 c3 bd
       0.038032223 -0.03486746 0.06748437 -0.09568018
000290 69 40 09 bd dd 90 af 3b 06 89 2f bd b2 4c 37 be
       -0.033508692 0.005357845 -0.042855285 -0.1790035
0002a0 87 74 26 3c ea d1 a2 3d 38 e1 84 bc 87 d2 9e bd
       0.010159618 0.07950194 -0.016220674 -0.07754999
0002b0 f8 1a 59 3e d7 7a 18 3e a6 54 74 bd 7b 86 32 bc
       0.21201694 0.1489061 -0.05965104 -0.01089632
0002c0 6c c4 68 be 8a 26 40 be 97 cc 4c bb 85 fa d2 bd
       -0.22731179 -0.18764701 -0.0031249875 -0.10301689
0002d0 92 e4 a3 3d 80 87 9a bc 3f 2f 90 3e 65 bc da 3d
       0.08002581 -0.01886344 0.28161046 0.10680465
0002e0 9f b1 cc 3c 21 e1 5b bc df 3e fd 3c 70 56 f0 bd
       0.02498704 -0.013420374 0.030913768 -0.11735237
0002f0 28 2e 02 3d 1d a1 95 b8 c9 cb b9 3d e0 4c 15 bd
       0.0317823 -7.134883e-05 0.09072072 -0.036450267
000300 98 35 43 be 70 8c f0 3d 54 f4 09 be 22 02 9c bd
       -0.19063413 0.11745536 -0.1347211 -0.07617594
000310 de d0 45 bd 93 9f f1 be 9f 3f 4d 3d 1c e2 23 be
       -0.048294894 -0.47192058 0.050109502 -0.16004223
000320 71 f1 8b bb 92 d1 e9 3b 5f c6 84 be 60 92 03 bb
       -0.0042707254 0.0071355784 -0.25932595 -0.002007626
000330 53 c5 03 3e c1 c2 ca bd 9d e8 1a 3d f9 e5 0e bd
       0.12868242 -0.099004276 0.037819494 -0.034887288
000340 a9 d9 11 3c f7 e6 98 bd 00 8d 25 3e 64 f6 9f 3d
       0.008901992 -0.07465928 0.16167068 0.07810667
000350 7f 17 d2 3d 78 4e 15 bd f4 3b 63 3d 44 e5 fd bd
       0.10258388 -0.036451787 0.055477098 -0.123972446
000360 5f 7c c4 3c 01 3e b6 3d 8b d7 f3 3d bd ef a9 bd
       0.023985086 0.08898545 0.11906346 -0.082976796
000370 b4 1a 0c 3d b2 36 8c 3c 8a 33 b4 be 8e 9c 53 3e
       0.034205154 0.017115925 -0.3519557 0.2066519
000380 87 d8 22 3e 98 ab 91 3d 70 0b 78 be 7d 2d e7 bd
       0.15902911 0.07112807 -0.24223113 -0.11287973
000390 0f 78 e0 bc 1a a4 ee 3b 8f ac c4 3c bf 61 c4 3d
       -0.027400998 0.007282746 0.024008064 0.09588956
0003a0 87 d3 0b 3e 6c 19 b8 bd a9 a6 c4 bd 38 b4 93 3d
       0.1365491 -0.08989224 -0.096021004 0.072121084
0003b0 73 62 03 3c 1c 1a 44 bd 63 8c 9a bd 97 ea a1 3d
       0.008019078 -0.047876462 -0.07546308 0.079060726
0003c0 a4 77 a7 3d b6 bc 05 bd 15 bc 1d 3e cd 1a 31 be
       0.081771165 -0.032650672 0.15403779 -0.1729538
0003d0 d2 3d e7 3c d6 09 ec 3c 2e a6 6f 3d f7 77 22 bd
       0.02822772 0.028813284 0.05850809 -0.03966519
0003e0 45 e4 29 3b 9a 38 11 3d 65 5f 8f 3e c3 90 be bd
       0.0025923413 0.03545437 0.28002468 -0.09304955
0003f0 cb c6 f2 bd 0a c8 28 bb 3f 19 f0 bd b7 36 c1 3d
       -0.11854323 -0.0025753998 -0.11723565 0.09434264

fc3.bias f4 [6]
000000 54 20 81 bd c4 27 3c be aa b0 f5 3d d2 b6 f0 3d
       -0.06304994 -0.18374544 0.119965866 0.1175362
000010 1a 35 91 3d a7 70 89 3d
       0.070902064 0.0671094
