model_save/bc/bc_policy5.pt (torch, 289751 bytes, 6 tensors)

fc1.weight f4 [256, 17]
-0.07299112 0.18259194 0.055887524 0.4125119 0.029615937 0.06356502 -0.19561902 -0.25495455
-0.27137107 0.38526717 0.31653997 0.1517871 0.20905618 0.14546767 -0.19864844 -0.20501651
0.20649588 -0.33742213 -0.040674057 0.24315377 0.13902955 -0.0023054394 -0.013037777 -0.021405857
-0.39732048 0.021888591 -0.47005346 0.19500272 0.051286165 0.15902081 -0.0034842533 0.119787775
0.23171294 0.16441813 -0.52656543 0.04448473 -0.06646909 -0.4379299 -0.18873477 -0.2673056
-0.03337169 -0.2884011 -0.1223869 -0.25712636 0.020906433 0.038629282 0.07327799 0.13283542
-0.061983377 -0.09073233 0.14316708 -0.21561581 0.13627821 -0.09421707 -0.06708486 -0.15238146
-0.121874586 0.0589002 0.057271566 -0.17847554 -0.096570805 0.2621917 0.23640952 0.11586852
-0.08401277 0.24891739 -0.20095955 0.043238617 0.47848803 -1.3870921 0.2654414 -0.15753955
0.3026384 0.18710752 0.26019058 0.1934085 -0.03657235 -0.032490753 -0.27706695 0.0027691182
0.055746414 -0.1347148 0.04571142 -0.0007984779 0.0031015228 -0.30933702 0.23866639 -0.25895625
-0.3995863 0.40923917 0.23342884 0.059539452 -0.044435326 -0.23816127 -0.28037336 -0.0722219
0.06897436 -0.09303058 -0.031239092 -0.054813046 -0.15427996 -0.12942474 0.14809737 -0.10287787
0.07215002 -0.0076010823 -0.08889383 0.33540788 -0.33203763 0.25961596 -0.09235383 0.44963112
0.3059777 -0.015561061 -0.029270208 0.18918814 -0.08594927 0.20013031 -0.19010189 0.08544431
0.35088292 0.06928869 0.4086218 -0.07362444 -0.2557223 -0.2487969 0.39404124 0.055842623
-0.054072894 0.21361989 0.059503604 0.008913808 0.074875034 0.08903516 0.13264152 -0.06307782
-0.20270008 0.06609736 0.1328089 -0.17994806 -0.08662674 -0.4455253 -0.19008079 0.14193742
-0.13458078 -0.47068208 0.5733009 -0.20600301 -0.12647434 0.03777465 -0.08001955 0.09480133
0.17994535 0.03772834 -0.24976419 0.21803571 -0.31548494 0.094353296 -0.53780365 0.36611298
-0.3065032 -0.09663551 -0.574057 -0.08754319 0.015250962 -0.10062024 0.25613242 0.06410821
0.029125873 -0.1632608 -0.07074625 0.14953008 -0.006233409 -0.17948736 0.17543903 -0.37992176
0.3287891 -0.12672338 -0.06606907 -0.49818084 0.25360808 0.021756707 -0.16269678 0.14158615
0.17468335 -0.12374885 0.0496068 -0.36732507 0.17386723 -0.44450685 -0.32476306 -0.09928507
0.4676668 -0.50292605 -0.037797622 -0.18115225 -0.19871634 0.20693274 0.07316405 0.1801167
-0.011666533 0.10760542 -0.11406533 0.0993023 -0.8548309 -0.5916986 -0.44891018 -0.20488727
-0.28823647 -0.11653001 -0.17640443 -0.26856774 -0.06822694 -0.29898506 -0.11223393 0.15867417
-0.07061926 0.12923059 -0.006190084 0.054851826 -0.12583104 -0.41283086 -0.03979324 -0.11268964
0.10013265 0.26463804 -0.09186584 -0.3459183 -0.17397213 -0.020763034 -0.15250495 0.18543173
-0.008411377 0.12313113 -0.022959398 -0.17983402 0.11419882 -0.23183747 0.6256601 0.16020337
-0.104078926 -0.02507454 0.31882316 0.071369894 0.32142034 -0.009871577 0.07247502 0.4120124
-0.33673522 0.16362923 -0.101604246 -0.060691006 -0.0840055 0.026119672 0.06444711 -0.0031551672
00000000: 5e7c 95bd 62f9 3a3e 51ea 643d c234 d33e
00000010: 1f9d f23c 612e 823d 5a50 48be 6789 82be
00000020: 26f1 8abe bd41 c53e 8711 a23e 146e 1b3e
00000030: d312 563e 7af5 143e 7f6a 4bbe d9ef 51be
00000040: a873 533e 98c2 acbe d799 26bd 4dfd 783e
00000050: c35d 0e3e db16 17bb 669c 55bc 565b afbc
00000060: 976d cbbe b44f b33c d9aa f0be cbae 473e
00000070: 7111 523d 5ad6 223e 1258 64bb 4b53 f53d
00000080: 2846 6d3e 3a5d 283e fecc 06bf 9f35 363d
00000090: f220 88bd 5938 e0be b043 41be 48dc 88be
000000a0: c1b0 08bd 4fa9 93be fca5 fabd 11a6 83be
000000b0: f843 ab3c bd39 1e3d c512 963d 0206 083e
000000c0: 48e2 7dbd dfd1 b9bd 649a 123e 64ca 5cbe
000000d0: 848c 0b3e e1f4 c0bd c963 89bd e309 1cbe
000000e0: 6299 f9bd 5641 713d 9795 6a3d 4bc2 36be
000000f0: eac6 c5bd fe3d 863e 5615 723e 7a4c ed3d
00000100: e30e acbd 33e4 7e3e 57c8 4dbe fa1a 313d
00000110: 62fc f43e 3c8c b1bf efe7 873e 0c52 21be
00000120: 6cf3 9a3e 1d99 3f3e b337 853e e10c 463e
00000130: e3cc 15bd 0615 05bd b8db 8dbe 187a 353b
00000140: 5a56 643d adf2 09be e63b 3b3d f250 51ba
00000150: eb42 4b3b 6c61 9ebe f664 743e ea95 84be
00000160: 9396 ccbe cc87 d13e f807 6f3e a4df 733d
00000170: d101 36bd 8ce0 73be 198d 8fbe 13e9 93bd
00000180: 6e42 8d3d d186 bebd 20e9 ffbc a583 60bd
00000190: 91fb 1dbe eb87 04be d6a6 173e a2b1 d2bd
000001a0: 64c3 933d 8012 f9bb f80d b6bd 95ba ab3e
000001b0: d600 aabe 62ec 843e 0124 bdbd 0d36 e63e
000001c0: 1ca9 9c3e d2f3 7ebc 13c8 efbc 89ba 413e
000001d0: 2c06 b0bd f6ee 4c3e 12aa 42be 6dfd ae3d
000001e0: eda6 b33e 3be7 8d3d e036 d13e 69c8 96bd
000001f0: 09ee 82be 9dc4 7ebe c6bf c93e 3cbb 643d
00000200: 8a7b 5dbd 2cbf 5a3e 0dba 733d 380b 123c
00000210: 1558 993d 1158 b63d 2ed3 073e f22e 81bd
00000220: 9c90 4fbe 0d5e 873d 0eff 073e 4e44 38be
00000230: 5c69 b1bd e41b e4be 8aa4 42be 0b58 113e
00000240: 8bcf 09be 3efd f0be d9c3 123f 74f2 52be
00000250: 7d82 01be 97b9 1a3d 4ae1 a3bd 3327 c23d
00000260: 9843 383e 0889 1a3d 2fc2 7fbe c144 5f3e
00000270: 3e87 a1be 4d3c c13d 80ad 09bf 2973 bb3e
00000280: fded 9cbe d7e8 c5bd 66f5 12bf d849 b3bd
00000290: 2cdf 793c fc11 cebd ca23 833e 2a4b 833d
000002a0: 6299 ee3c d72d 27be 69e3 90bd 6a1e 193e
000002b0: a041 ccbb 89cb 37be 4aa6 333e 1b85 c2be
000002c0: 0b57 a83e c6c3 01be 384f 87bd 8f11 ffbe
000002d0: ebd8 813e 1f3b b23c fc99 26be f6fb 103e
000002e0: 31e0 323e 0970 fdbd 8030 4b3d 0812 bcbe
000002f0: 400a 323e 6796 e3be 5847 a6be f955 cbbd
00000300: 0672 ef3e c3bf 00bf aed1 1abd fa7f 39be
00000310: 4c7c 4bbe 2de6 533e 09d7 953d 8370 383e
00000320: fc24 3fbc 3b60 dc3d 159b e9bd 015f cb3d
00000330: 33d6 5abf 8f79 17bf 8ed7 e5be f8cd 51be
00000340: bb93 93be 49a7 eebd 5da3 34be b681 89be
00000350: 91ba 8bbd 9214 99be e7da e5bd 7b7b 223e
00000360: d5a0 90bd 0655 043e 30d6 cabb 4fac 603d
00000370: dad9 00be 915e d3be 3dfe 22bd d3c9 e6bd
00000380: 5912 cd3d a37e 873e 2824 bcbd 341c b1be
00000390: c025 32be 3d17 aabc 422a 1cbe d1e1 3d3e
000003a0: dfcf 09bc 2d2c fc3d 5915 bcbc 6926 38be
000003b0: 12e1 e93d cd66 6dbe 432b 203f 5a0c 243e
000003c0: 5527 d5bd 1f69 cdbc ca3c a33e 612a 923d
000003d0: 3591 a43e 65bc 21bc c96d 943d 4af3 d23e
000003e0: 8f68 acbe 6c8e 273e e315 d0bd 2297 78bd
000003f0: 130b acbd ecf8 d53c d9fc 833d ecc6 4ebb

fc1.bias f4 [256]
0.091652766 0.0066458904 0.18981215 0.025223838 -0.19507486 0.11740179 -0.04100547 0.1283008
-0.07581932 0.3741207 -0.23132612 -0.027643004 -0.012075065 0.23221992 -0.12161389 0.048543368
0.039718084 0.025148055 -0.16646937 -0.05586697 -0.0809541 0.09607331 0.17469084 0.19315709
0.076877646 0.12375892 -0.13827662 0.00036679703 0.06754015 -0.12470448 -0.010806614 0.15167975
0.009784683 -0.056798637 -0.13549674 -0.012951987 -0.035032064 -0.12718694 0.056601945 0.119593225
0.35067683 -0.00878062 0.12651981 0.10430135 -0.09516577 -0.009872216 0.14298443 0.19113053
0.15321058 -0.26418024 -0.13044353 -0.21114075 0.2530736 -0.120026365 0.023377515 -0.1854539
-0.01593784 0.09252583 -0.009691493 0.18661766 0.09075377 -0.11725329 -0.07934984 0.039509505
-0.07609195 -0.274737 -0.015942227 -0.18484288 0.19822331 0.1490097 -0.05214468 -0.14744851
-0.15540224 0.19191806 0.100966 -0.18527922 -0.092188254 0.31866348 0.16309151 -0.022111611
-0.13723314 0.18075457 -0.019292383 -0.13290285 0.14494322 0.010335471 -0.07408551 0.18714944
0.19103356 0.024588866 0.03709124 0.2366154 -0.11021661 -0.012978236 -0.041249227 0.23280646
0.20276906 0.119287446 -0.1675058 -0.21568578 0.23037799 -0.09324603 0.10861578 -0.1562736
0.25540113 0.18536238 -0.08458019 0.082568035 -0.1099235 -0.032019507 -0.11218434 0.108807735
0.031468406 -0.101528436 -0.03238767 -0.11317075 0.30036095 0.06838564 -0.035349496 0.21110228
-0.23768722 -0.1104041 -0.21510789 0.10112483 -0.14662553 0.16204704 -0.040205814 -0.30503774
-0.093604654 0.112988696 -0.09998893 0.03365947 -0.18642746 0.039002303 0.21058819 0.22466795
0.031389654 0.034226604 -0.28768602 -0.029256886 0.24236582 0.092084855 -0.07248763 -0.00070406037
-0.085439354 -0.03977344 0.046515692 -0.19444245 -0.029172499 -0.17302455 0.27941388 -0.1239983
-0.08404074 -0.22927369 0.08442854 -0.15625648 -0.21851043 -0.019244336 -0.06778975 0.23834197
-0.06512514 0.10778585 -0.19428445 0.14632724 0.025811471 0.15520336 -0.1348278 0.022441281
0.2709067 0.06655621 -0.06436377 -0.14032966 -0.062575124 -0.0032321252 0.2127144 0.08413892
0.04770164 0.006365601 -0.17532544 -0.1750419 -0.05274658 0.30054682 -0.15739706 0.24636322
-0.17652988 0.16283563 -0.14414078 -0.09899163 0.2120552 0.043639384 0.16229883 -0.006727815
-0.22067577 -0.18120745 0.019522915 -0.04156369 0.053528834 -0.17888755 0.093822874 0.004965706
0.05921201 -0.14418149 0.16462566 0.0029821908 0.26690304 -0.18974784 0.18938212 -0.10321485
-0.15224642 0.23772778 -0.04658079 0.061150037 -0.09634061 0.0788799 0.09923253 -0.061921936
0.2302302 -0.17981079 -0.083028056 0.35756764 -0.11502781 0.15529115 -0.20839079 -0.2081777
0.0355603 0.17269272 -0.20181668 -0.10911925 0.10325764 -0.17983195 -0.19574797 0.40870422
0.1853616 -0.061444063 0.0038153995 -0.14477655 0.019172017 -0.21236028 0.09982168 0.2045091
-0.19583935 -0.09582417 -0.10718902 0.1981901 0.12595984 -0.07572152 0.14296284 0.07632758
-0.043015435 0.01120439 0.25284266 -0.040686626 -0.025627622 0.06424706 0.026529916 -0.07586044
00000000: 72b4 bb3d c5c5 d93b 1e5e 423e 39a2 ce3c
00000010: b4c1 47be 5a70 f03d 5af5 27bd 4961 033e
00000020: 2947 9bbd c08c bf3e c1e0 6cbe 9573 e2bc
00000030: 7ed6 45bc 0fcb 6d3e b410 f9bd 69d5 463d
00000040: 6eaf 223d 4b03 ce3c f276 2abe c4d4 64bd
00000050: 43cb a5bd 15c2 c43d 28e2 323e f9ca 453e
00000060: 0772 9d3d 5175 fd3d 6398 0dbe aa4e c039
00000070: 7d52 8a3d 1065 ffbd 390e 31bc f051 1b3e
00000080: ef4f 203c b0a5 68bd a8bf 0abe 9234 54bc
00000090: c87d 0fbd 4b3d 02be 71d7 673d 4bed f43d
000000a0: ea8b b33e 97dc 0fbc 698e 013e f29b d53d
000000b0: 45e6 c2bd 13bf 21bc 836a 123e b9b7 433e
000000c0: 3ce3 1c3e a242 87be fd92 05be 4835 58be
000000d0: dd92 813e 62d0 f5bd 3482 bf3c a1e7 3dbe
000000e0: 1390 82bc 2f7e bd3d 11c9 1ebc b318 3f3e
000000f0: 1ddd b93d 7e22 f0bd 2b82 a2bd b8d4 213d
00000100: 19d6 9bbd 54aa 8cbe 4699 82bc 7447 3dbe
00000110: 0dfb 4a3e 0096 183e a995 55bd befc 16be
00000120: c421 1fbe 2b86 443e 43c7 ce3d d6b9 3dbe
00000130: 32cd bcbd dc27 a33e 7601 273e 6923 b5bc
00000140: d886 0cbe ba17 393e 0f0b 9ebc af17 08be
00000150: ff6b 143e 1b56 293c 25ba 97bd 1aa4 3f3e
00000160: 4d9e 433e 976e c93c fcec 173d 4f4b 723e
00000170: 3fb9 e1bd aba2 54bc f3f4 28bd d164 6e3e
00000180: b1a2 4f3e fa4c f43d a486 2bbe bcdc 5cbe
00000190: 35e8 6b3e c6f7 bebd f371 de3d 3006 20be
000001a0: f0c3 823e a3cf 3d3e 6138 adbd 6e19 a93d
000001b0: 921f e1bd e326 03bd e7c0 e5bd 97d6 de3d
000001c0: 04e5 003d 24ee cfbd efa8 04bd 11c6 e7bd
000001d0: e9c8 993e c50d 8c3d a2ca 10bd 322b 583e
000001e0: 4764 73be 8b1b e2bd 3e45 5cbe 891a cf3d
000001f0: 0125 16be a9ef 253e daae 24bd e82d 9cbe
00000200: ccb3 bfbd 9e66 e73d ffc6 ccbd 83de 093d
00000210: d7e6 3ebe e1c0 1f3d 6ea4 573e 5b0f 663e
00000220: 7092 003d 3231 0c3d 954b 93be 23ac efbc
00000230: bf2e 783e fc96 bc3d 6574 94bd b190 38ba
00000240: d4fa aebd 7ae9 22bd 3d87 3e3d ec1b 47be
00000250: 2afb eebc 592d 31be 560f 8f3e d2f2 fdbd
00000260: 8d1d acbd b9c6 6abe dfe8 ac3d b301 20be
00000270: 33c1 5fbe 4ca6 9dbc 5ad5 8abd eb0f 743e
00000280: 5460 85bd d4be dc3d 81f2 46be cfd6 153e
00000290: 9472 d33c a1ed 1e3e 4c10 0abe c7d6 b73c
000002a0: 48b4 8a3e 9f4e 883d 27d1 83bd 94b2 0fbe
000002b0: 6327 80bd 10d2 53bb ced1 593e 0751 ac3d
000002c0: cb62 433d 8896 d03b 8388 33be 2f3e 33be
000002d0: cc0c 58bd 46e1 993e b22c 21be a446 7c3e
000002e0: 40c4 34be 62be 263e a499 13be 20bc cabd
000002f0: 0025 593e 36bf 323d aa31 263e 0175 dcbb
00000300: d4f8 61be 728e 39be 85ee 9f3c b03e 2abd
00000310: 0d41 5b3d 4c2e 37be 3526 c03d 5cb7 a23b
00000320: 4b88 723d 50a4 13be a193 283e dc70 433b
00000330: 84a7 883e 424d 42be 63ed 413e 4f62 d3bd
00000340: 7ce6 1bbe e96e 733e 80cb 3ebd 7678 7a3d
00000350: 3a4e c5bd c98b a13d 6d3a cb3d dba1 7dbd
00000360: 77c1 6b3e 5220 38be 9d0a aabd 1b13 b73e
00000370: b393 ebbd a504 1f3e 6564 55be 892c 55be
00000380: ada7 113d 5cd6 303e 08a9 4ebe ea79 dfbd
00000390: be78 d33d de25 38be 2872 48be ae41 d13e
000003a0: 6ecf 3d3e c5ac 7bbd c80b 7a3b 4e40 14be
000003b0: a20e 9d3c f974 59be 4f6f cc3d d56a 513e
000003c0: 1c8a 48be 763f c4bd eb85 dbbd 58f2 4a3e
000003d0: 9efb 003e e213 9bbd da64 123e a251 9c3d
000003e0: f430 30bd 9e92 373c 9874 813e 05a7 26bd
000003f0: 05f1 d1bc f693 833d 4455 d93c b85c 9bbd

fc2.weight f4 [256, 256]
0.0115860775 -0.04463881 -0.037377734 -0.009228354 0.10468482 0.080860965 0.0035010274 -0.06957587
-0.023786332 0.04720722 0.036527313 -0.037613828 0.034056857 -0.008700238 0.06826319 -0.015228489
-0.039345726 -0.005269274 0.014285335 -0.010235196 -0.0033018936 -0.013138907 0.020297939 0.0058924444
-0.015641425 0.01636308 0.010756631 -0.05711017 -0.060618587 0.016312042 -0.06682977 -0.011540512
0.016067311 -0.008546252 -0.06156079 0.01409387 0.030916562 -0.011548148 -0.047425948 -0.040355563
-0.038243838 -0.0018132089 -0.005634648 0.020896247 0.043212865 0.014905341 0.047972985 -0.032670762
0.01650133 0.054668415 -0.004726812 0.029179819 -0.0514409 -0.047468573 -0.039571222 -0.006372161
-0.021373663 0.059389267 -0.013488769 -0.029746553 -0.006852889 0.021034833 -0.057655394 -0.015365723
-0.07754455 -0.042175412 -0.0034520319 -0.01657344 0.049122944 -0.06882923 -0.06465641 -0.061434366
0.051511142 0.024213934 0.007976605 -0.07390473 0.05309251 -0.0010728042 -0.01630764 0.049616117
0.068782546 0.007183661 -0.008405809 -0.045510516 0.055455897 0.017123228 0.04613914 0.01986449
-0.0013474175 0.054057717 -0.05718658 -0.030240702 0.045743197 -0.008508824 0.057437427 0.07542345
0.04687345 -0.044492885 0.03876023 0.07501288 0.06825718 0.01176784 -0.020335201 0.024030713
-0.015072818 0.0076940404 0.00484944 -0.016693985 0.029842185 0.03899106 -0.023823747 0.0786204
0.0341417 -0.05866562 -0.00047916736 0.05398064 0.039833654 -0.054832187 -0.060156167 0.010174301
-0.015953256 -0.033192776 -0.049820155 0.03360317 0.029396698 0.041442472 0.011690171 0.047686834
0.05861127 0.029112196 0.012536531 0.049021304 -0.02596144 0.031392355 -0.032891702 -0.06079095
0.023437684 0.011749931 0.059195522 0.009746186 0.017407613 -0.037686888 0.05057022 0.05363188
-0.030734915 0.033271 -0.053737544 -0.06309229 0.048834223 -0.038553294 -0.04044825 -0.048558198
0.04033938 0.06571906 -0.019071968 0.05267758 0.0587172 -0.0023227343 0.0031693832 -0.055692725
-0.07240047 -0.001950149 -0.0012393257 -0.02930765 -0.028727945 0.001545361 0.014858832 -0.022635426
0.012629171 -0.0048506125 -0.04853682 -0.00695199 -0.0012944194 -0.07362857 0.029683553 -0.03699837
-0.03847494 0.03301545 -0.089076094 0.011724594 0.062384985 0.043910593 -0.04504589 0.047872853
0.0066559906 0.0360009 0.011313627 0.0135998195 -0.03788586 0.03858079 0.01875551 0.01164291
-0.038312018 0.014464128 0.031541083 0.052771024 -0.021021025 -0.058987834 0.022294918 -0.027243411
0.063101314 0.022431398 -0.01063285 -0.0066438164 0.061337687 -0.023716733 -0.058961723 -0.0243403
0.05265628 -0.036390506 0.018979648 0.0053082723 0.06548925 0.042817283 -0.039046306 0.029647231
0.05741984 -0.016890416 -0.006849789 0.002299957 0.028449317 0.017395379 0.06659595 0.009543756
-0.0113341175 -0.041498087 -0.045996115 -0.00958848 0.002376943 -0.03150218 -0.02287531 0.054706097
0.019452538 -0.03194287 -0.022034861 0.006431109 -0.05628519 0.0289439 0.069749676 0.0017909232
0.011873933 0.05698618 -0.022377834 0.049402066 -0.08682995 0.0149092125 -0.022127183 0.014493352
-0.102236904 0.016369611 0.051297206 0.022309808 -0.03232493 -0.04284217 0.07058295 0.078171864
00000000: 88d3 3d3c 2fd7 36bd 6519 19bd 8632 17bc
00000010: ff64 d63d 6f9a a53d 7e71 653b cb7d 8ebd
00000020: 8edb c2bc 5c5c 413d aa9d 153d f510 1abd
00000030: 347f 0b3d 718b 0ebc 92cd 8b3d ea80 79bc
00000040: fc28 21bd e0a9 acbb 0a0d 6a3c 86b1 27bc
00000050: 9564 58bb 9244 57bc dd47 a63c 6815 c13b
00000060: 7222 80bc de0b 863c 953c 303c 5bec 69bd
00000070: 324b 78bd d5a0 853c 0cde 88bd 6a14 3dbc
00000080: 989f 833c 9405 0cbc 2b27 7cbd fae9 663c
00000090: bb44 fd3c 7134 3dbc b641 42bd e04b 25bd
000000a0: 92a5 1cbd 32a9 edba daa2 b8bb 9b2e ab3c
000000b0: f9ff 303d 8835 743c 527f 443d c7d1 05bd
000000c0: cc2d 873c fdeb 5f3d 5fe3 9abb 840a ef3c
000000d0: b1b3 52bd 686e 42bd 6f15 22bd 90cd d0bb
000000e0: d217 afbc 2942 733d ffff 5cbc 0baf f3bc
000000f0: 338e e0bb 3e51 ac3c 1028 6cbd 83c0 7bbc
00000100: adcf 9ebd 20c0 2cbd 7c3b 62bb 06c5 87bc
00000110: 2435 493d 57f6 8cbd 946a 84bd 9aa2 7bbd
00000120: 59fd 523d 4d5c c63c 4eb0 023c 5d5b 97bd
00000130: 8877 593d 569d 8cba 9a97 85bc 453a 4b3d
00000140: dddd 8c3d eb64 eb3b 85b8 09bc 3c69 3abd
00000150: b925 633d 0346 8c3c 65fc 3c3d dbba a23c
00000160: d49b b0ba a06b 5d3d 7a3c 6abd 59bb f7bc
00000170: 385d 3b3d 9868 0bbc 8243 6b3d 9c77 9a3d
00000180: 60fe 3f3d 2c3e 36bd 0cc3 1e3d 5aa0 993d
00000190: 6cca 8b3d e6cd 403c 0296 a6bc 0fdc c43c
000001a0: fbf3 76bc 4a1e fc3b 0de8 9e3b d3c1 88bc
000001b0: 9977 f43c 17b5 1f3d 052a c3bc bb03 a13d
000001c0: 2bd8 0b3d 5c4b 70bd c138 fbb9 ce1a 5d3d
000001d0: 9d28 233d b797 60bd 5066 76bd 1db2 263c
000001e0: 67b0 82bc 26f5 07bd 3810 4cbd 7aa3 093d
000001f0: 58d1 f03c 95bf 293d 2288 3f3c 4553 433d
00000200: 5f12 703d b37c ee3c 0666 4d3c 90ca 483d
00000210: 16ad d4bc 4595 003d 73b9 06bd eeff 78bd
00000220: 6300 c03c c882 403c 0177 723d 78ae 1f3c
00000230: 699a 8e3c 915d 1abd b822 4f3d 1aad 5b3d
00000240: cac7 fbbc 2c47 083d e61b 5cbd 8836 81bd
00000250: 6506 483d 0fea 1dbd 10ad 25bd f6e4 46bd
00000260: e83a 253d b797 863d d13c 9cbc 72c4 573d
00000270: 7281 703d 0439 18bb 6db5 4f3b 0e1e 64bd
00000280: b346 94bd 249c ffba df70 a2ba 9916 f0bc
00000290: de56 ebbc b68d ca3a 7572 733c ee6d b9bc
000002a0: 95ea 4e3c e3f1 9ebb 8bce 46bd 85cd e3bb
000002b0: 82a9 a9ba 93ca 96bd ec2a f33c 9a8b 17bd
000002c0: e697 1dbd 353b 073d 876d b6bd 8318 403c
000002d0: 6687 7f3d 98db 333d 0a82 38bd 5316 443d
000002e0: 7f1a da3b ae75 133d ca5c 393c c7d1 5e3c
000002f0: 342e 1bbd e406 1e3d 28a5 993c e7c1 3e3c
00000300: 10ed 1cbd f3fa 6c3c 3931 013d 6e26 583d
00000310: 4934 acbc 3a9d 71bd d5a3 b63c 932d dfbc
00000320: 433b 813d 0dc2 b73c 6835 2ebc 5fb4 d9bb
00000330: 3a3d 7b3d 9849 c2bc d981 71bd 4f65 c7bc
00000340: 1dae 573d 360e 15bd 357b 9b3c 04f1 ad3b
00000350: 3a1f 863d 2d61 2f3d 05ef 1fbd c0de f23c
00000360: 1131 6b3d c55d 8abc 3274 e0bb e0ba 163b
00000370: 8b0e e93c c180 8e3c 7563 883d 6a5d 1c3c
00000380: bcb2 39bc e6f9 29bd 6c66 3cbd 0019 1dbc
00000390: 7cc6 1b3b 6e08 01bd 0165 bbbc 8013 603d
000003a0: ee5a 9f3c 87d6 02bd 7482 b4bc 0dbc d23b
000003b0: 4d8b 66bd c21b ed3c ebd8 8e3d 69bd ea3a
000003c0: e28a 423c 576a 693d b851 b7bc d259 4a3d
000003d0: e7d3 b1bd c545 743c 1144 b5bc 8675 6d3c
000003e0: 9561 d1bd 9019 863c 051d 523d 0fc3 b63c
000003f0: 2567 04bd 457b 2fbd cb8d 903d 9218 a03d

fc2.bias f4 [256]
0.008443373 -0.023101278 0.002223141 -0.03891114 -0.043710124 0.040014766 -0.043734472 0.18862887
-0.041449882 0.020785904 -0.068033524 -0.08327434 0.018708792 -0.0014668241 -0.026601765 -0.03371732
-0.018656291 0.011862284 -0.011577561 0.033429828 0.05512048 0.05800874 -0.022155525 0.02693206
-0.06386525 -0.0407396 0.015725818 0.017430179 0.02775865 -0.04010049 0.029138708 -0.0031718337
-0.061893184 -0.03990347 -0.03521578 0.036305744 -0.0674417 -0.030775009 -0.044144608 0.007160685
0.05467184 -0.056736536 -0.037227802 0.04301123 0.044808533 0.026119078 -0.05509597 -0.077461876
0.070584536 -0.034256447 -0.028174594 0.044064507 -0.07383219 -0.04046053 -0.030355755 -0.038416598
0.032021556 0.030779423 -0.009000505 0.04480029 0.10759353 -0.005670214 -0.018560505 0.08418118
0.0530782 -0.06621021 -0.06743225 0.19537121 0.059062075 -0.06179482 0.043533355 -0.0041650822
-0.08049967 -0.09618724 -0.049404528 0.0073563233 -0.013025262 -0.049427886 0.042441793 -0.04644682
-0.02635232 -0.04844512 0.17358968 -0.06330886 0.076874584 -0.08392839 0.05057148 -0.06415791
-0.020051664 0.034599617 -0.005071999 0.015417672 0.031630352 -0.02688441 0.014530084 -0.04038336
0.011480112 0.013012481 -0.02304153 0.059512038 -0.027781887 0.027027844 0.12204543 0.036136914
0.049315106 0.045659244 0.04634635 -0.0017277396 -0.0039562355 -0.013217673 -0.06963704 -0.04401195
0.06201999 -0.036250554 0.03871061 -0.06106179 -0.015287298 -0.022481417 -0.06416745 -0.019452177
0.047485948 -0.03482946 -0.090716474 -0.05770351 0.01735213 -0.01969041 0.09848359 0.03995358
0.03943475 0.02203978 0.07658309 0.061090637 0.039156064 0.038663354 0.015381562 0.013413626
0.06831329 -0.010067552 0.011990162 -0.026267782 0.031235762 -0.07367196 0.018156873 -0.055376768
0.010918526 0.07722354 0.09170271 -0.0029228537 -0.024119928 -0.055535987 0.07499925 0.09469709
-0.0948418 0.08889663 -0.06744947 -0.031092716 -0.083352245 0.015383964 -0.057593152 -0.024421336
0.029021183 0.04927305 -0.0617028 -0.02613853 0.00019839997 -0.017960928 0.0057545593 0.043194428
0.044978343 0.022516528 -0.012136536 0.06555889 0.028636133 -0.040766798 0.07136666 0.009541659
-0.08862756 0.03519444 0.093000874 -0.012891068 -0.060117096 0.023812119 -0.06464712 -0.010164434
-0.0001023483 0.050811302 0.0808589 0.02020312 -0.029745406 0.080341555 0.019752106 0.035017055
-0.039105788 -0.03919783 0.08401594 -0.028262291 0.055980194 0.08420165 -0.013885009 -0.030140078
0.07106594 0.060467184 -0.045342833 -0.0045205485 -0.0019375046 -0.050603017 -0.014775261 -0.054054912
-0.017891735 0.01877209 -0.083041064 -0.032549705 -0.028823989 -0.0621417 -0.0063030906 -0.060618427
-0.0057043526 0.040252004 -0.015033431 -0.019499782 0.050538868 0.04941524 -0.062854655 0.03052299
0.031183563 0.098365396 0.0523573 -0.07276351 0.083042964 -0.078589514 -0.05461801 0.020313093
0.034982625 0.030732187 0.05697613 0.0014722748 0.08022001 0.023354629 0.0388475 -0.02649322
0.020254675 0.035628717 -0.02978713 -0.063479185 -0.00477115 -0.033291727 -0.119578995 -0.019572577
-0.0051810853 -0.016811138 -0.013889113 0.03699402 -0.015059496 -0.009064258 -0.08148527 0.012930235
00000000: 1356 0a3c e43e bdbc 1eb2 113b 4a61 1fbd
00000010: 6309 33bd 86e6 233d eb22 33bd ed27 413e
00000020: 5ac7 29bd 3347 aa3c 2955 8bbd bd8b aabd
00000030: 2e43 993c 7342 c0ba f2eb d9bc 2c1b 0abd
00000040: 14d5 98bc 065a 423c cfaf 3dbc b7ed 083d
00000050: 03c6 613d 939a 6d3d 817f b5bc a0a0 dc3c
00000060: c9cb 82bd 91de 26bd 6ed3 803c bcc9 8e3c
00000070: 1c66 e33c 6940 24bd 4db4 ee3c 8ade 4fbb
00000080: b583 7dbd d271 23bd 6c3e 10bd 55b5 143d
00000090: e01e 8abd df1b fcbc fad0 34bd 2ea4 ea3b
000000a0: 94ef 5f3d 9264 68bd 2e7c 18bd 8b2c 303d
000000b0: 2789 373d adf7 d53c 50ac 61bd 55a4 9ebd
000000c0: a08e 903d 7d50 0cbd 68ce e6bc fc7c 343d
000000d0: 5535 97bd f1b9 25bd a2ac f8bc b95a 1dbd
000000e0: 0929 033d 2125 fc3c db76 13bc 8280 373d
000000f0: ff59 dc3d 34cd b9bb 330c 98bc 2f67 ac3d
00000100: 8768 593d 3899 87bd eb19 8abd 640f 483e
00000110: 13eb 713d 911c 7dbd 0850 323d 3e7b 88bb
00000120: 03dd a4bd d1fd c4bd 675c 4abd 500d f13b
00000130: e967 55bc e574 4abd 72d7 2d3d 053f 3ebd
00000140: d2e0 d7bc 646e 46bd 7ec1 313e 13a8 81bd
00000150: 6c70 9d3d a6e2 abbd 0a24 4f3d 3965 83bd
00000160: 6343 a4bc 54b8 0d3d 0333 a6bb 679a 7c3c
00000170: d48e 013d b23c dcbc 970f 6e3c 0669 25bd
00000180: 1417 3c3c 4d32 553c 97c1 bcbc e5c2 733d
00000190: d796 e3bc 7f69 dd3c f4f2 f93d 4d04 143d
000001a0: a3fe 493d 3005 3b3d acd5 3d3d 5275 e2ba
000001b0: 4fa3 81bb f08e 58bc dd9d 8ebd e045 34bd
000001c0: ac08 7e3d 767b 14bd 048f 1e3d ed1b 7abd
000001d0: 9377 7abc f32a b8bc 396a 83bd 2c5a 9fbc
000001e0: a080 423d 56a9 0ebd 8fc9 b9bd 845a 6cbd
000001f0: 0e26 8e3c c84d a1bc c4b1 c93d 5da6 233d
00000200: 5586 213d c58c b43c 98d7 9c3d 2d3a 7a3d
00000210: 1c62 203d 775d 1e3d f202 7c3c d3c4 5b3c
00000220: d7e7 8b3d 60f2 24bc 6272 443c 882f d7bc
00000230: 24e2 ff3c 53e1 96bd b9bd 943c c0d2 62bd
00000240: 9ee3 323c 6027 9e3d a1ce bb3d 598d 3fbb
00000250: 2897 c5bc b479 63bd 3599 993d 8cf0 c13d
00000260: 6b3c c2bd 700f b63d f322 8abd 27b6 febc
00000270: 95b4 aabd 060d 7c3c cce6 6bbd 410f c8bc
00000280: d5bd ed3c 8ad2 493d 13bc 7cbd 7820 d6bc
00000290: 9609 5039 cc22 93bc be90 bc3b a4ec 303d
000002a0: 363b 383d 9574 b83c 52d8 46bc bd43 863d
000002b0: 5396 ea3c 16fb 26bd af28 923d 9e54 1c3c
000002c0: 5e82 b5bd 0c28 103d 3e77 be3d 0f35 53bc
000002d0: 583d 76bd a211 c33c b665 84bd ba88 26bc
000002e0: d3a3 d6b8 831f 503d 5a99 a53d 0381 a53c
000002f0: a3ac f3bc 1d8a a43d 2bcf a13c 0b6e 0f3d
00000300: 642d 20bd e78d 20bd 8d10 ac3d 5286 e7bc
00000310: 7d4b 653d ea71 ac3d f37d 63bc 53e8 f6bc
00000320: 058b 913d 70ac 773d 68b9 39bd 1c21 94bb
00000330: def3 fdba 1c45 4fbd f013 72bc af68 5dbd
00000340: b091 92bc edc7 993c 6f11 aabd d752 05bd
00000350: 4920 ecbc 4c88 7ebd 288a cebb 074b 78bd
00000360: 94eb babb 49df 243d c84e 76bc 02be 9fbc
00000370: d801 4f3d a267 4a3d f1b9 80bd 590b fa3c
00000380: ac74 ff3c cc73 c93d 9c74 563d 0905 95bd
00000390: 6e12 aa3d 8af3 a0bd 22b7 5fbd a567 a63c
000003a0: f149 0f3d 11c2 fb3c cd5f 693d 58f9 c03a
000003b0: 634a a43d 3552 bf3c 8e1e 1f3d 4f08 d9bc
000003c0: 22ed a53c 6bef 113d 2404 f4bc 6001 82bd
000003d0: 4f57 9cbb e85c 08bd d5e5 f4bd ab56 a0bc
000003e0: 18c6 a9bb 83b7 89bc 2a8f 63bc 0b87 173d
000003f0: 1bbc 76bc 4182 14bc c0e1 a6bd 56d9 533c

fc3.weight f4 [6, 256]
-0.05015162 0.039334208 -0.10891601 0.021737568 0.08198239 0.07055898 -0.025212461 -0.030223405
-0.02249427 0.03409503 0.029654989 -0.05534403 -0.038785186 0.0027295745 -0.048218638 0.046229284
-0.032873668 0.02734356 -0.0072167073 -0.0061772647 0.009773603 0.008444728 -0.033546142 0.02537873
0.043224614 -0.05817814 -0.022619877 -0.0480635 0.015987672 -0.008716272 0.020261325 -0.11533778
-0.04689414 0.117654204 0.019911464 -0.06856391 0.02744805 -0.035689153 -0.030868454 -0.10483305
-0.019050261 0.052811783 0.02792718 -0.0114568975 0.0864272 -0.04485936 0.009357821 -0.005893
0.04262416 0.001940079 0.0073377774 0.053182874 0.0016624541 0.062566385 0.046011806 0.025880568
0.027826117 -0.18538943 0.06795332 0.061491445 -0.062031984 0.02773364 -0.072374314 -0.00082087883
-0.01944255 -0.08534766 0.057975434 -0.19624452 0.03117888 -0.0363565 -0.023892945 -0.054454356
0.060660534 -0.07679584 -0.07429426 0.05128167 -0.014538766 0.032589953 -0.07651291 0.03499629
0.04761469 0.024640704 -0.17455627 -0.02898258 -0.09921057 0.051465534 0.008165205 -0.058504257
0.1015367 -0.021463355 -0.057529286 0.022826677 0.0119594615 0.012143063 -0.0022327765 -0.0008799521
0.009849482 0.078245305 0.1858415 -0.0098631345 -0.061360132 -0.024924574 0.08423983 0.026852284
-0.06752997 -0.032516774 0.05813161 0.04805541 -0.01103542 -0.02040917 -0.014951095 0.0781723
-0.07158018 0.014837786 -0.056851927 0.025547193 -0.017424213 -0.0018348424 0.037268326 0.056409407
-0.022556635 -0.017955674 0.009708505 -0.024731895 -0.05692132 0.034093373 -0.08014609 -0.029109092
0.011403836 0.045791987 -0.011723608 0.010002158 0.04671522 0.056252185 -0.0029529845 -0.18424852
-0.041850466 0.105090626 0.036430072 0.053522725 -0.011421353 -0.0003065013 0.0019163741 -0.039538123
-0.026319979 -0.008511461 0.08313867 -0.07126231 0.022476722 0.057587817 -0.058412902 -0.08809305
-0.039455 -0.05309582 -0.0564693 -0.038054913 0.034204967 0.10275385 -0.010756269 -0.04334101
0.06695785 0.0012933696 0.04696324 0.018885765 -0.05177688 0.0051613483 0.085381135 -0.058737546
-0.0024828399 0.04296 -0.03198982 -0.08601088 0.043667052 0.10578817 -0.022008881 -0.0644487
-0.047637958 -0.060016084 -0.060739048 -0.08183312 -0.054085165 -0.059196737 0.035675704 0.061481766
0.047389373 -0.084142745 0.011603494 -0.011245498 -0.01424649 -9.222376e-05 0.051218882 0.024843695
0.006125436 0.039314367 -0.10608677 0.03302112 0.019097164 -0.07505559 0.083334304 0.010109807
-0.0003323887 -0.015440544 -0.059887383 0.054894116 0.0022985435 -0.0636803 0.06935065 -0.0038454938
0.018330297 -0.052914727 0.147067 0.07507567 0.02069216 -0.048440877 0.09929246 0.02197426
0.045682605 0.046136715 -0.028570201 -0.046252366 0.039925322 0.013877765 -0.0005506652 0.01194335
0.15919207 0.12672493 -0.00782317 0.012867865 -0.029058464 0.013577811 0.032826565 -0.04559309
0.07869781 -0.012383274 -0.073023066 0.07066797 -0.0032613417 -0.016640563 -0.048003744 0.11737911
0.04607321 -0.0028139337 0.0642744 -0.061308526 0.07241216 -0.027731214 -0.03755957 -0.014206799
0.0051967143 0.043013655 0.07343374 -0.053093474 0.0018123084 -0.06704998 0.0006554946 0.051584445
00000000: c96b 4dbd e81c 213d 5b0f dfbd fc12 b23c
00000010: 62e6 a73d 3a81 903d 5d8a cebc 1397 f7bc
00000020: e745 b8bc 3ba7 0b3d 05ef f23c 6cb0 62bd
00000030: 37dd 1ebd a9e2 323b e880 45bd eb5a 3d3d
00000040: 8aa6 06bd 9aff df3c 217a ecbb a76a cabb
00000050: 7621 203c c25b 0a3c ae67 09bd 0ee7 cf3c
00000060: 4b0c 313d 344c 6ebd 524d b9bc 3cde 44bd
00000070: 94f8 823c b2ce 0ebc 14fb a53c 3736 ecbd
00000080: 1214 40bd b0f4 f03d 5e1d a33c 3c6b 8cbd
00000090: bcda e03c ca2e 12bd d7df fcbc b6b2 d6bd
000000a0: 4b0f 9cbc 2b51 583d 8bc7 e43c b6b5 3bbc
000000b0: be00 b13d 73be 37bd 8c51 193c 111a c1bb
000000c0: ac96 2e3d 404a fe3a bd71 f03b 49d6 593d
000000d0: b4e6 d93a ce22 803d e076 3c3d 7c03 d43c
000000e0: 99f3 e33c bad6 3dbe 1c2b 8b3d 74de 7b3d
000000f0: 4015 7ebd a931 e33c fc38 94bd 3f30 57ba
00000100: fc45 9fbc c1ca aebd a677 6d3d 53f4 48be
00000110: da6a ff3c 8eea 14bd 23bb c3bc 880b 5fbd
00000120: 2e77 783d 2347 9dbd 9727 98bd ba0c 523d
00000130: 0134 6ebc 0b7d 053d cdb2 9cbd 4558 0f3d
00000140: 9f07 433d 4ddb c93c e1be 32be e06c edbc
00000150: e92e cbbd 86cd 523d 5ac7 053c 29a2 6fbd
00000160: 79f2 cf3d ebd3 afbc d4a3 6bbd 03ff ba3c
00000170: 9ef1 433c b3f3 463c c653 12bb 96ac 66ba
00000180: b95f 213c 133f a03d 3c4d 3e3e fc98 21bc
00000190: c354 7bbd 9f2e ccbc ef85 ac3d 52f9 db3c
000001a0: 274d 8abd 4f30 05bd 691b 6e3d c0d5 443d
000001b0: e8cd 34bc 2231 a7bc 70f5 74bc cc18 a03d
000001c0: a198 92bd 2f1a 733c 91dd 68bd 5948 d13c
000001d0: 39bd 8ebc 187f f0ba aca6 183d 8d0d 673d
000001e0: b1c8 b8bc c717 93bc 6c10 1f3c 8b9a cabc
000001f0: 5426 69bd 7ea5 0b3d a223 a4bd 3176 eebc
00000200: 28d7 3a3c 6190 3b3d 6014 40bc 17e0 233c
00000210: 7558 3f3d b168 663d dc86 41bb a5ab 3cbe
00000220: 656b 2bbd c139 d73d b337 153d a53a 5b3d
00000230: a020 3bbc e8b1 a0b9 d82e fb3a baf2 21bd
00000240: ff9c d7bc a873 0bbc 9b44 aa3d f9f1 91bd
00000250: 1a21 b83c 34e1 6b3d 5e42 6fbd 216a b4bd
00000260: 919b 21bd 017b 59bd 5a4c 67bd 78df 1bbd
00000270: 821a 0c3d 9c70 d23d 103b 30bc 5886 31bd
00000280: 3221 893d 4886 a93a 875c 403d 52b6 9a3c
00000290: fe13 54bd 8720 a93b 4edc ae3d c896 70bd
000002a0: 24b7 22bb d3f6 2f3d c207 03bd 7926 b0bd
000002b0: 39dc 323d 78a7 d83d f84b b4bc aefd 83bd
000002c0: 0520 43bd 6dd3 75bd 82c9 78bd 1f98 a7bd
000002d0: 6888 5dbd 4778 72bd b020 123d 4ed4 7b3d
000002e0: 5c1b 423d 0853 acbd 951c 3e3c 0a3f 38bc
000002f0: 1c6a 69bc 4168 c1b8 e4ca 513d 0185 cb3c
00000300: e2b7 c83b 1a08 213d 0544 d9bd 2741 073d
00000310: a871 9c3c bfb6 99bd 2dab aa3d 9ba3 253c
00000320: 7544 aeb9 56fa 7cbc 794c 75bd a7d8 603d
00000330: 29a3 163b d16a 82bd b707 8e3d ae04 7cbb
00000340: 6b29 963c 1dbd 58bd bb98 163e 46c1 993d
00000350: 9b82 a93c f169 46bd d859 cb3d 5d03 b43c
00000360: af1d 3b3d daf9 3c3d 0e0c eabc 1f73 3dbd
00000370: bc88 233d 915f 633c 845a 10ba 0aae 433c
00000380: 3f03 233e 2ec4 013e c12c 00bc bdd3 523c
00000390: 040c eebc 7875 5e3c 2675 063d d2bf 3abd
000003a0: 512c a13d 37e3 4abc 1e8d 95bd 5eba 903d
000003b0: 3cbc 55bb ca51 88bc 939f 44bd 7564 f03d
000003c0: 43b7 3c3d f969 38bb 4ca2 833d a61e 7bbd
000003d0: d44c 943d 922c e3bc 10d8 19bd a2c3 68bc
000003e0: 3349 aa3b 162f 303d 6e64 963d 8b78 59bd
000003f0: fb8a ed3a 8051 89bd 7fd5 2b3a 364a 533d

fc3.bias f4 [6]
0.00972716 -0.03493393 0.008140229 0.044944864 -0.011193148 0.04129394
00000000: ab5e 1f3c e116 0fbd 985e 053c 1b18 383d
00000010: 7763 37bc d623 293d
