model_save/bc/bc_policy30.pt (torch, 289751 bytes, 6 tensors)

fc1.weight f4 [256, 17]
000000 00 64 1c 3e dd a5 86 3e e5 82 f5 3e 2a 89 4b 3f
       0.15272522 0.2629842 0.47951427 0.7950617
000010 c4 eb 40 3e e4 4a 86 3d f4 d0 2a bf 19 3b 40 be
       0.18839937 0.06557253 -0.6672509 -0.18772544
000020 ee ef b3 be f4 45 a1 3e 02 38 a8 3e e4 61 20 3e
       -0.3514399 0.31498682 0.3285523 0.15662342
000030 98 b6 57 3e 1e 78 a3 3d 2d b0 1d be b0 fb 2e be
       0.21065748 0.07981895 -0.15399237 -0.17088199
000040 c2 48 57 3d 2f 71 1d c0 72 0c 23 be 33 66 19 3e
       0.05255962 -2.4600332 -0.15922716 0.14980392
000050 b7 bd 7b 3e 8d d4 0d be a0 35 06 be 58 a7 76 3d
       0.24584089 -0.13850613 -0.13106394 0.060218185
000060 bb dc ff be 6a 9a 22 3c 85 b0 17 bf 55 70 84 3e
       -0.4997309 0.0099245105 -0.5925372 0.25866953
000070 9a 71 a9 3d 4c 9f ca 3d 89 b8 ec bc 56 bf b5 3d
       0.08273621 0.09893665 -0.028896587 0.08874385
000080 fd c5 25 3e 9d 05 04 3e a9 f7 fa bf 9a 59 67 be
       0.16188808 0.12892766 -1.960683 -0.22592774
000090 93 5f bc be 1f 1a 2f bf a3 85 c0 be 5d 58 c1 be
       -0.36791667 -0.6839923 -0.37601957 -0.37762728
0000a0 fd 5e f6 bd 34 4a 04 bf 19 b6 df bd cf a7 6f be
       -0.12029836 -0.51675725 -0.10923404 -0.23403858
0000b0 67 ed b6 3c 6a 42 07 3d f6 31 0d 3d d7 b9 7f 3d
       0.02233 0.03302232 0.034471475 0.06243309
0000c0 d0 6b 0d bd 72 e3 60 bd d5 7b 9f 3d ae 2c 1c bf
       -0.034526646 -0.05490441 0.07787291 -0.61005676
0000d0 c4 df b9 bd 1a 1a e1 bb 72 e8 73 be cd ad 08 be
       -0.09075883 -0.0068695666 -0.2381914 -0.1334755
0000e0 fd e4 ef bd 92 7d ed 3d 11 c6 d3 3d c3 87 4d be
       -0.11713598 0.11596216 0.103405125 -0.2007132
0000f0 12 ce 19 be 47 74 85 3e 40 98 6d 3e 9a 44 dc 3d
       -0.15020016 0.26065275 0.2320261 0.10755272
000100 a4 4b ab bd b6 be 80 3e 6e 7b b3 bd 74 3f 55 bc
       -0.08364037 0.251455 -0.08763777 -0.013015617
000110 48 3c 13 3f 28 38 2d c0 72 e0 8a 3e c7 c9 91 be
       0.57513857 -2.7065525 0.27124363 -0.28474256
000120 b5 c4 9c 3e 1e b0 a1 3e 3a 66 5f 3e a3 33 80 3e
       0.30618826 0.3157968 0.2181634 0.25039396
000130 ac fa ff bb 1a f9 68 bd 0d b3 45 be 3a d7 65 bc
       -0.007811865 -0.056878187 -0.19306584 -0.014028365
000140 e7 ec 0d 3d c6 96 9d bd a7 b1 2a 3d 3d 22 21 3c
       0.034649756 -0.076947734 0.04167333 0.009834823
000150 8d 4f 78 3c 90 37 9d bf cc 28 f0 3e 3e 99 f8 be
       0.015155685 -1.2282581 0.46906126 -0.48554415
000160 f1 48 4d bf 29 4e 8b 3f 97 14 36 3f b3 b2 19 3e
       -0.80189425 1.0883228 0.7112517 0.15009575
000170 ac 81 fa bc fd 13 66 be aa bf 08 bf e8 d4 08 be
       -0.03057941 -0.22468562 -0.53417456 -0.13362467
000180 7c 79 44 3d ec 3d 4e bd 72 4a 21 bc f9 23 72 bd
       0.04796742 -0.050352022 -0.009844409 -0.059116337
000190 a4 59 98 bd 83 04 4c bd 84 0f 5f 3f 03 0f 43 be
       -0.074389726 -0.04980899 0.8713305 -0.19048695
0001a0 23 47 bf 3e f5 4f 69 3c e0 31 80 be 7e ab e1 3e
       0.3735896 0.014240255 -0.25038052 0.4407615
0001b0 da 18 18 bf c4 10 e5 3e c3 d9 c1 bd 1d c3 42 3f
       -0.5941292 0.44739354 -0.09465363 0.7607897
0001c0 c7 91 e9 3e 31 91 4f bb 6e 40 f0 bc db 9a 11 3e
       0.45619032 -0.0031672234 -0.029327597 0.14219229
0001d0 6d 8e 8c bd 6f d3 2d 3e c2 50 f7 bd 45 10 81 3e
       -0.06863103 0.16975187 -0.1207595 0.25207725
0001e0 ef b5 f1 3e 9d 1c 86 3e a6 ce 20 3f e9 68 32 3d
       0.47209117 0.26193705 0.6281532 0.04355708
0001f0 8e b2 c4 be 0c 09 c8 be 53 98 1b 3f e1 ef ce 3c
       -0.38417476 -0.39069402 0.60779303 0.025260868
000200 71 00 d3 bd 1e a4 52 3e 45 3b 89 3d 08 ab 5d 3b
       -0.103028186 0.20570418 0.06700758 0.0033823866
000210 c2 c0 4a 3d d9 6c 9d 3d bb f2 90 3d 79 0e cf bc
       0.049500234 0.07686777 0.07077547 -0.025275456
000220 f7 4a 9c bf 36 fe 24 3e fa 9f 58 3e 18 94 a3 be
       -1.2210377 0.16112599 0.21154776 -0.31948924
000230 8d c5 26 be 7f 41 67 bf 44 d2 23 bf b5 61 f9 3e
       -0.16286297 -0.90334314 -0.63992715 0.48707357
000240 81 67 19 be 99 8f e2 be 83 05 4d 3f 0f 62 28 be
       -0.1498089 -0.4425018 0.80086535 -0.16443656
000250 ee 86 a3 bd 54 87 5a 3d 22 08 e9 bc 3e 5c 7f 3d
       -0.0798472 0.053351715 -0.02844626 0.06234383
000260 26 f0 a4 3d fa a0 3d bf e5 5a 2d bf 88 76 9f bc
       0.08053617 -0.74073756 -0.6771682 -0.0194657
000270 cb 08 d1 be 2f 2b 09 be 96 72 61 bf 8b 08 c6 3e
       -0.4082702 -0.1339538 -0.8806547 0.38678393
000280 88 5c e5 be 19 77 e0 bd 1b 37 3e bf 22 eb 96 bd
       -0.44797158 -0.10960216 -0.74302834 -0.07369067
000290 e5 40 40 3c 17 4f 5b bd 46 29 23 3e f5 d7 6a 3d
       0.011734222 -0.053542223 0.15933713 0.05733486
0002a0 d5 4f 15 3d ef db a4 bd 38 a8 dd be 39 50 18 3e
       0.036453087 -0.080497615 -0.43292403 0.14874353
0002b0 2c 7d 95 bc eb 91 0d be ee 9e 87 3e 31 4b 04 bf
       -0.018248163 -0.13825195 0.2648844 -0.51677233
0002c0 02 3f 63 3e 6d b8 a2 be 81 4c d4 bd a2 be 2e bf
       0.22192004 -0.3178133 -0.103661545 -0.6825963
0002d0 45 71 a7 3e 17 5e 5c 3d 17 55 de bd df a7 c5 3d
       0.32703605 0.05380067 -0.10856073 0.096511595
0002e0 ca 29 2e 3e 59 aa 99 bd 38 c1 be 3c 0b c7 54 bf
       0.17008129 -0.07503194 0.023285493 -0.83116215
0002f0 09 e0 8c 3e 4a 37 dc be 8f 4e ff be 96 3e 84 be
       0.27514675 -0.43010932 -0.49864623 -0.25829
000300 da c0 ef 3e 8a dc 90 bf 2d 91 8c be 00 26 33 be
       0.46826822 -1.1317303 -0.2745451 -0.17494965
000310 fd ff f0 be b0 c9 8a 3e 69 8e 1e 3d f6 2f 2e 3e
       -0.47070304 0.27107 0.03871003 0.17010483
000320 27 8a 9c bd 04 36 88 3d df 23 7e bd 39 a9 86 3c
       -0.07643538 0.06650928 -0.062045928 0.016438114
000330 f7 27 26 c0 4d 40 03 c0 3c 95 25 bf 6a 2c 9a be
       -2.5961893 -2.0507996 -0.6468084 -0.3011201
000340 2e 08 9b be 7a 68 66 be 15 fa db bd 71 c0 6d be
       -0.30279678 -0.22500792 -0.10741059 -0.23217942
000350 b0 d3 aa bc eb fb 6e be f2 17 b8 bd 25 40 17 3e
       -0.020852894 -0.23338287 -0.08988942 0.14770563
000360 a6 c6 72 bd e4 6e 2c 3d d3 9e 95 3b 36 55 83 3c
       -0.059271477 0.04209794 0.0045660525 0.016031843
000370 bc 85 21 bd 8a 2f b1 bf 7b d8 9a bd 0c a0 95 be
       -0.03943418 -1.3842633 -0.075608216 -0.2922367
000380 ef c2 86 3d 15 da 05 3f da fd 74 bb 34 08 88 be
       0.065801494 0.5228589 -0.0037382753 -0.26568758
000390 11 f1 25 be a0 36 38 bd 33 a9 40 be 0c 12 43 3e
       -0.16205241 -0.04497397 -0.18814544 0.19049853
0003a0 48 fa 1a bd fc 73 c6 3d 43 ed 71 bc 69 72 a1 bd
       -0.037836343 0.09690091 -0.01476604 -0.0788315
0003b0 da 15 be 3d cd b9 0e be df 70 27 40 fc f1 6c 3e
       0.092815116 -0.13938065 2.616264 0.23139185
0003c0 c9 79 f2 bd 72 a3 09 be 84 54 c1 3e ae 90 b4 3d
       -0.11839635 -0.13441256 0.37759793 0.08816658
0003d0 e3 b4 95 3e 49 48 9f bd 90 49 93 3d 40 21 d1 3e
       0.29239568 -0.07777459 0.07191765 0.4084568
0003e0 ee 09 d4 be 8e 6c d1 3d 49 1d 43 bd 1b 8c 6b bd
       -0.41413826 0.10225783 -0.04763535 -0.05750666
0003f0 62 af e9 bc 48 b7 5b 3c c1 d5 76 3c f4 91 d6 bd
       -0.028526012 0.013410397 0.015065611 -0.10477057

fc1.bias f4 [256]
000000 b1 ec ce bd 91 d2 34 3d a2 5c dc 3e e4 52 2a 3c
       -0.10103739 0.044146124 0.43039423 0.010395739
000010 6a 26 6b be fb c3 c8 3e e4 5d 42 bc 39 df a7 3d
       -0.22963873 0.3921202 -0.011863206 0.08196873
000020 84 c9 a7 bd ca be 07 3f ca 48 c6 be 3a b4 5c bd
       -0.08192733 0.53025496 -0.3872741 -0.053882815
000030 06 11 96 bc 22 44 0d 3e 15 0d a6 bd de f8 ca bd
       -0.018318664 0.13795522 -0.08107964 -0.09910749
000040 f1 44 59 3e 3f c8 a2 bc 48 9a 4d bc bc 58 8e bd
       0.21217705 -0.019870875 -0.012548991 -0.069505185
000050 be 3d d5 bd 16 26 1f 3e 98 82 58 3e a9 54 21 3e
       -0.10412167 0.15541872 0.21143568 0.15754952
000060 aa 60 fb 3d 41 12 58 3e af bb 43 be 41 86 86 3d
       0.122742966 0.21100713 -0.19114564 0.06568576
000070 84 dc 3b 3e 67 a7 e7 be 08 62 8c bc 19 a5 2c 3e
       0.18345839 -0.45244905 -0.017136589 0.16859855
000080 df 0d 09 be 2e 89 df bc 4a 3a 43 be 21 56 69 be
       -0.13384198 -0.027287092 -0.19065204 -0.22786762
000090 29 e2 55 be f3 2b 46 be 3e d7 a1 3d 00 ca c2 3d
       -0.20887055 -0.19352703 0.07902382 0.09511185
0000a0 92 ce 00 3f e3 c3 57 bd c0 37 38 3e 8e 3c 6e 3c
       0.503152 -0.052677047 0.17990017 0.014540805
0000b0 5d 2a 7a be c8 94 56 bd a1 b9 32 3e 48 38 c0 3e
       -0.24430223 -0.052387983 0.17453624 0.3754294
0000c0 98 c7 12 3e ad ac dd be f6 e7 1e be ec e1 ef be
       0.14333951 -0.43295804 -0.15518174 -0.46852052
0000d0 b4 76 a2 3e d3 ac 6e be cf 8a 3c bc 77 14 a0 be
       0.31731188 -0.23308115 -0.011507704 -0.31265613
0000e0 83 a3 05 bd 6f 59 4b bc b2 6d 9f 3c a9 c3 9b 3e
       -0.03262664 -0.012411459 0.019461486 0.30422714
0000f0 74 62 bf 3d ca 1d 89 be 09 49 2e be 13 93 40 3d
       0.0934495 -0.2678054 -0.17020048 0.04701526
000100 a5 88 d9 bd 32 c9 0a bf 51 67 0b be e5 54 b7 be
       -0.10621766 -0.5421325 -0.13613631 -0.35806957
000110 a7 36 49 3e 90 fd 39 3e b1 2e 26 be ab 59 df bd
       0.19649754 0.18163133 -0.16228749 -0.10905775
000120 2e b6 ad be 9b 33 90 3e bc 02 47 3e 11 f6 0f be
       -0.33928055 0.28164372 0.19434637 -0.1405871
000130 36 f6 80 bd 94 38 f8 3e 80 0c 5b 3e 4a d0 ef bd
       -0.06296961 0.48480666 0.21391487 -0.1170965
000140 f4 2c 98 be f7 f8 3b 3e 1b 41 fc 3d 14 88 0a be
       -0.29721797 0.18356691 0.123171054 -0.13528472
000150 2f 8a 20 3e 40 42 e5 bd f6 15 b0 bd 1b b9 16 3e
       0.15677713 -0.11194277 -0.08597939 0.1471905
000160 be 60 cd 3e 04 1a 86 3c 13 a4 4f bd 27 2a d6 3e
       0.4011287 0.016369827 -0.050693583 0.41829035
000170 84 9d 40 be b4 50 cc bd a7 b5 b8 3c 15 bf d1 3d
       -0.18810087 -0.099763304 0.022547556 0.10241524
000180 34 6b c0 3e 69 b6 74 3d eb e8 5a be 96 24 85 be
       0.3758179 0.059744272 -0.21377914 -0.26004475
000190 99 dd a0 3e 8e 00 3f be b0 ec 75 3e e6 fc 1b be
       0.31419066 -0.18652555 0.2401607 -0.15233192
0001a0 f6 48 cb 3e a1 e0 a3 3e 1c 8e ad bd b4 9a 0e 3d
       0.39704102 0.32007316 -0.08474371 0.034815505
0001b0 24 28 9f be 9a ba 5e bc 75 28 4b be 3e 13 1b 3d
       -0.31085312 -0.013594294 -0.19839652 0.037860148
0001c0 62 38 d6 3d cd 86 d0 bd 3b 05 c7 bc 01 13 11 3c
       0.10459973 -0.10181961 -0.024294486 0.008854629
0001d0 fa e3 fa 3e 20 d0 96 3d 8c 18 e8 bc 55 9d 11 3e
       0.49002057 0.073639154 -0.028332017 0.14220174
0001e0 58 6c ec be d4 7a 81 be 01 10 a6 be 39 4d 07 3e
       -0.4617641 -0.25289023 -0.32434085 0.13213052
0001f0 6c 4a 86 be db c7 f8 3d 75 38 8e bd a4 9a 0a bf
       -0.26228654 0.121474944 -0.06944362 -0.5414221
000200 0a 62 70 be 7c 4a 79 3e 17 b2 d4 bd 3c 19 97 3c
       -0.23474899 0.2434482 -0.103855304 0.01844465
000210 e7 8a 98 be 00 6b c8 bb 9e 54 0d 3f b0 0c a5 3e
       -0.29793474 -0.006116271 0.5520724 0.32236242
000220 51 be e3 3d d4 c4 f6 39 7f 52 f2 be 81 15 69 be
       0.11120284 0.00047067425 -0.47328565 -0.2276211
000230 03 a3 a0 3e 67 d6 44 3d 3b 2f 2f be 6c 93 4d bc
       0.31374368 0.048056033 -0.1710786 -0.012547355
000240 ec 56 b2 be ad 96 0b be b8 15 9b 3c 59 00 de be
       -0.3483194 -0.13631697 0.018931255 -0.4335964
000250 74 20 c9 3d ea a9 61 be e4 26 ba 3e 8d 6c 40 be
       0.09820643 -0.22037473 0.36357796 -0.18791409
000260 f6 b6 25 be 25 77 8d be d4 78 b0 3d 8b 3c 91 be
       -0.16183075 -0.27629963 0.08616796 -0.28366503
000270 65 bd b8 be dc fe 2c bd 3e 86 f1 bd 46 eb e6 3e
       -0.36081997 -0.04223524 -0.11793183 0.45101374
000280 0a f2 28 be cc 0c 81 3d 7e 86 63 be f5 89 d4 3d
       -0.1649858 0.06301269 -0.22219273 0.10377876
000290 59 af b5 3d 58 5b 27 3e 0f 0a 9b be 83 20 3c 3d
       0.088713355 0.16343439 -0.30281112 0.045929443
0002a0 59 31 c3 3e 5e 48 fe 3c ed dc c6 bd 50 4b ea bd
       0.38123587 0.031040367 -0.09710107 -0.11440146
0002b0 af b8 e6 bd 57 8a c7 bc 9f 65 39 3e 81 84 23 3e
       -0.11265694 -0.024357958 0.18105172 0.15968515
0002c0 9c 05 b8 bd 59 60 69 3d ed 12 01 be dd 1b 93 be
       -0.08985445 0.05697665 -0.12604876 -0.28732195
0002d0 fc 7f 8d bc 9d 3b b6 3e 52 de d1 bd 7c 58 c9 3e
       -0.017272942 0.35592356 -0.10247482 0.3932532
0002e0 da 48 95 be 3e e1 09 3e 97 78 9e be f0 0a 51 be
       -0.29157144 0.1346483 -0.30951378 -0.20414329
0002f0 91 c2 1a 3f 8b 41 80 3d 42 be 95 3d 97 24 e7 bd
       0.60453135 0.06262501 0.073116794 -0.11286276
000300 96 97 86 be d3 d0 b4 be f0 99 a8 bd 18 36 9b 3c
       -0.26287526 -0.3531557 -0.08232486 0.018946692
000310 99 d1 58 3a 15 74 55 be 71 aa fa 3d 23 25 1f bd
       0.00082709786 -0.20845063 0.1223954 -0.038853776
000320 59 1a 7e 3d fb 0c 84 be 8b f1 03 3e ad 48 24 bd
       0.062036846 -0.25791153 0.1288511 -0.04010837
000330 13 26 97 3e 3e ae 8e be bf 9e 09 3e 39 5a 23 be
       0.29521236 -0.2786731 0.13439463 -0.15952386
000340 9f 19 8a be d9 dc 01 3e 0f e3 6e bd ca 38 9d 3d
       -0.26972672 0.12681903 -0.05832201 0.07676847
000350 bd fb 91 be 99 06 a4 3d 97 a6 43 3e 23 20 45 be
       -0.28512374 0.08009071 0.19106518 -0.1925054
000360 b8 d1 70 3e f7 1d ad be 23 27 7e be 80 c4 03 3f
       0.23517501 -0.33811924 -0.24819617 0.5147171
000370 96 38 1c be 33 b7 d7 3d df 62 23 be 29 3d 35 be
       -0.15255961 0.10532989 -0.15955685 -0.17699112
000380 19 cd 78 3d 64 8f 50 3e 32 7f ae be 7c dc 34 be
       0.06074247 0.20367199 -0.34081417 -0.17662233
000390 28 73 af 3d dd 80 2b be 90 56 0f be ae 95 47 3f
       0.08566886 -0.16748376 -0.13997865 0.7796277
0003a0 e8 e4 fd 3e 60 f1 6a be 8f 18 55 be e9 54 3f bd
       0.49588704 -0.2294364 -0.2081015 -0.046711836
0003b0 00 34 81 3d 65 d5 a3 be 61 b3 b0 bb 41 40 c5 3e
       0.06308746 -0.31998745 -0.0053924774 0.38525584
0003c0 3f 18 bf be 63 c3 bf bd 76 94 34 be d9 01 5f 3e
       -0.37323186 -0.09363439 -0.17634758 0.21778049
0003d0 70 1f 82 3e 79 3a 9d bd be 90 08 bd 31 ed bd 3d
       0.2541461 -0.076771684 -0.033341162 0.09273756
0003e0 dd 40 8f bd 2d 9e 1b 3d db 6c ad 3e 3e e5 0f bd
       -0.069947936 0.037992645 0.33872113 -0.03513073
0003f0 21 8d 13 3d b4 1b 95 3d 18 09 93 bc 5f 20 d6 bd
       0.036023263 0.072806746 -0.017948672 -0.10455393

fc2.weight f4 [256, 256]
000000 bc 5f 0e 3c 85 e4 ce bc 49 53 02 bd 06 c6 5f bd
       0.008689817 -0.025255451 -0.03181771 -0.05463221
000010 e6 92 bf 3d c9 ca ae 3d ed 3c b8 bc ac 13 72 bd
       0.093541905 0.08534772 -0.02248999 -0.05910079
000020 eb da bc bb 51 42 b1 bb 5b d1 34 3d 5c f9 97 bd
       -0.0057634017 -0.005409517 0.04414497 -0.074206084
000030 bf 01 2c 3d 12 c6 eb 3c 7a b5 87 3d cf 14 d7 bc
       0.041993853 0.02878097 0.06626411 -0.02625504
000040 b4 fd 1a bd b5 31 dd 3a 2e 66 9a 3c 69 3e 17 bc
       -0.037839606 0.0016875776 0.018847551 -0.009231188
000050 72 1d 87 3c 16 7d 92 ba ad 36 1b 3d 8a 83 b2 bc
       0.016493533 -0.0011176195 0.03789394 -0.021791238
000060 51 99 26 bd d1 b2 0b bd 2f ab b0 b8 f4 a5 74 bd
       -0.040673558 -0.03410608 -8.4242194e-05 -0.059728578
000070 1c 31 96 bd 02 ad 07 3c 38 65 ef bd 5e bb 40 3b
       -0.073335856 0.008280994 -0.11689228 0.0029408555
000080 1f 53 10 ba cd b2 99 3a 9f db c9 bd 62 98 a6 3c
       -0.000550555 0.001172626 -0.098563425 0.020336334
000090 64 5d 9f 3c 22 65 ba bb 0b 49 83 bd 5f 58 2c bd
       0.019453712 -0.0056883255 -0.06410416 -0.042076465
0000a0 fe 31 7e bd 74 21 17 bc 38 e8 11 bd 4c 9c ec bb
       -0.062059395 -0.009224284 -0.03562185 -0.0072207805
0000b0 18 d8 88 3c bf b4 8a 3c 9f 37 db 3c fb 0d 43 bc
       0.016704604 0.01693189 0.02675992 -0.011905189
0000c0 a8 ab 10 3c 85 36 91 3d 90 bc f9 3a f8 57 b7 3c
       0.008829989 0.07090477 0.0019053388 0.022380814
0000d0 a7 50 d4 bc 5f 75 1f bd 0f 3c 19 bd 36 3d e0 bb
       -0.025917364 -0.038930293 -0.037410792 -0.0068432344
0000e0 ce 4f 11 bd 89 97 67 3d a9 99 5c bd 92 77 34 bc
       -0.0354765 0.056541 -0.05385748 -0.011014836
0000f0 23 53 b5 ba b3 79 1d 3c 77 6a 93 bd 88 6c ed bc
       -0.0013833981 0.009611535 -0.07198041 -0.028982416
000100 b4 67 c0 bd af 82 3e bd 4e 22 8c b9 37 a6 06 bd
       -0.0939478 -0.04651135 -0.0002672844 -0.03287336
000110 2a 9f 3c 3d de a0 81 bd fa ea a5 bd 17 06 97 bd
       0.04605023 -0.06329511 -0.08101459 -0.073742084
000120 2f 60 bf 3c f2 92 58 3d 8d f6 8d 3c 5b bf 65 bd
       0.023361294 0.052874513 0.017329479 -0.056090694
000130 94 85 98 3d d0 a5 64 bb 89 32 07 bd a2 94 50 3d
       0.07447353 -0.003488887 -0.03300718 0.050922997
000140 53 57 1d 3d 6a e7 70 bc fe 2d a3 bc 74 7d 88 bc
       0.038413357 -0.014703611 -0.019919392 -0.016661383
000150 2e 10 8f 3d 25 22 82 bb 2d b3 3e 3d da 77 5c 3c
       0.06985508 -0.0039713555 0.046557594 0.013456309
000160 dc 74 54 bc 48 94 45 3d 90 e3 7a bd 17 d1 91 bc
       -0.012967315 0.048237115 -0.061252177 -0.017799897
000170 d3 b2 25 3d 32 1d b5 bc b3 21 7a 3d 8e 57 80 3d
       0.040453743 -0.022108648 0.061067294 0.062667
000180 d5 50 32 3d 6e 6e 88 bd b1 0e b3 37 93 4e 8b 3d
       0.04353412 -0.06661688 2.1345304e-05 0.06802096
000190 08 79 8d 3d 6d 44 5f bb 7a ff d2 bc 1b 7e 1d 3c
       0.069078505 -0.0034067885 -0.025756586 0.009612585
0001a0 e8 8b 92 bb 6d d5 7d bc 01 c1 31 3c 8a 72 c1 bc
       -0.0044722445 -0.015492779 0.010849238 -0.023614187
0001b0 72 b9 d8 3c 0d 11 a0 3c c2 18 b1 bc af 20 6d 3d
       0.026455615 0.01953938 -0.02161825 0.057892498
0001c0 fb 7e cb 3c 90 8c 84 bd 2f 89 31 3c b5 6d 9c 3c
       0.024840822 -0.06472123 0.01083593 0.019095281
0001d0 ad 81 29 3d db b3 02 bd 19 93 01 bd c5 c2 bb 3a
       0.041383434 -0.031909805 -0.031634424 0.0014325014
0001e0 da 4a a1 bc 9c 36 52 bd 13 9c 43 bd f3 a2 94 3d
       -0.019689012 -0.05132161 -0.047756266 0.072576426
0001f0 98 8f 2a 3c f7 c9 29 3d e8 cd b0 bc b0 73 0a 3d
       0.010410212 0.041452374 -0.021582559 0.033801734
000200 a1 74 72 3d 5e e3 96 3c 2e b7 9e 3b 40 9a 1c 3d
       0.059193257 0.018418964 0.004843614 0.03823304
000210 e9 f7 5d bc c8 ec 6b 3c a3 6a e5 bc c0 79 91 bd
       -0.013547876 0.014399715 -0.02800495 -0.071033
000220 06 74 c7 3c 6e b0 38 3c 44 3d 66 3d 59 e8 75 bc
       0.024347316 0.011272533 0.05621077 -0.015009009
000230 c9 65 0b 3d 24 01 1d bd 01 27 2d 3d 06 fb 60 3d
       0.034032617 -0.038331166 0.042273525 0.054926895
000240 84 46 05 bd 60 15 ed 3c 53 6f 4c bd d9 44 82 bd
       -0.032537952 0.028940856 -0.049910855 -0.06360788
000250 89 51 5a 3d eb 14 1d bd 44 93 0a bd e6 b3 89 bd
       0.053300414 -0.038350027 -0.03383185 -0.06723766
000260 70 44 c4 3c d8 18 27 3d 1c 85 51 bc 08 a7 db 3c
       0.023958415 0.040795177 -0.012788083 0.026813045
000270 6a dc e2 3d 1b ed a9 bc ca d4 e9 ba 5b a9 1f bd
       0.11077197 -0.020742944 -0.0017839905 -0.03897987
000280 09 ea aa bd 20 25 af 3c 6a 59 dc bc 02 64 4f bd
       -0.0834542 0.021380007 -0.026898105 -0.050632484
000290 4c 60 dd 3b 8b a8 3a bb d0 38 8d 3d e7 51 ce bc
       0.0067558642 -0.0028481807 0.06895602 -0.025185538
0002a0 14 02 50 3c 23 a8 a0 3c b1 9d 70 bc 38 4e c3 bb
       0.012695808 0.019611424 -0.014686034 -0.005960252
0002b0 97 d0 0c bc 05 fb ba bd a2 50 2d 3d 15 3f 73 bb
       -0.008594654 -0.091299094 0.042313226 -0.0037116457
0002c0 22 49 5b bd a7 45 d5 3c 98 32 d8 bd 69 a9 b7 3b
       -0.05353654 0.02603419 -0.10556525 0.005604912
0002d0 0c a9 4d 3d d0 db 32 3d 3b 4a 41 bd 46 db 85 3d
       0.050210044 0.04366666 -0.047189932 0.06535964
0002e0 65 28 ea bb 6f bf 90 3d d0 3b 26 3c d8 eb de 3c
       -0.0071459287 0.07067763 0.010146096 0.027212068
0002f0 3f fb f1 3b fd 8e 2c 3d 4d 26 5f bc 89 ce be bd
       0.007384687 0.04212855 -0.013619971 -0.09316737
000300 69 e0 34 bd 38 1f a2 3c bf ff 92 3c a2 ca 9c 3d
       -0.044159327 0.019790277 0.017944215 0.07655837
000310 18 48 b1 bd ee ed 50 bd 3c cf 48 3c 66 3c 29 3b
       -0.08656329 -0.051008157 0.01225644 0.0025823354
000320 f3 91 75 3d 84 ea b0 bb c5 a1 e4 bc 5e 07 f0 3c
       0.05995364 -0.00539905 -0.027909169 0.029300388
000330 5e 69 7f 3d 95 e3 e3 bc f2 87 7b bd 42 ac f5 bc
       0.062356345 -0.02781848 -0.061408944 -0.029989365
000340 3b 05 86 3d 2a 94 1a bd 97 6f 89 3c 0b 13 25 3d
       0.065439664 -0.037738957 0.016776843 0.040301364
000350 93 29 47 3d a4 a4 2a 3d ec f1 43 bd 8f fb a9 3c
       0.048623633 0.04166092 -0.047838137 0.020749835
000360 6e ec 59 3d a6 33 dd bc 64 26 ed 39 ab dd 0c 39
       0.053203993 -0.027002167 0.00045232766 0.00013434018
000370 cd a8 12 3d 36 7c 6b 3c 1e 9f 82 3d 0f ad 1d 3b
       0.035805512 0.014372876 0.063780054 0.002405945
000380 7f 10 27 bc aa 3d 8c bd 6e 6b 48 bd b3 1b 5d bc
       -0.010196804 -0.06847699 -0.048930578 -0.013495374
000390 a0 9e 41 3b 66 11 42 bd 43 4b fb bc 07 54 fc 3d
       0.002954401 -0.047379874 -0.030675536 0.123207144
0003a0 05 82 09 3d b7 2b 26 bd 28 2e d1 bc d8 96 8e bb
       0.033571262 -0.040569033 -0.025534704 -0.004351478
0003b0 77 4b 36 bd c0 13 33 3d fc be 62 3c 40 6e e1 3c
       -0.044505563 0.043720007 0.01383948 0.027518392
0003c0 36 3d 23 bd 22 de 09 3d c1 6f ba 3a 81 4d 1b 3d
       -0.039853297 0.033659108 0.0014223979 0.03791571
0003d0 a6 85 e3 bd 49 81 24 3c 67 3c 61 bd 10 c5 d6 bc
       -0.11109476 0.01004059 -0.054989245 -0.026217014
0003e0 39 df e3 bd 5f b3 cb 3c ce ef 2a 3d 14 32 23 3d
       -0.11126561 0.024865804 0.0417326 0.03984268
0003f0 dc 16 f8 bc ec 43 3e bd ae dc e0 bb 54 ff a7 3d
       -0.030284338 -0.046451494 -0.0068622446 0.08202997

fc2.bias f4 [256]
000000 26 5d cc 3b 21 87 bd bd 5f c7 13 3e 4f 70 58 bd
       0.00623669 -0.092542894 0.14431523 -0.05284148
000010 cf 18 15 be e5 bd 81 3e 45 3e 68 bd f1 4d 95 3e
       -0.14560245 0.2534019 -0.05670001 0.29161027
000020 4b 22 7a bd ae 81 07 3e a0 80 86 bd 73 53 e0 bd
       -0.06106786 0.13233063 -0.06567502 -0.10953417
000030 d6 ab dd bb 64 44 b7 3d ec 6e 57 bc 6f 41 88 3d
       -0.006764869 0.08948591 -0.013149004 0.066531055
000040 2c 56 25 3c 2c c3 68 3d 32 63 03 bb 89 27 33 3c
       0.010091346 0.056826755 -0.0020048139 0.010934719
000050 45 f2 53 3c e4 a8 12 3e 0c 00 22 bd fd f6 a8 3c
       0.0129361795 0.14322239 -0.039550826 0.020625586
000060 68 45 44 be b7 e9 f4 bd fb 2f 35 be 8a a3 72 3d
       -0.19167101 -0.1195864 -0.17694084 0.059237994
000070 b1 da da 3d 8a fa 0a be af 88 28 bd 52 c0 fb ba
       0.10686243 -0.13572136 -0.041145977 -0.0019207096
000080 f4 e6 2a be af 91 9a bd 24 e2 d2 3c e8 81 18 3e
       -0.16689664 -0.07547318 0.025742598 0.14893305
000090 99 eb 56 be e2 11 48 3c 46 e6 6e bd c7 c8 64 3e
       -0.20988311 0.012211295 -0.058325075 0.22342215
0000a0 86 93 ea 3d d8 31 e4 3c 44 f1 23 be 9d 58 0d 3d
       0.11453919 0.027855799 -0.16010004 0.034508336
0000b0 9a 2f 63 3d f8 01 84 bd 5c 7c 02 3c b1 f7 82 be
       0.05546532 -0.06445688 0.00796422 -0.255796
0000c0 79 90 87 3d f0 4b 8a bc e2 6d 4b bc 79 e7 d5 3d
       0.06619353 -0.016881913 -0.012416335 0.104445405
0000d0 53 29 36 be 63 56 e7 bd 00 7b fd bc c0 9e 52 3c
       -0.17789201 -0.11295774 -0.03094244 0.012855232
0000e0 a6 67 26 3e fb 53 4a 3e a3 e4 80 bd 93 28 d7 3d
       0.16250476 0.19758599 -0.06293609 0.10505786
0000f0 e0 b0 49 3e 45 87 59 3d 3d 22 2f 3d 80 31 1b 3e
       0.19696379 0.05310752 0.04275726 0.15155602
000100 6d 95 a2 bc c3 e8 4e be e8 80 46 be 67 5a 9e 3e
       -0.019846642 -0.20205979 -0.19385111 0.30928347
000110 96 32 25 3c 82 ed 29 be 2e 6f fd 3c 27 a5 36 3d
       0.010082861 -0.16594508 0.030936804 0.044591095
000120 a3 e6 2f be 0f 15 0d be 4d 36 04 be c5 91 1c 3e
       -0.17177825 -0.13777564 -0.12911339 0.15289982
000130 2f 8e 99 3c 30 da 5d bd f9 ff 10 bc 45 e2 82 bd
       0.018744556 -0.054163158 -0.008850091 -0.06390814
000140 e1 d8 0e be f2 f7 af bd 07 f7 98 3e eb 53 1b be
       -0.1394992 -0.08592214 0.29875967 -0.15168731
000150 1c e5 61 3b 53 17 2a be 3c 6d 8c 3d 50 18 01 be
       0.0034468835 -0.1661046 0.06856772 -0.1260693
000160 f3 e5 23 be 8d a6 f4 3d f6 4b 15 bd 42 a4 7d bc
       -0.16005687 0.119458295 -0.036449395 -0.015481057
000170 4d 12 c0 3d c6 45 ba 3d aa ec d5 3c 1c a8 85 bd
       0.093784906 0.090953395 0.026113827 -0.06526205
000180 df d4 4b bc 1e f6 9f bd 6e 95 d4 ba 41 5e 04 3e
       -0.012440889 -0.07810615 -0.001621885 0.1292658
000190 8f 10 cc bd 58 a8 a7 3d 2d 07 23 3e 41 b3 28 3d
       -0.09964096 0.08186406 0.15920706 0.041186575
0001a0 55 a8 de 3d 30 05 3b 3d 13 fd 3f 3e d2 10 bc 3c
       0.108719505 0.045659244 0.18748884 0.02295724
0001b0 5b 93 a0 3c 89 0a 37 bb 1a 2c 64 be 2c 96 28 be
       0.019601515 -0.0027929863 -0.22282448 -0.16463536
0001c0 b2 5b bc 3d 94 7e 5b bd e0 77 9d 3c 7d dd 09 be
       0.09197177 -0.05358751 0.0192222 -0.13463397
0001d0 1f 24 8e 3b 33 be d6 bd 2b 0c 3c bc 8f 17 da bd
       0.004337802 -0.10485496 -0.01147751 -0.10649025
0001e0 f7 49 ec bc 56 a9 0e bd fa 65 50 be 9e 54 a3 3c
       -0.028843863 -0.03482946 -0.20351401 0.01993781
0001f0 de 38 e4 bd 82 25 04 bd 2e 8c 49 3e a7 06 08 3e
       -0.11143659 -0.032262333 0.1968238 0.13283788
000200 06 9f 03 3e 69 8b b8 3d 40 6a f6 3d b1 bd ae 3d
       0.12853631 0.090109654 0.12031984 0.085322745
000210 80 62 23 3d ff b4 15 3e 5e 73 3e 3d 5f 2b 36 bc
       0.03988886 0.14619826 0.04649674 -0.011118739
000220 6c 4c 1b 3e f3 11 3b 3d e1 3a 15 be f7 8a a9 bd
       0.15165871 0.045671415 -0.14573242 -0.082784586
000230 3a 7c b2 3d 91 63 ca bc 87 b8 7e bd f0 4e 15 be
       0.087151006 -0.02470568 -0.062187698 -0.14580894
000240 06 4b 3a bd e0 87 28 3e 5a 3d 12 3e 30 a3 d4 3d
       -0.045481704 0.16458082 0.14281216 0.10382688
000250 b0 79 c8 bc 94 b8 d2 bd d0 8d d1 3d d7 f9 2d 3e
       -0.024472088 -0.10289112 0.10232127 0.16989838
000260 4b cf 89 be f3 73 8e 3d d0 c5 36 be 8c bd b6 bc
       -0.26915964 0.06955709 -0.17848897 -0.02230718
000270 eb ee 53 be 53 01 1d bd 9f 04 e9 bc 41 0f c8 bc
       -0.20696609 -0.03833134 -0.028444586 -0.024421336
000280 99 38 17 3e 2c 0d b0 3d f5 46 1c be a4 56 4c 3c
       0.14767684 0.08596262 -0.15261443 0.012471829
000290 41 0d a5 bc 27 9c f0 3c 63 fe 6d 3d b4 db 18 3e
       -0.020147922 0.029371334 0.05810393 0.1492756
0002a0 22 9a f0 3a 85 a9 92 3d 81 e8 c6 bd 6a 30 02 3e
       0.0018356482 0.071612395 -0.09712315 0.12713781
0002b0 4a bb fe 3c b4 ac 40 3d 85 00 34 3d ce 7e dd bd
       0.031095166 0.047039703 0.043945808 -0.10815202
0002c0 e3 7b 4f bd b8 75 b8 3d 89 03 37 3e ac f2 b0 3c
       -0.050655257 0.09006828 0.17872442 0.02160009
0002d0 1a 75 e4 bd 61 29 7b 3d ae fd c2 bd 7c 05 52 bc
       -0.11155148 0.06131876 -0.09521042 -0.01281869
0002e0 28 14 9c 3d a0 94 22 bd 55 78 c7 3d 06 e1 32 3d
       0.07621032 -0.03969252 0.097397484 0.04367163
0002f0 43 e8 76 bc a2 39 c4 bc 74 f7 c8 3d 69 f5 a0 3d
       -0.015070024 -0.023953263 0.09812823 0.07859308
000300 48 34 01 be f2 d7 be bd 08 c0 29 3e 82 5e 58 3d
       -0.126176 -0.09318532 0.1657716 0.052824505
000310 88 2d 0c 3e f6 fb af 3d 81 09 30 bd 0d 88 43 bc
       0.13689244 0.085929796 -0.042977814 -0.0119342925
000320 6b bd b9 3d 84 24 8d 3d bf c6 0a be 02 ee 60 bd
       0.09069332 0.068917304 -0.13552378 -0.054914482
000330 55 67 b0 bb ef b7 9c bb e0 cf 86 3d ec b6 02 be
       -0.005383412 -0.004782669 0.06582618 -0.12765092
000340 09 f8 be bc ae 0c 44 bc a3 07 fe bd 22 d2 86 3d
       -0.023311632 -0.011965914 -0.124038 0.065830484
000350 42 98 24 be 6d 16 4e be 11 a9 ad bd d1 61 44 be
       -0.16073707 -0.20125742 -0.084795125 -0.19177939
000360 ef 36 1a 3d 05 88 45 bd 7c c8 9e bd 77 dc b8 bd
       0.037650045 -0.04822542 -0.07753083 -0.09026425
000370 c3 d6 30 3e 84 02 fb 3d 5c 7d 3f be ad c2 62 3d
       0.17269425 0.12256339 -0.18700165 0.05536144
000380 54 9d 9d 3d b7 1c 15 3e 3a e2 97 bd f7 21 84 be
       0.076960236 0.14561735 -0.07416196 -0.25807163
000390 98 ce db 3d df a7 6a be 26 a3 19 be 95 fd 9d bd
       0.10732764 -0.229156 -0.15003642 -0.077143826
0003a0 1a 3c 83 3d 7b 9f 61 3d 7b c5 33 3e 03 71 ab bc
       0.06407948 0.055083733 0.17555802 -0.020927912
0003b0 35 f0 22 3e 0b 2c 93 3d 6a 52 d2 3d 10 29 28 be
       0.15911944 0.07186135 0.102696255 -0.16421914
0003c0 b5 28 b9 bd bc f0 0f 3d 9b 0e 52 bd 10 cb 26 be
       -0.090409674 0.03514169 -0.05128346 -0.162884
0003d0 81 27 81 bd 74 5d 16 bd 8d 37 5b be ee ed 63 bd
       -0.06306363 -0.036710218 -0.2140791 -0.05564683
0003e0 73 65 3e bc 87 9f 84 3d 6b 44 26 bd 4f 72 15 3b
       -0.011620867 0.0647574 -0.040592592 0.002280373
0003f0 b0 b0 18 bd 16 ce 20 be fc 14 73 be 50 8b 70 bc
       -0.037277877 -0.15703616 -0.23738474 -0.014681652

fc3.weight f4 [6, 256]
000000 d2 0e 94 bc 42 84 19 3e 85 e9 21 be c9 0e 4a 3d
       -0.018073473 0.14991859 -0.15811737 0.049330506
000010 98 d3 c8 3d 3b 8b 17 3e ca 87 25 bd 81 eb a7 bc
       0.09805983 0.14799206 -0.0404127 -0.02049804
000020 75 86 96 bd f0 4e bd 3d 49 96 96 3d 5b 98 08 3d
       -0.073498644 0.09243572 0.07352883 0.033348422
000030 a7 31 b7 3d 4d 1a 25 bc 78 fd f6 bd 29 d3 b4 3d
       0.08945017 -0.010077071 -0.12060064 0.08829338
000040 49 1b 0d b9 38 74 00 be 65 c1 4b bd 07 d9 da bd
       -0.00013456972 -0.12544334 -0.049744982 -0.10685926
000050 81 64 83 3c 2a 02 cd 3b 79 4f c1 bd 03 6b 13 be
       0.016039135 0.0062563615 -0.09438986 -0.1439629
000060 06 f3 97 3b 91 f1 2d be 0a 6a 62 3b 8f d9 19 bd
       0.004637125 -0.16986682 0.0034548067 -0.037560996
000070 51 b7 ca b9 d9 9b 17 3e b7 c3 72 3c fa 2c 7b be
       -0.00038665024 0.14805545 0.01481717 -0.24528876
000080 e4 57 bd bb 4b 4a e3 3d 64 f9 06 3d 23 c0 78 bd
       -0.0057782996 0.11098155 0.03295268 -0.06073011
000090 a3 09 28 3d 03 79 0c bd b4 b0 84 3d 1d 47 a8 be
       0.041024815 -0.034295093 0.06479016 -0.32866755
0000a0 31 a4 d9 3c de fc aa 3c 3b c2 93 3d 26 19 24 bc
       0.02656755 0.02087253 0.07214781 -0.0100157615
0000b0 8f 60 16 3e eb 9b 15 3c 3d 33 a0 3c c6 a5 93 bb
       0.14685272 0.009131412 0.019555682 -0.0045058457
0000c0 3c e6 8b 3d 3c 47 23 bd 7c 0d 3a 3e 9f 7d e8 3d
       0.06831023 -0.039862856 0.18169206 0.11352085
0000d0 0d da 9b bd a4 a6 23 3d d9 58 3b 3d 52 82 1c bd
       -0.07609949 0.039953843 0.04573903 -0.03821022
0000e0 95 e3 8a 3c d7 55 98 be 68 23 ce 3d 6f b2 a6 3d
       0.016954223 -0.2975299 0.10065347 0.08139502
0000f0 a6 76 b5 bc 12 40 86 3d 5c 33 a9 be 1a 88 27 bc
       -0.022151303 0.06555189 -0.33046997 -0.01022532
000100 19 eb 20 3c 20 ca 39 bd 25 cc 98 3d 45 d9 83 be
       0.009821677 -0.045358777 0.074608125 -0.257517
000110 a6 5a 63 3d 0e 22 9a bc ee be c7 3c 33 4d 40 bd
       0.05550637 -0.018815067 0.024383035 -0.046948623
000120 70 c3 0c 3e 67 80 ae bd 4c 06 af 3c 0c 94 17 3d
       0.13746428 -0.085205846 0.021365307 0.037006423
000130 6a 5a de bc 85 ee 92 3d 07 2f d1 bd 94 22 40 3d
       -0.027142722 0.071744 -0.10214048 0.046907976
000140 fa bf 7f 3d 33 6c 10 3d b3 6e 88 be 78 9a 28 bd
       0.062438942 0.035259437 -0.26646957 -0.041162938
000150 3a 1d 85 bd 27 e1 1a 3d 0e 86 d8 39 a8 83 2a bd
       -0.06499715 0.03781238 0.0004129861 -0.041629463
000160 1f 59 8c 3d b7 92 cc bb e6 e7 b7 bd 89 51 3f 3c
       0.06852936 -0.0062430757 -0.08979778 0.011677154
000170 e5 73 07 bc 01 a6 ad 3d 10 35 d7 bc 8f ee 2e 3d
       -0.0082673775 0.08478928 -0.02627042 0.042707976
000180 05 f9 08 3e cf 0e 1d 3e 83 8e 5f 3e 33 d1 0a bd
       0.13376243 0.1533768 0.21831708 -0.033890914
000190 66 5b 8e be f1 00 9e bc b5 72 8d 3d 8a 7d 19 bc
       -0.27804106 -0.019287558 0.06906644 -0.00936831
0001a0 de a2 1f bd 4f 30 05 bd 28 af c6 3d 59 9f 94 3c
       -0.03897368 -0.032516774 0.09701377 0.01814239
0001b0 50 85 c3 3a 74 74 8a bd a1 bb 17 bd df 5a fd bc
       0.001491705 -0.06760493 -0.03704417 -0.03092712
0001c0 ab ef c6 bd e3 44 52 3e 0f 05 06 be 7e 5d 46 3e
       -0.09713682 0.2053409 -0.13087867 0.19371602
0001d0 f6 5c cc bd af 0c ff bc 57 0c 96 3d 33 89 2f 3e
       -0.099786684 -0.031133978 0.073265724 0.17142181
0001e0 10 f2 df bb c7 17 93 bc 55 9a a5 3c c1 d9 c8 bd
       -0.006834276 -0.017955674 0.020215193 -0.09807158
0001f0 7f 50 ff bd 64 9d 42 3d 55 ec 8d bd f9 e8 ff bd
       -0.12466525 0.04751338 -0.069298424 -0.12495608
000200 61 7b 81 bd 68 43 57 3d 91 3f 6b bd 4f bb e7 be
       -0.06322361 0.052554518 -0.05743367 -0.45260093
000210 eb f7 14 3d 3f dd 71 3d c8 cd 81 3d 1e c8 51 be
       0.036369245 0.059048887 0.06338078 -0.20486495
000220 8d 00 c7 bc ed 0f f2 3d 08 91 16 3e 8f 3a 56 3d
       -0.024292255 0.11819444 0.14703763 0.05230194
000230 5a ae c1 bc 5f ac b2 3b 93 a1 08 bd 6e 44 c2 3a
       -0.023642708 0.005452677 -0.033357214 0.0014821419
000240 76 73 aa bc 99 7d f4 3d b4 04 14 3f 8d e1 d7 bd
       -0.02080701 0.11938018 0.57819676 -0.10541067
000250 94 7f 3c 3c 9b 2a 37 3d d5 05 86 bd a9 24 b0 bd
       0.011505026 0.044718366 -0.06544081 -0.08600742
000260 ce dd 9f 3d e6 9a e4 bc db 44 a2 be 1b d4 43 bd
       0.07805978 -0.027905893 -0.31693158 -0.0478097
000270 05 24 af 3d a9 fc 20 3e 9f 35 54 3d 58 86 31 bd
       0.08551792 0.15721382 0.05180895 -0.04334101
000280 cd 82 7c 3d 09 54 b9 b9 b6 11 65 3d 74 c1 d0 bd
       0.06164818 -0.0003534856 0.055925094 -0.10193148
000290 dd fa 4f bc 12 97 17 3b 79 f7 a9 bd 08 36 15 be
       -0.012694088 0.0023130816 -0.08299155 -0.14571393
0002a0 dc 54 b9 3c bf 2f cd 3d 51 b3 15 bd 82 54 9a bd
       0.022623472 0.100188725 -0.036547963 -0.0753565
0002b0 eb fd 3d 3e 99 1f 0a 3e db 51 33 bd 8c 25 b2 bc
       0.18553893 0.13488616 -0.043779235 -0.02174642
0002c0 10 d3 2c be 03 c5 69 be 8e 44 08 bc 47 36 db bd
       -0.16877389 -0.2282906 -0.008317126 -0.10703712
0002d0 42 b2 46 3d 66 2d 11 bc 9a 83 72 3e ba d1 a8 3d
       0.048509844 -0.0088609215 0.23683015 0.08243127
0002e0 af e6 f2 3c a3 92 86 bc f0 84 50 3c 51 5a 0a bd
       0.029651014 -0.016427344 0.012727007 -0.03377754
0002f0 a8 d3 d1 3a 50 6d 20 bc 47 b1 6f 3d a2 f2 4f bd
       0.0016008513 -0.009791687 0.058518674 -0.050768502
000300 bb 31 fe bd a4 13 08 3e fa 2e dd bd 2e 32 0b bd
       -0.12411829 0.13288742 -0.10799976 -0.033983402
000310 63 9b 77 bc ed 71 cd be ff 31 86 3d dd 4d 28 be
       -0.015112731 -0.4012598 0.06552505 -0.16435952
000320 f2 79 9f bb df 4d d6 3c 2b 71 5e be 0d 46 ea 36
       -0.004866832 0.026160179 -0.21722858 6.9818984e-06
000330 b4 98 dc 3d da 56 0c be 20 0b 1a 3d 42 ce d0 bc
       0.10771313 -0.13705006 0.037608266 -0.025488976
000340 3e 91 91 3c 7f 8f d1 bd 77 80 30 3e 56 f9 cb 3d
       0.017769452 -0.10232448 0.17236505 0.099596664
000350 3d 3d d5 3d a8 ce af bb 2a b7 8e 3d ee 7a b9 bd
       0.10412071 -0.0053652115 0.069685295 -0.0905665
000360 a8 50 f1 3c 94 d5 51 3d 31 86 a1 3d de 02 87 bd
       0.029457405 0.051229075 0.07886923 -0.06592344
000370 f9 a6 5f 3d 09 78 75 3c be 50 ad be 1d 2e 8e 3d
       0.054602597 0.014982232 -0.33850664 0.06942389
000380 0a 03 6c 3e d1 9d e4 3d d5 92 a2 be e3 d8 a6 bd
       0.23048034 0.111629136 -0.3175265 -0.081468366
000390 5f 2b 96 bc 13 ae 16 3b f6 05 21 3d cb b9 28 3d
       -0.018331228 0.002299194 0.039312325 0.04119281
0003a0 54 1e ec 3d 92 87 b3 bd 1e 69 f1 bd 87 f4 3a 3d
       0.11529222 -0.08766092 -0.11787628 0.045643356
0003b0 ff 08 fa bc 3f 41 24 bc f3 bb 9b bd ed b7 d0 3d
       -0.030521868 -0.0100253215 -0.07604208 0.10191331
0003c0 36 2b 8d 3d 14 48 c8 bc 90 fd f2 3d 72 aa fb bd
       0.068930075 -0.024448432 0.118647695 -0.12288369
0003d0 08 b5 03 3d a6 e3 2f 3d 6c 67 1f 3d 55 94 b8 bc
       0.032155067 0.04294171 0.03891699 -0.022531668
0003e0 73 23 d6 3b f8 a1 33 3d 62 5d 7d 3e f8 bb c9 bd
       0.0065349876 0.043855637 0.24742654 -0.09850305
0003f0 e9 0a d6 bd f4 e3 43 bc 86 5e dc bd eb 03 df 3c
       -0.104513 -0.011956204 -0.107602164 0.027223548

fc3.bias f4 [6]
000000 9b ff 3a bd c1 51 18 be b6 0d d9 3d 64 a5 c2 3d
       -0.04565392 -0.14874937 0.10598318 0.09504202
000010 fa 57 49 3d 14 a0 76 3d
       0.049156167 0.060211256
