model_save/bc/bc_policy10.pt (torch, 289751 bytes, 6 tensors)

fc1.weight f4 [256, 17]
00000000: 7f8b 01be 23e5 663e c015 543e 0aef 203f
00000010: fbdd 023e 623b 42bc a0c8 07bf 5d82 a6be
00000020: 3cd3 9ebe d22e e33e 5aae b63e 670e 183e
00000030: 460a 4d3e 95b8 073e 429c 41be 10e5 44be
00000040: eab5 2c3e 6bb3 89bf 1811 bebd 068d 713e
00000050: 7ee4 413e d32a 0ebd c19c acbd 8cb2 ba3b
00000060: 611a dabe 7a96 3d3b 5cf0 09bf 9248 853e
00000070: a85b 923d b6eb 0e3e 29a1 0abb 6c64 dd3d
00000080: 3d8f 4d3e 3536 273e c153 83bf 4402 43bd
00000090: 1c0f 06be f17a 09bf ae06 8abe 3268 a7be
000000a0: 8a6f 893d 9a49 aebe d88a f5bd 327a 95be
000000b0: 1369 313d 0b5c 143d 698b 833d da9f ea3d
000000c0: f264 7dbd a4eb a8bd 6bef 003e c6b8 e3be
000000d0: 70c7 c03d 1dde bcbd 7c3e 45be 809b f7bd
000000e0: e0e2 c4bd b586 f53d 6905 0c3e eb45 46be
000000f0: cdee b6bd 09bd 943e b222 773e 81b9 c53d
00000100: 8d13 8bbd 321a 803e 6bcc 2fbe d234 253d
00000110: 9ee7 f73e 37c6 0dc0 8d9c 8d3e ae9b 5dbe
00000120: c70c 933e aabc 813e 1482 803e 19bb 603e
00000130: 471b b3bc e54d 59bd 4041 6fbe 0652 56ba
00000140: cbca 3e3d 595f e3bd 6ebe 363d cf07 6a3c
00000150: 08dc 173c 3362 10bf 2eae 9a3e e845 bebe
00000160: 96a3 10bf ddea 213f 05d4 b63e 49d0 0a3e
00000170: f014 bdbd a9ee 6bbe 9b24 aebe a135 dfbd
00000180: 25f8 803d ef93 a4bd 8f43 fbbc 0eb7 6abd
00000190: 94c2 00be 081a debd f670 ad3e 0d14 f4bd
000001a0: 06c1 083e 678c 543d 2eee edbd cc5b bd3e
000001b0: e3e7 edbe 22f7 6d3e 4d03 d3bd 75d7 173f
000001c0: 8858 b93e a7ec 33bb 4182 6cbc 7005 383e
000001d0: 049a b3bd 4083 413e f0f4 41be 4275 0b3e
000001e0: ab9e d83e 427c fc3d ca5c 023f baa4 04bc
000001f0: e1f3 a3be a6a9 abbe 4552 da3e f213 483d
00000200: a9b4 a0bd b7b5 533e 3879 813d a420 b93b
00000210: 10f5 783d 3c62 af3d 4f55 e33d dbd1 40bd
00000220: 11af eabe 1801 e93d 990e 193e 7608 5bbe
00000230: dacb 94bd fe1a 15bf 74d9 dfbe 2a24 963e
00000240: 5973 1dbe 7cba 02bf 7897 333f 2578 42be
00000250: afe0 f2bd 39ea 2e3d 2671 60bd cc6f 913d
00000260: 3137 113e df60 84be 80cd bbbe 889a 0a3e
00000270: 84b9 bebe 2046 48bc d4df 2abf d4fa e53e
00000280: 248b 91be 76fc cebd 069b 21bf c5ae 9fbd
00000290: 3322 8d3b 5390 c6bd 830e 793e 216f 613d
000002a0: 3c49 1f3d 3809 12be 6926 58be 3900 443e
000002b0: 5da4 933c 4352 21be 5a2e 633e 09a1 d8be
000002c0: 5699 883e e4d6 29be 189e b3bd 168f 0bbf
000002d0: 1758 9b3e 954e dd3c d504 16be be18 f13d
000002e0: 247d 2f3e 6bb1 d8bd 1a06 2b3d 164d 00bf
000002f0: 1788 5f3e 27b3 d6be e035 c8be 6b0c e9bd
00000300: 171c ee3e cace 38bf 190b d5bd a77c 40be
00000310: aa6b 97be ff42 703e 4841 893d 537a 373e
00000320: 8989 5cbd 9c4e c43d e013 cabd ff9a a03d
00000330: e0fd d7bf 4b94 aebf c6b0 09bf fcde 87be
00000340: a7c0 b0be 1c92 0bbe f3d4 b5bd 77f7 28be
00000350: 9db2 17bd a345 a4be 0381 a7bd 8d81 1d3e
00000360: 2d22 7bbd 2027 d23d 87bc 9a3b c612 243d
00000370: 102c babd 96ce 53bf 0067 abbd 13fd d9bd
00000380: 3ace d63d 4d40 ad3e 8147 bbbd 2dc7 b8be
00000390: 7b74 84be 5c7f 95bc 4f5a 45be 025a 5b3e
000003a0: 2722 9cbc 5f0b fb3d 052b b6bc 61ab 1fbe
000003b0: 748c c53d 9917 5abe 7f3a b43f d686 483e
000003c0: fd0c 0ebe f9c0 a8bd c66c ad3e d58d a73d
000003d0: a2d9 a73e 9f7c 7abd 31ec a33d 8729 c43e
000003e0: 3d5e d3be 45fc 183e a5eb a5bd 8960 77bd
000003f0: a9ce 7abd a51d d23c 5dc0 803d e414 a7bd
-0.1265087 0.22548346 0.20711422 0.62864745 0.12779991 -0.011854978 -0.53040504 -0.32521334
-0.31020534 0.4437166 0.35679895 0.14849244 0.2002345 0.13254006 -0.18907264 -0.19228005
0.1686627 -1.0757879 -0.09280604 0.23588952 0.18934819 -0.03470881 -0.08428336 0.005697554
-0.4259825 0.0028928802 -0.53882384 0.2603193 0.07146388 0.13957104 -0.0021153188 0.108101696
0.20074172 0.16329272 -1.0259935 -0.047609583 -0.13091701 -0.5370322 -0.2695822 -0.32696682
0.067107275 -0.3404053 -0.11989373 -0.2919479 0.043313097 0.03622059 0.06423075 0.114562705
-0.061863847 -0.0824807 0.1259133 -0.44476908 0.0941304 -0.09222052 -0.19262117 -0.12090206
-0.096135855 0.11988584 0.13673939 -0.19362609 -0.089322664 0.29050472 0.24134329 0.09654523
-0.067908384 0.25019985 -0.17167823 0.040333577 0.48418897 -2.215223 0.276585 -0.21641418
0.28720686 0.25339252 0.25099242 0.21946372 -0.021863593 -0.0530528 -0.23364735 -0.00081756746
0.046580117 -0.111021705 0.0446152 0.014284088 0.009268768 -0.5639984 0.30211014 -0.3716271
-0.5649961 0.63249 0.35708633 0.13556017 -0.09232509 -0.2304026 -0.34012303 -0.10898901
0.0629733 -0.080360286 -0.030671863 -0.05730348 -0.12574226 -0.10844809 0.33875245 -0.11917887
0.13354883 0.05189171 -0.11617695 0.36984098 -0.46465978 0.23238805 -0.10303364 0.59313136
0.36200356 -0.0027454288 -0.014435352 0.17970824 -0.087696105 0.18897724 -0.18941092 0.13618949
0.42308554 0.12328388 0.50922835 -0.0080959145 -0.32022002 -0.3352787 0.42640892 0.048847146
-0.07846958 0.20674787 0.06321949 0.005649643 0.060780585 0.085636586 0.11100256 -0.047075134
-0.4583669 0.11377162 0.14946975 -0.21389946 -0.07265444 -0.5824431 -0.4372059 0.29324466
-0.15376033 -0.510658 0.70153 -0.18991144 -0.11859261 0.04270384 -0.054795407 0.07101402
0.1418121 -0.25855157 -0.36680222 0.13535511 -0.37250912 -0.01222375 -0.66747785 0.4491793
-0.28426468 -0.10106747 -0.6312717 -0.077970065 0.0043070554 -0.096954964 0.24321942 0.05503762
0.0388882 -0.14261329 -0.21108402 0.1914071 0.01802271 -0.15754037 0.2218565 -0.4231036
0.26679486 -0.1658588 -0.08770388 -0.54515207 0.30340645 0.02701501 -0.14650281 0.11772297
0.17137581 -0.10580715 0.041753866 -0.50117624 0.21829258 -0.41933557 -0.39103603 -0.11379322
0.46505806 -0.72190535 -0.10402507 -0.18797551 -0.2957433 0.23463057 0.067019045 0.17917757
-0.0538421 0.09585306 -0.09867072 0.07842063 -1.6874352 -1.3639005 -0.5378536 -0.2653731
-0.34521982 -0.13629955 -0.088785075 -0.1650065 -0.037035573 -0.3208438 -0.08178904 0.15381451
-0.06131189 0.10261369 0.0047221812 0.040056966 -0.090904355 -0.827371 -0.08369255 -0.10643973
0.10488553 0.3383812 -0.09144498 -0.3608946 -0.25870118 -0.018249206 -0.19272731 0.21421054
-0.019059254 0.12258028 -0.02223731 -0.1559272 0.0964593 -0.21298064 1.4080352 0.19582686
-0.13872142 -0.082399316 0.3387205 0.08181349 0.32783228 -0.061154004 0.08004034 0.38312933
-0.41282836 0.14939983 -0.08101586 -0.060394797 -0.061232243 0.025648901 0.062866904 -0.081582814

fc1.bias f4 [256]
00000000: 5a24 9a3c b550 ce3b 349c 8f3e 71a2 213d
00000010: 814b 54be 6955 5c3e 8179 4fbd 87ae fc3d
00000020: 2416 98bd 8431 d93e 15cf 8cbe 3704 0abd
00000030: dd77 853b db09 593e 4dbb dcbd a2f9 7d3c
00000040: b2ba 9c3d df6c 3b3b def7 e8bd 6e8b 76bd
00000050: 5075 cbbd 674b d33d 3b17 443e aef3 483e
00000060: f69f 8e3d 0b3e 0a3e cff9 0cbe 9655 323d
00000070: c0b8 ef3d 7338 61be 0abe 15bc c484 2a3e
00000080: 5229 bcbc 407b 7fbd 1007 17be 1a5d a6bd
00000090: 318c 7dbd a2ed 27be 104b a33d c42c b73d
000000a0: d2c5 d23e 19de 56bc 68be 0a3e f6f3 a33d
000000b0: d2cc 15be 1ca0 89bc 9425 1a3e 7eae 843e
000000c0: 1c3d fe3d c69d 95be bf27 19be 5a13 90be
000000d0: ae96 873e 6381 1bbe 03fe d73c 3981 50be
000000e0: fb1e 0ebd 14e7 8e3d e851 673c ee5e 6e3e
000000f0: 78c5 d53d b462 14be 7ce4 b9bd aade 0a3d
00000100: 18f6 54bd f61a b2be db2f 35bd 3791 83be
00000110: 55e1 543e e0a8 293e 3a29 66bd b5e6 f8bd
00000120: 5007 51be 2fc3 623e 4faa 0a3e 18b7 33be
00000130: 0cb2 92bd 5981 c63e a173 3e3e 3f79 5cbd
00000140: 6922 49be 526e 333e ddcf 453a 9ce0 0abe
00000150: 912c 2d3e 7e53 27bd 9236 b4bd 1b91 2e3e
00000160: 3b3b 813e d355 0f3d fe82 9bbb c6fe 923e
00000170: ef89 08be c60c 11bd 3301 13bd 1514 543e
00000180: 8bb3 6f3e 5b25 ee3d b627 32be 2283 69be
00000190: a41b 833e 4084 02be 1e76 1a3e b5c4 28be
000001a0: 3a7f 9e3e 64e4 723e 7954 62bd 2664 5d3d
000001b0: e91b 28be 334b 98bc baf5 ffbd 7bb0 a33d
000001c0: 5738 883d cc86 07be e35b 8fbc d165 57bd
000001d0: 5c9b bc3e 2484 a73d 648d 54bc 3755 373e
000001e0: e057 94be a9ab 2dbe 6ffa 7bbe ee61 113e
000001f0: 10f7 25be d83b c73d 578a 2bbd dbc6 c3be
00000200: 7282 f0bd c74e 053e 838e a5bd 5e9a 263d
00000210: 087b 5dbe 2233 103d 2d2f a53e cc29 803e
00000220: ecaf 193d 00df 5f3d 3683 babe ea5e cdbd
00000230: f09c 8e3e a965 4f3d 9f47 e4bd 2e4e 933c
00000240: c427 23be 6c09 9bbd e0f8 b73c cb5c 86be
00000250: c85d b53c 6c39 47be d89e 9c3e 942a 01be
00000260: f104 e3bd 9883 7bbe e4e9 863d d5ee 4bbe
00000270: d739 81be 0919 e5bc 1309 abbd 6d46 943e
00000280: d901 a6bd b0cd c63d b2f2 49be dce0 f33d
00000290: ab20 963d 5aac 0e3e a760 34be 090f 343d
000002a0: 64a0 9f3e 9db8 8c3d 8f68 6ebd 46d5 1bbe
000002b0: dc02 bdbd 6aec 883a 3ec5 5d3e 967e c83d
000002c0: cf92 943c 525c 9f3b a425 1bbe c7de 50be
000002d0: 5e88 12bd 7143 ad3e 2d10 19be dbab 9a3e
000002e0: bbd0 60be c667 173e 07fe 45be 00b7 08be
000002f0: 6b3c a63e 8e31 3d3d 81ce 003e 4691 3abd
00000300: 9c05 72be 0dd2 65be a356 9ebc ed8b cdb9
00000310: 14dc 323d 21e1 38be 0f81 983d 37bc bc3c
00000320: a780 823d 3f62 31be d7b2 173e 0560 1fbc
00000330: 139c 8e3e bae4 49be a256 373e 106a fcbd
00000340: 866c 14be 0575 573e 27fe 83bd c220 843d
00000350: c95b 17be b291 923d d24d 153e d504 d4bd
00000360: 735b 7e3e cc50 4cbe a26e d2bd e9c4 c63e
00000370: be79 e9bd f983 0e3e 143a 53be 8288 46be
00000380: 4449 253d 0e53 243e cd59 73be 5d36 18be
00000390: f282 c83d 4e8f 28be 10ef 4abe 9818 053f
000003a0: 2831 6b3e bf7d ecbd 9ff1 79bd 7b55 14be
000003b0: 9f27 cd3c 74d2 88be d773 973d 9b83 8d3e
000003c0: 110a 89be 86b5 c8bd 54f7 e9bd daef 643e
000003d0: b8e9 1b3e 25bb 8ebd 1c4c ce3d c67e 913d
000003e0: 9e2b 21bd 42f7 ad3c 0a1f 9f3e c150 2bbd
000003f0: 69d1 d438 f90e 923d ce59 553c ab03 92bd
0.018816162 0.006296242 0.2804886 0.039461557 -0.20731927 0.21516956 -0.050652985 0.12337976
-0.07426098 0.4242059 -0.2750174 -0.033695426 0.0040731267 0.21195166 -0.10777912 0.015501412
0.07652797 0.0028598828 -0.11375402 -0.060191564 -0.09934485 0.10317116 0.19149487 0.19624206
0.06964104 0.1350023 -0.1376717 0.043538652 0.1170516 -0.2199419 -0.009139547 0.16652209
-0.022968922 -0.0623734 -0.14748788 -0.081232265 -0.061901275 -0.16399243 0.079733014 0.08944085
0.4116655 -0.013114476 0.13549197 0.08005516 -0.14628914 -0.016799979 0.15053397 0.25914377
0.124139994 -0.29221934 -0.14956568 -0.28139764 0.26482147 -0.15186076 0.02636624 -0.20361795
-0.034697514 0.069776684 0.014118649 0.232784 0.10438055 -0.14490777 -0.09076783 0.033903755
-0.051992506 -0.34786195 -0.04423509 -0.25696728 0.20789082 0.16568327 -0.05619166 -0.12153379
-0.20412946 0.22144769 0.1354153 -0.17550313 -0.07162866 0.3877056 0.18598796 -0.053826567
-0.19642033 0.17522553 0.00075459277 -0.13562244 0.16911532 -0.04085111 -0.08799471 0.17047541
0.25240502 0.034993958 -0.00474584 0.28710002 -0.13333867 -0.035412572 -0.035889816 0.20710786
0.23408334 0.11628219 -0.17397961 -0.2280393 0.25607026 -0.12745762 0.1508412 -0.16481288
0.3095644 0.23719937 -0.05525634 0.054050587 -0.16416897 -0.018590545 -0.124980405 0.07992645
0.06651371 -0.13235015 -0.01749987 -0.052587334 0.3683728 0.08179501 -0.012973163 0.179036
-0.28973293 -0.16960014 -0.24607252 0.14197513 -0.16207528 0.09728211 -0.041879978 -0.38237652
-0.117436305 0.13018332 -0.080838226 0.04067456 -0.21628964 0.035205014 0.32262555 0.25031888
0.037521288 0.05465603 -0.3642823 -0.10027869 0.2785411 0.05063406 -0.11146473 0.017981615
-0.15933138 -0.075701565 0.02245754 -0.2624267 0.022139445 -0.19455498 0.30589938 -0.12613899
-0.11084927 -0.24561918 0.0658758 -0.19915326 -0.2523944 -0.02796604 -0.0835134 0.2895998
-0.08105821 0.097072005 -0.19721487 0.11908123 0.0733045 0.13932934 -0.17614995 0.04395965
0.31177056 0.0687115 -0.058205184 -0.15218076 -0.09229061 0.0010446433 0.21657273 0.09789769
0.01813641 0.0048633004 -0.15151078 -0.20397483 -0.03577458 0.33840516 -0.14947577 0.3020924
-0.21954624 0.1478568 -0.19335185 -0.13351059 0.3246797 0.046189837 0.12578775 -0.0455487
-0.23634952 -0.2244341 -0.019328421 -0.000392049 0.043666914 -0.1805463 0.07446491 0.023038967
0.06372195 -0.17322634 0.14814316 -0.009727483 0.2785345 -0.19716159 0.17904142 -0.12324917
-0.14494523 0.21040733 -0.0644496 0.064515606 -0.14781107 0.071566954 0.14580467 -0.10352484
0.24839573 -0.19952697 -0.10275008 0.38822106 -0.114001736 0.13917531 -0.20627624 -0.19388011
0.040353075 0.16047308 -0.23764725 -0.14864488 0.09790601 -0.16460916 -0.19817758 0.5199065
0.2296797 -0.11547422 -0.061021443 -0.14485733 0.025043307 -0.26723063 0.073951416 0.2763947
-0.26765493 -0.09800248 -0.11424127 0.22357121 0.15225875 -0.06969289 0.100731105 0.07104258
-0.039348237 0.021236066 0.31078368 -0.04182506 0.000101479534 0.07131762 0.013021899 -0.07129606

fc2.weight f4 [256, 256]
00000000: cfef 9f3c 6867 6cbd 21c5 f7bc 205a 5cbc
00000010: 003c 083e 2cb8 c03d 0e5e b0bb 92d6 9cbd
00000020: c26d a6bc 49b2 113d dc26 043d af75 b2bc
00000030: 1fea 2a3d c4fc 29bc c074 903d 54f8 79bc
00000040: 7836 2abd 9470 b9bb 3117 d23c e107 8fba
00000050: 3387 333a f084 96bb c35a d43c 4270 abbb
00000060: 2d29 30bd 6952 333a 8cb5 413c 0b0b 63bd
00000070: 8d06 82bd f99b 733c ec4c 92bd ccb0 0abc
00000080: 361f 633c ec05 19bc 5dc5 88bd 9642 743c
00000090: 1f2e f33c bb32 bbbb 5de3 3cbd 2230 22bd
000000a0: 0f28 10bd 66b7 50bb 69dc 7cbc be11 c23c
000000b0: 9b9b 363d e5af a53c f5af 343d 43c9 8fbc
000000c0: f48f 8b3c bb16 443d 1b3f 83bb 63a0 0a3d
000000d0: 575b 46bd e780 1ebd 9987 1cbd 9861 d1bb
000000e0: 615a b9bc 558f 743d 5ae5 e0bc 9815 04bd
000000f0: fab7 26bc e0ce d63c e76f 83bd 159b 84bc
00000100: e892 a8bd d5d8 31bd 6e70 c039 d463 9dbc
00000110: c1c7 2e3d 9970 89bd b3db 80bd fe9a 91bd
00000120: 8928 563d c19c e93c fb58 393c 9239 8fbd
00000130: 4ee9 643d 7eb2 953a 18c3 80bc 1c3a 643d
00000140: f93c 683d e143 c639 5b32 8abc 6615 38bd
00000150: a59d 343d 5aa6 2a3c 2912 3e3d 8a4e 543c
00000160: 9015 5f3a 8ddb 6b3d 09f9 75bd 5e7d aebc
00000170: bc18 393d cc8c 09bc 0cf2 3b3d 3800 913d
00000180: 3f25 2f3d 74eb 34bd 6f1e 1b3d f228 943d
00000190: fda0 a73d 0aef b83b 2146 64bc 8193 ad3c
000001a0: 0979 b2bc 82d2 1b3c 2911 563c 2472 90bc
000001b0: 2e4f ff3c 9bf9 143d 47b5 82bc e326 9b3d
000001c0: dfad f63c edbf 68bd 4076 28bb 434d 423d
000001d0: aeda 373d e478 3dbd e729 85bd 07b0 d73b
000001e0: 2006 5bbc 6aac f6bc fbdc 4abd 6d1a 1c3d
000001f0: 6266 bb3c 6fa6 223d 4e5c 3a3c e037 323d
00000200: c047 7c3d 04ce be3c b47e 4d3c 9e03 483d
00000210: 9f6a 83bc b529 213d 9627 debc ec02 6dbd
00000220: b753 9c3c 2f9b 6a3c 1eb2 803d f314 9a3a
00000230: 9011 8c3c 9083 29bd 987d 4e3d f772 803d
00000240: 4ffb 1bbd 39e7 c93c ff29 82bd b23b 8abd
00000250: 64c9 733d c744 10bd 5b9d 10bd 3dfc 63bd
00000260: f3ea 113d ed0a 773d e9a9 91bc 7296 333d
00000270: 68c2 883d 32dd ebba da75 2e3c a5b4 44bd
00000280: 03c9 8cbd 6317 44bb 597e 73bc 0416 f2bc
00000290: 9095 d1bc b0c6 803b 0caa 3a3c 93a5 8cbc
000002a0: c58f 433c ffd9 5e39 6c06 05bd cd13 eebb
000002b0: 2acb 4339 6f3d 97bd 8a1a fe3c fbc9 b6bc
000002c0: 7559 38bd f225 cd3c 17d0 b4bd eafc 243c
000002d0: 56a9 783d e0c1 1a3d ae33 2bbd bb95 5a3d
000002e0: 0a0a c23b 1afe 1c3d 4172 343c fc02 533c
000002f0: b6d3 f0bc 9010 263d a2de 583c c81c e8bb
00000300: 4b26 e2bc 45da 543c 21a0 e83c 231a 5c3d
00000310: 9444 2ebd 075b 72bd 47ee cd3c 51f6 ffbb
00000320: 44be 953d 0751 c13c c9b3 41bc 3d1c 673b
00000330: 193a 8c3d 615b fdbc 8477 5ebd ef0d d4bc
00000340: 1c56 603d 4ddf fcbc 22d1 2b3c c370 d93c
00000350: 77d8 863d cd8f 453d f77e 24bd 06b8 093d
00000360: fa35 793d e202 a0bc 4afb 39bc 718a d63b
00000370: 2fbc 173d 6deb 863c 5e5f 8d3d ee71 0f3c
00000380: 5737 a0bc 77a1 39bd f85e 25bd 9d0b 09bc
00000390: e638 053b 54d2 17bd c40e aebc 61f0 513d
000003a0: 5c7c b13c 293f 1abd 175e f5bc 1e5a 663c
000003b0: 50fd 51bd f3b6 1e3d efa5 833d 34ee f83b
000003c0: 8c77 22bb fc48 343d 2d23 a8bc c5a1 513d
000003d0: a301 ecbd a64d 713c 64ec c2bc a5dc 193c
000003e0: f6c1 ebbd 7d69 8c3c 9fef 5c3d a41c 093d
000003f0: 19dc d7bc b224 3bbd 223e 673d 6088 9a3d
0.01952353 -0.057715803 -0.030245366 -0.013449222 0.13304138 0.09410128 -0.005382306 -0.076581135
-0.020316008 0.035570417 0.03226362 -0.021784632 0.04172718 -0.010375205 0.07053518 -0.01525696
-0.04155585 -0.0056591723 0.025645824 -0.0010912382 0.00068484544 -0.004593484 0.025922185 -0.005231888
-0.04300802 0.0006840588 0.011823069 -0.055430453 -0.06348906 0.01486873 -0.07143578 -0.008465003
0.013862422 -0.009339791 -0.06678269 0.014908453 0.029685078 -0.0057128347 -0.046115268 -0.039596684
-0.035194453 -0.0031847595 -0.015433409 0.0236901 0.04458199 0.020225475 0.04411312 -0.017552024
0.017036416 0.04787324 -0.0040053255 0.033844363 -0.048426952 -0.03869715 -0.038215254 -0.006389808
-0.022626104 0.059707005 -0.027453113 -0.032247156 -0.010175699 0.026221693 -0.06417828 -0.01618723
-0.08231145 -0.043419678 0.0003670486 -0.01921264 0.04267097 -0.067109294 -0.06291904 -0.071096405
0.05228475 0.028517129 0.0113127185 -0.069934025 0.05588656 0.0011420993 -0.015718028 0.05571948
0.056698773 0.00037816077 -0.016869714 -0.044942282 0.044095654 0.010415638 0.046404038 0.012958178
0.0008509988 0.057582427 -0.06005195 -0.021300014 0.045189604 -0.008395385 0.04588513 0.0708012
0.04276013 -0.044169858 0.03787082 0.07234372 0.08185003 0.00564373 -0.013932736 0.0211885
-0.02178623 0.009510638 0.013065615 -0.017632551 0.031165686 0.036370855 -0.01595558 0.075757764
0.030112205 -0.05682366 -0.0025705248 0.047436964 0.044886284 -0.04625787 -0.06502133 0.0065822634
-0.0133681595 -0.03011151 -0.04952715 0.03811114 0.022875968 0.039709505 0.011374546 0.043510318
0.061591864 0.023291595 0.012542415 0.048831575 -0.016042052 0.039346416 -0.027118485 -0.057864115
0.019082887 0.014319225 0.06283973 0.0011755511 0.017098218 -0.041385233 0.050412744 0.06271928
-0.038081463 0.024646388 -0.06355666 -0.06749667 0.059518233 -0.03522184 -0.035306316 -0.055660475
0.035624456 0.060313154 -0.017781215 0.043844648 0.06677705 -0.0017994998 0.010648215 -0.04802384
-0.068742774 -0.0029921166 -0.014861667 -0.029551513 -0.025584012 0.0039299354 0.011393081 -0.017168796
0.011936133 0.0002125278 -0.032476828 -0.007265544 0.00018672334 -0.073847644 0.031018514 -0.022313109
-0.045007188 0.025042508 -0.088287525 0.010070065 0.060708366 0.03778255 -0.041797332 0.05336545
0.005921607 0.038328268 0.011013568 0.0128791295 -0.029397827 0.04054314 0.013236674 -0.007083509
-0.02760615 0.012991493 0.028396668 0.053735863 -0.04254587 -0.05916884 0.025138034 -0.0078113456
0.07311681 0.023598207 -0.011822649 0.0035264634 0.06847019 -0.030927362 -0.054313198 -0.02588555
0.05476962 -0.030868197 0.010486873 0.026543027 0.06584256 0.048232842 -0.040160146 0.033622764
0.06084249 -0.019532625 -0.011351416 0.006547265 0.0370447 0.016469682 0.069029555 0.00875519
-0.019557638 -0.04532 -0.040373772 -0.008364585 0.0020328104 -0.03706582 -0.021247275 0.051254634
0.021665744 -0.03765789 -0.029952092 0.014059572 -0.05126697 0.038748693 0.06428134 0.0075967554
-0.0024790494 0.044014916 -0.020524586 0.051179666 -0.1152375 0.0147279855 -0.02379436 0.009390985
-0.115116045 0.017140144 0.053939458 0.03347458 -0.026350068 -0.045689292 0.05645574 0.07545543

fc2.bias f4 [256]
00000000: cbfe 623c b9e3 5dbd d723 c13c 79dd f1bc
00000010: dda4 bbbd dd33 1c3e caf6 2cbd 8f04 843e
00000020: eaf0 81bd 6309 3e3d ee8f 9bbd f5e0 b4bd
00000030: b3bc 573d 8943 d53c 6804 e6bc ef35 d6ba
00000040: 76ed 34bc e434 103d 4d86 7fbc ed34 bf3c
00000050: 4fa0 4e3d 27bf b63d 5ca8 92bc 8bbb 3a3d
00000060: a580 d8bd 3405 4abd 2e7d 10bd 4796 143d
00000070: 0bf7 4e3d f732 a3bd 03ae 823c d689 0b3c
00000080: 6d1d c7bd f97b 7ebd 3305 c4bc 0fee 913d
00000090: 762e eabd 649b 89bc 5480 57bd 152c 873d
000000a0: a714 883d e741 31bd aba1 a4bd ad48 343d
000000b0: 754f 503d ea83 823c ca6d 60bd 0c07 0cbe
000000c0: 90d4 353d 8112 03bd 7932 5abc cbac 833d
000000d0: 48e4 e3bd 945b 9abd 007b fdbc 6862 abbc
000000e0: e666 8e3d 7f96 a13d 6447 babc e934 913d
000000f0: fc58 0c3e b1c3 8f3b 0d16 2a3b 90e9 d73d
00000100: 0363 d43c eb72 ddbd 1def d0bd faf1 873e
00000110: dcbd 083d 6ec7 a4bd 08e9 2a3d d51c 963c
00000120: d0d2 eabd bfce 00be 4d2a a6bd d55f 153d
00000130: dbb0 04bc 8d85 7bbd db18 bb3c 1ec6 8dbd
00000140: 4210 41bd 9ee1 86bd 1a27 5b3e 6cb8 b3bd
00000150: 4ce6 653d 69ee ffbd 605f 893d e61a c2bd
00000160: 04bb 85bd 03f6 893d f641 76bc 434d 7e3c
00000170: 74b9 1d3d 78e4 243c 7bd4 443c 3ef8 09bd
00000180: 5e1e cbbb 4f1d a6bc 7bf7 87bc 7b40 a73d
00000190: e63a 91bd 6812 323d 54f9 193e 6b38 793d
000001a0: 9467 843d 3005 3b3d 3f52 993d 89a1 44b8
000001b0: 6b83 da3b 165b f5bb 872f dfbd 375d 93bd
000001c0: 80e1 943d 0713 33bd c3fc b43c 0a4c abbd
000001d0: f092 0abc 29ab 8bbd ecc7 74bd 286d 47bd
000001e0: 2b5b 903c 56a9 0ebd cb71 f6bd 1cb8 2fbd
000001f0: 4008 9abc 69ae 6fba 7e53 033e e4dd 683d
00000200: 193e 9e3d 3ee8 773d 6a38 a13d 0b8d ae3d
00000210: defb 103d 0626 833d 4fcd e23b 68b0 703a
00000220: eff5 b53d c6c8 803b 2677 15bd b79f 31bd
00000230: a921 3e3d df25 63bd 7a7e 82bc 2480 b8bd
00000240: a0ec cfbb f2dd 1a3e 3364 e93d fe65 003d
00000250: 6ff6 e3bc 9866 9fbd c16d b53d 0c6a 013e
00000260: d2ce 1fbe ddd8 b33d 17d7 dcbd 79e4 e7bc
00000270: d2d3 08be ecca 95bc d577 16bd 410f c8bc
00000280: 64c8 623d 20ef 743d dd8d bebd 062d 45bc
00000290: e819 c6ba b08d e0bb 443d ce3c 0d38 843d
000002a0: 6cda 013d ed35 b53c aa0c 35bd 497f 853d
000002b0: fab9 cf3c 42c8 7bbc c990 ba3d a54b b0bc
000002c0: 4081 adbd 8893 7c3d 8fba d93d 106c 3ebc
000002d0: f5bc a7bd 9447 0d3d 363f adbd 886e 74bc
000002e0: 0c73 1a3c 47a2 1b3d 1281 973d 8edc 153d
000002f0: 0a64 cbbc 8f63 523d 0ed3 9e3c 8667 8c3d
00000300: 3a48 67bd 9d0a 1fbd 19d1 ee3d e0ba b8bc
00000310: ea6d b03d 3bd1 bb3d 7ae0 e1bc 5662 e8bc
00000320: f176 933d fd55 863d 2bd8 6bbd 5206 58bc
00000330: 4ebf 64bc 20c3 08bd c666 233c 6613 9bbd
00000340: d0b8 9fbc d82b 1cbb 576d b5bd 0531 ce3a
00000350: 43ce 75bd c09f cfbd 943f fdbc 69a9 e3bd
00000360: b9eb a53b 6c01 993c 84c2 e7bc 61b8 40bd
00000370: a0be af3d 06c3 8a3d 313a c0bd a8dc 383d
00000380: e7f2 453d 334c 2a3e 0460 d43c 5064 00be
00000390: d230 ad3d 88a5 00be 1691 a4bd 5b68 983b
000003a0: 1bdb 3e3d d005 133d 1635 cf3d 416e 56bc
000003b0: c415 e33d ce54 323d 9032 6b3d 97de 5cbd
000003c0: 46f3 80bc 387f 2a3d 78c1 26bd b801 c0bd
000003d0: aa33 c6bc 4c76 09bd 71f3 18be 1b2d d7bc
000003e0: 32ac 95bb d584 88bb f9d2 1fbd 8f61 c33c
000003f0: f320 7fbc 4067 a4bd 5d5d fabd ccec a4bc
0.013854693 -0.05417225 0.02357666 -0.029524552 -0.091623046 0.1525416 -0.042227544 0.25784728
-0.06344779 0.04639567 -0.07595812 -0.0883197 0.052670192 0.02603318 -0.028078273 -0.0016342978
-0.011042943 0.03520669 -0.015595985 0.023340667 0.05044585 0.08923178 -0.017902546 0.04558901
-0.10571412 -0.04932137 -0.03527563 0.03627613 0.050528567 -0.07968705 0.015952116 0.008516749
-0.097224094 -0.06212995 -0.02392826 0.07125484 -0.11434643 -0.016797729 -0.052612618 0.06600205
0.06644564 -0.04327574 -0.08038648 0.04401462 0.050857026 0.015932042 -0.054792203 -0.13674563
0.04439217 -0.03200007 -0.013317698 0.06429442 -0.111275256 -0.075369984 -0.03094244 -0.020920947
0.0695322 0.07890033 -0.02273912 0.0709017 0.1370582 0.004387342 0.0025953085 0.105425954
0.025926119 -0.108129345 -0.10201857 0.265518 0.03338419 -0.08045851 0.041726142 0.018324295
-0.114659905 -0.12578867 -0.08113537 0.036468346 -0.008098806 -0.06140666 0.022839 -0.069225535
-0.047134645 -0.06586002 0.21401635 -0.0877541 0.05612783 -0.12496645 0.067076445 -0.09477787
-0.06529811 0.06736376 -0.015030375 0.01552135 0.03850694 0.010064237 0.01201355 -0.033684008
-0.0061986884 -0.020277647 -0.0165975 0.081665955 -0.07091312 0.043474585 0.15036517 0.06084482
0.064650685 0.045659244 0.0748639 -4.6880483e-05 0.0066684983 -0.007487665 -0.10897737 -0.07195514
0.07269573 -0.043719318 0.022093182 -0.08364113 -0.008457884 -0.068197556 -0.059760973 -0.048688084
0.017621597 -0.03482946 -0.12033423 -0.04290019 -0.018802762 -0.00091431156 0.12824818 0.056852236
0.07726688 0.060524218 0.07872088 0.085229956 0.03539645 0.06403737 0.0069214473 0.000918156
0.08884799 0.003930184 -0.036490582 -0.043365207 0.04641882 -0.05545604 -0.01592945 -0.09008816
-0.0063453466 0.15123728 0.113960646 0.031347267 -0.02782747 -0.0778324 0.088588245 0.1263811
-0.1560624 0.08781598 -0.10783213 -0.028307186 -0.13362053 -0.018285237 -0.036735374 -0.024421336
0.05536689 0.05979836 -0.09304402 -0.01203466 -0.0015113922 -0.006852828 0.025175698 0.06456003
0.031702444 0.02212044 -0.04420153 0.06518418 0.025357235 -0.015367569 0.09109647 -0.021520445
-0.08471918 0.061664134 0.10631286 -0.011622444 -0.081903376 0.03449209 -0.08459322 -0.014918931
0.009426843 0.037996557 0.07397665 0.03658729 -0.024827976 0.051364478 0.019387748 0.06855683
-0.056465365 -0.03882848 0.11660976 -0.022550046 0.086147144 0.09170767 -0.02757286 -0.028367203
0.07200421 0.0655937 -0.0575792 -0.013185101 -0.013961626 -0.03338921 0.009973234 -0.07572059
-0.019497305 -0.0023829844 -0.088587455 0.0015731162 -0.06001116 -0.10137892 -0.030914105 -0.11116297
0.0050635007 0.018677436 -0.028290994 -0.047050837 0.08581281 0.06775479 -0.09386099 0.04513231
0.048327353 0.1663063 0.02592469 -0.12538266 0.08456577 -0.12563145 -0.080354854 0.004651112
0.046595674 0.035894215 0.10117547 -0.01308781 0.11088136 0.043537907 0.057421267 -0.053923216
-0.015741002 0.04162523 -0.04071185 -0.09375328 -0.024194557 -0.033560082 -0.14936616 -0.026266625
-0.0045676464 -0.0041662254 -0.03901956 0.02385023 -0.015571821 -0.08027506 -0.12224839 -0.020132445

fc3.weight f4 [6, 256]
00000000: e459 33bd e0bc 6c3d dfc1 0ebe a680 633c
00000010: 35e5 c03d 4462 bf3d 5272 4bbd 2674 f6bc
00000020: d4f5 f1bc 9d47 21bb f226 6d3d b6b7 28bd
00000030: e698 42bb 7619 6eba e060 68bd 5e90 5a3d
00000040: 24b7 17bd cf2f a4bb fd7c a3bc 9196 6dbc
00000050: ffc6 fb3c 8b3c bfb9 e39c eabc 34fe 4ebc
00000060: 8b14 023d f34b 99bd 4cbb 95bb 1c5b 42bd
00000070: b460 2fbc 4206 ae3c 2fc8 393a e7b2 43be
00000080: 8d43 1bbd 0497 003e de9e bc3c 3a0a a0bd
00000090: 24b1 ce3c f9c1 c2bc 874d 323d ece1 32be
000000a0: c465 a1bc 350c 183d 4c01 053d 5614 97bc
000000b0: d547 0a3e cce5 ffbc 8c3a f13c 32ee 62bc
000000c0: d8ab ba3d a390 fdbb f4ab ec3c af23 9e3d
000000d0: d10c 21bc 2a60 993d d958 3b3d f499 a7bc
000000e0: 36c1 143d 130e 93be 2677 993d 6715 6f3d
000000f0: 23d6 47bd 4855 093d 6a92 59be 3b75 df39
00000100: 1301 95bc 71d8 bfbd ffd0 4b3d 290d 84be
00000110: e760 3b3d 6803 0ebd 5a29 2f3b 1661 6abd
00000120: f730 913d 8674 bdbd ab1c f4bc 82ad 043d
00000130: d87e 323c be45 953d 5bc7 aebd f17c 1d3d
00000140: 3420 663d 9ca3 f63c 438b 83be 81b9 ddbc
00000150: e72f f6bd 773e a63d c49d 5a3b 94e9 99bd
00000160: d8d1 cf3d 1ae9 f6bc 6ab3 3abd 6ff0 5e3c
00000170: aeb9 08bb 0155 db3c efb1 243b cf27 00bc
00000180: da1c 2a3d 4d1e ab3d 43cd 553e 8fd5 a0bc
00000190: 29ce 53bd 10a0 c5bc a75d ed3d 3055 543c
000001a0: 362f 63bd 4f30 05bd 79c0 8e3d 8ae1 323d
000001b0: 0ca5 f23b aa11 09bd bbe6 89bd e078 c03d
000001c0: d9f2 d4bd b347 703d 4646 8abd b40f 953c
000001d0: b329 77bc 963d b4bc 4531 4d3d 66b6 ce3d
000001e0: be7c edbc c717 93bc 2a46 0d3d d23d 58bd
000001f0: 5f50 86bd e7f8 153d 1721 b5bd e042 29bd
00000200: 63dc bf3c 7163 843d b58a 98bc ae6a 1ebc
00000210: e6f5 3e3d 26c4 893d 5aa8 233c 2b8a 56be
00000220: 9419 79bc 5a4f 093e ee8b 5c3d 993d 5b3d
00000230: efe2 89bc 96dc 793c e326 3cba a813 a7bc
00000240: 155d afbc 9862 3c3d 2b1d 1b3e eea2 9ebd
00000250: 4f96 0a3d 03f6 2c3d e10d 4abd e150 bebd
00000260: e403 0abd 51ef 76bd 5003 b0bd 6129 f7bc
00000270: 341a 473d c890 fa3d 2229 13bc 5886 31bd
00000280: 8c92 643d 9cd5 1bbc 024a 733d 8fa3 6d3b
00000290: a90a f0bc 27c8 4d3c 0ca5 0d3d ea2e dcbd
000002a0: ab3a 1a3c 29e7 3d3d df1d ecbc 7118 91bd
000002b0: 4472 973d 5671 123e afa3 c5bc ef23 7abd
000002c0: ae00 3ebd 8022 18be c830 52bd bd7d cebd
000002d0: 1162 32bc a860 3dbd 489a f93d b5dc 6a3d
000002e0: b67a 2d3d 3b4c 5cbd 1ca6 c23b 04d7 6dbc
000002f0: 68f1 9ebc e32c 1cbb 4551 173d e2ce f73b
00000300: d235 9638 7663 b83d 2482 d4bd 1610 f83b
00000310: 0992 923c f40b f3bd fdf8 a53d cf5c 73bc
00000320: 65c1 b3bb 27b1 90bc 3808 e2bd af69 323d
00000330: 4e92 b23c da9f 9bbd cdee 933d 94b6 e8bc
00000340: ec0e 933c a50b 9ebd d947 203e 83bd cc3d
00000350: c362 683d 448c d6bc 1909 dc3d 8170 9f3b
00000360: 9393 243d 3dda eb3c 263b f6bb 2a39 27bd
00000370: e2ae 933d 9c3c 133c 8ed7 a0bd 6202 c2bc
00000380: 351f 513e 6f86 243e 3985 b8bc 53f8 f13b
00000390: a32e 7dbc 6ebb d43b cce7 1c3d c337 1abc
000003a0: fcc7 c93d a09b a4bc deea cdbd 2416 7f3d
000003b0: a23d 34bd eb79 86bc 717c 90bd 71b9 073e
000003c0: 246e 0d3d c625 adbb 7b52 873d 4208 38bd
000003d0: 0541 603d 9654 50bc a75e e0bb 6a2d 9cbc
000003e0: 55ee fe3b 2d52 313d 0651 f23d 98df a2bd
000003f0: af0d 6abb c971 40bd 5b8b 94bc 86c0 563d
-0.0437869 0.057797313 -0.13941143 0.013885653 0.09418718 0.093449146 -0.04966957 -0.03008468
-0.029536165 -0.0024609335 0.05789847 -0.041190825 -0.0029693185 -0.00090827735 -0.056733012 0.053360336
-0.03703989 -0.005010582 -0.01995706 -0.01450123 0.030734537 -0.00036475467 -0.028639263 -0.012633849
0.031757873 -0.07485189 -0.0045694467 -0.04745017 -0.010704208 0.021243218 0.00070870196 -0.19111215
-0.03790622 0.12557608 0.023024973 -0.078144506 0.025230952 -0.023774134 0.043530967 -0.17468995
-0.019701846 0.037121017 0.03247194 -0.018442314 0.13503964 -0.031237505 0.029446863 -0.0138507355
0.09114808 -0.0077381893 0.028890587 0.0772165 -0.009829716 0.07489045 0.04573903 -0.020459153
0.036317073 -0.28721675 0.07493429 0.05837002 -0.0487882 0.033528596 -0.21247259 0.00042621218
-0.018188989 -0.09367455 0.04975986 -0.2579129 0.04574671 -0.034671217 0.0026727528 -0.057221495
0.070894174 -0.09250741 -0.029798826 0.032392032 0.0108945 0.07288693 -0.08534118 0.03844923
0.056183055 0.030107312 -0.25692186 -0.027065994 -0.120208554 0.08117383 0.0033358196 -0.075152546
0.101474464 -0.030140448 -0.04558126 0.0136071285 -0.0020862627 0.026773931 0.002513047 -0.007821991
0.04153142 0.08355389 0.20879082 -0.019633083 -0.05171028 -0.024124175 0.115901284 0.012959763
-0.055464946 -0.032516774 0.06970305 0.043672122 0.007404929 -0.03346411 -0.067334615 0.09398055
-0.10397882 0.058662128 -0.06751685 0.018195964 -0.015085625 -0.022002023 0.050095815 0.100933835
-0.028990146 -0.017955674 0.03449074 -0.05279333 -0.06558298 0.036614325 -0.08844202 -0.041323543
0.023420518 0.064642794 -0.018620828 -0.009668989 0.046621226 0.067268655 0.009988869 -0.20951144
-0.015203852 0.13409176 0.053844385 0.05352554 -0.016831843 0.015250346 -0.00071774254 -0.020395115
-0.02140669 0.045992464 0.15147845 -0.0774592 0.03383475 0.042226803 -0.049329642 -0.0929277
-0.033695117 -0.060286824 -0.08594382 -0.030171098 0.048608974 0.12234646 -0.008981975 -0.04334101
0.05580382 -0.009511378 0.05939675 0.0036260819 -0.029301958 0.012559927 0.03458123 -0.10751136
0.009413402 0.04636303 -0.028822837 -0.0708474 0.07394841 0.14301047 -0.024125902 -0.061069425
-0.046387367 -0.1485691 -0.051316053 -0.100825764 -0.010887639 -0.046234757 0.1218763 0.05733939
0.042353354 -0.053783637 0.005940212 -0.014516596 -0.01940222 -0.0023830466 0.03694274 0.007562504
7.162582e-05 0.09003346 -0.10376385 0.007570277 0.0178919 -0.11867514 0.08104131 -0.01485367
-0.005485701 -0.017662598 -0.11036724 0.04355782 0.02179828 -0.07598849 0.07223282 -0.028407373
0.017951451 -0.07717065 0.15652408 0.09997084 0.05673481 -0.02618993 0.10743923 0.0048657064
0.0401798 0.028790588 -0.0075143753 -0.040826 0.072110906 0.008986618 -0.07853614 -0.023682777
0.20422061 0.16066907 -0.022524463 0.007384339 -0.015453014 0.00649207 0.038306996 -0.009412709
0.09852597 -0.020093739 -0.10054563 0.062276974 -0.04400409 -0.016415557 -0.07054985 0.13254334
0.034528866 -0.005284044 0.06607529 -0.04492975 0.054749507 -0.012715479 -0.006847221 -0.019064624
0.0077798762 0.04329126 0.1183186 -0.079528034 -0.0035713722 -0.046983514 -0.018132856 0.0524297

fc3.bias f4 [6]
00000000: 073e 6abc e9d3 89bd c87d 1f3d 96a1 833d
00000010: 2ee5 d33b 2ddb 3d3d
-0.014297015 -0.06729872 0.038938314 0.064273044 0.0064665293 0.0463516
