model_save/bc/bc_policy20.pt (torch, 289751 bytes, 6 tensors)

fc1.weight f4 [256, 17]
000000 ad 96 30 3d 13 31 7b 3e fa 2b c7 3e c5 36 39 3f
       0.043112446 0.24530439 0.3890074 0.72349197
000010 95 ce 38 3e 05 b6 0f 3c e9 4b 30 bf ea a1 71 be
       0.18047555 0.008771424 -0.6886583 -0.23596922
000020 4c 9b af be 98 6d c1 3e 80 21 b0 3e a8 73 23 3e
       -0.3429817 0.37778926 0.34400558 0.15962088
000030 c2 6f 51 3e ed c5 dc 3d 53 04 30 be 2b 1f 34 be
       0.20452788 0.10779939 -0.1718915 -0.17590015
000040 9f 11 cc 3d 91 f7 00 c0 09 5a 07 be 19 c0 2e 3e
       0.099642985 -2.0151103 -0.1321794 0.17065467
000050 8e 4b 60 3e 00 a9 e1 bd c8 63 e8 bd 16 3c 03 3d
       0.21903822 -0.11018562 -0.11347157 0.032039724
000060 21 30 f1 be 94 68 c6 3b 78 57 15 bf 9a f2 8f 3e
       -0.47107032 0.006054947 -0.5833659 0.28114778
000070 62 04 aa 3d 33 04 dc 3d 5e 86 8d bc 4a 1e c2 3d
       0.08301617 0.107429884 -0.017275985 0.094784334
000080 d1 8b 33 3e 52 04 0b 3e 26 93 d8 bf f8 a6 4c be
       0.17533804 0.13575867 -1.6919906 -0.19985569
000090 b6 f4 83 be 7d 29 1a bf 1c 50 ae be 00 be c3 be
       -0.25772637 -0.60219556 -0.34045494 -0.38230896
0000a0 e8 4a 67 39 87 66 ee be b8 5f df bd e0 6c 76 be
       0.00022057781 -0.46562597 -0.10906929 -0.2406497
0000b0 7d ab 2a 3d 63 68 0b 3d a0 90 36 3d 70 be c5 3d
       0.04166745 0.034035098 0.04457152 0.09655464
0000c0 80 6e 55 bd 2a 34 8f bd da 8c c8 3d 76 ab 1a bf
       -0.052107334 -0.069923714 0.0979249 -0.6041788
0000d0 10 15 2c bb 0c b1 1b bd 9b 44 60 be 80 5b 0e be
       -0.0026257671 -0.038010642 -0.21901171 -0.13902092
0000e0 a7 b1 ee bd 1b 2d f2 3d 5f 01 e0 3d f5 45 4a be
       -0.11654978 0.118250094 0.109377615 -0.19753249
0000f0 ac 79 12 be 84 06 88 3e 52 f2 76 3e f8 e0 eb 3d
       -0.14304227 0.2656747 0.24115875 0.11517519
000100 cf b3 a1 bd e6 25 83 3e 54 71 02 be 66 62 84 3c
       -0.07895624 0.25614852 -0.12738544 0.016160201
000110 39 17 0d 3f 1f 5a 25 c0 51 75 8b 3e 52 48 84 be
       0.5511356 -2.5836256 0.27237943 -0.25836426
000120 0d d2 97 3e 04 6a 9a 3e 1b 61 6d 3e 24 0b 68 3e
       0.29652444 0.30159009 0.23181574 0.226605
000130 aa 72 6b bc e3 56 6f bd b3 5c 56 be e5 a4 d1 bb
       -0.0143706 -0.05843247 -0.209338 -0.006397831
000140 86 28 1a 3d 1c 46 b1 bd 92 c3 3c 3d 66 ca 45 3c
       0.037636302 -0.086559504 0.046084948 0.012072181
000150 eb 86 8b 3c db e3 7e bf 9e 00 db 3e 02 bd f1 be
       0.017032107 -0.9956643 0.42773908 -0.47214514
000160 2c af 41 bf 37 f6 6d 3f 51 c9 12 3f 12 89 3d 3e
       -0.75657916 0.9295382 0.57338434 0.1850932
000170 c0 06 a8 bd 4d 9e 60 be 85 d5 f2 be 22 cd 1f be
       -0.082044125 -0.21935387 -0.47428527 -0.15605596
000180 2c ef 5c 3d 25 cb 7d bd 28 94 a1 bc aa 76 7d bd
       0.05393903 -0.06196131 -0.019723967 -0.061880745
000190 92 8a 9b bd bb 39 74 bd 43 7d 2e 3f 41 e0 2f be
       -0.075947896 -0.05962537 0.68159884 -0.1717539
0001a0 27 f8 89 3e fa e3 df 3c 4f c9 6f be 42 71 c0 3e
       0.26947138 0.027330387 -0.23416637 0.3758641
0001b0 34 d9 12 bf b7 0d b0 3e af 28 b4 bd d5 d7 37 3f
       -0.57362676 0.34385464 -0.08796822 0.7181371
0001c0 b2 90 da 3e 47 36 4c bb 5c 13 c5 bc 7d 40 21 3e
       0.4268852 -0.0031160282 -0.024057083 0.15747257
0001d0 33 ff 9e bd f3 e0 44 3e 3c a3 16 be 5f 57 81 3e
       -0.07763519 0.19226436 -0.14710706 0.2526197
0001e0 de 4f e7 3e ae a8 5c 3e a2 02 11 3f 82 da e5 3c
       0.4517812 0.21548721 0.5664464 0.028058294
0001f0 65 b3 b9 be 5e 54 c9 be 0d ec 03 3f 3c e3 0f 3d
       -0.3626968 -0.3932218 0.5153206 0.035128817
000200 7c 2d b3 bd 1b 6c 55 3e 0e ed 88 3d 05 2d ed 3a
       -0.0874891 0.2084202 0.066858396 0.0018095082
000210 c9 e8 81 3d b1 52 9e 3d e2 4e ad 3d 26 5d 1b bd
       0.06343228 0.07730616 0.08462311 -0.03793063
000220 54 ed 70 bf 43 02 12 3e f1 ad 3f 3e 9e 11 97 be
       -0.94112134 0.14258675 0.18718697 -0.29505628
000230 88 b3 df bd b9 58 4b bf 2f dd 12 bf c7 22 dd 3e
       -0.10922915 -0.79432255 -0.5736875 0.43190596
000240 a4 c6 1f be 29 31 fd be 47 dc 46 3f d9 0d 32 be
       -0.15603119 -0.4945157 0.77679867 -0.17388095
000250 6b cb c0 bd a6 09 69 3d c0 7d 17 bd 97 42 80 3d
       -0.09413799 0.056893967 -0.03698516 0.06262701
000260 6a a5 cf 3d c9 92 1f bf d6 c1 12 bf 77 29 16 3d
       0.10138972 -0.6233335 -0.5732702 0.036660638
000270 7a 65 c7 be 1b 6b c8 bd 21 40 4f bf a6 00 dd 3e
       -0.38944608 -0.09786054 -0.8095723 0.43164557
000280 84 f8 b7 be 72 04 e4 bd 0b e9 31 bf c1 31 82 bd
       -0.3593179 -0.111336604 -0.6949622 -0.06357146
000290 85 b2 ce 3b 88 f7 94 bd cd b6 4b 3e 3c ff 6a 3d
       0.0063079023 -0.07273775 0.19893952 0.057372317
0002a0 e5 96 25 3d 50 96 e8 bd e3 10 a6 be c7 65 1e 3e
       0.040427107 -0.11356795 -0.3243476 0.15468512
0002b0 ee 25 5a 3c 69 ac 0c be 1b 06 83 3e 7c 30 f2 be
       0.013314707 -0.13737644 0.25590596 -0.47302616
0002c0 3a 8b 66 3e 8e c1 8d be 23 a3 cd bd e4 c5 20 bf
       0.22514048 -0.27686733 -0.100408815 -0.6280196
0002d0 a4 5f a5 3e d9 0b 1e 3d ac ae 02 be 84 d7 d2 3d
       0.3229953 0.038585518 -0.12761945 0.102950126
0002e0 ab 68 32 3e d6 bd a7 bd b6 16 aa 3c 43 20 2b bf
       0.1742274 -0.08190505 0.020762783 -0.668461
0002f0 fd 46 86 3e 64 ea d1 be 9b e3 e8 be 3f 92 4c be
       0.26226035 -0.40999138 -0.4548615 -0.19977663
000300 fb b9 e7 3e cb 10 76 bf 1e 9b 50 be 70 1c 40 be
       0.4525908 -0.96119374 -0.20371673 -0.18760848
000310 10 ad d1 be 44 fd 80 3e 82 f8 6b 3d c9 dc 37 3e
       -0.4095235 0.25193226 0.057610042 0.17955317
000320 08 8d 97 bd af 51 a4 3d 33 c5 93 bd b1 3a 13 3d
       -0.073999465 0.080233924 -0.07215347 0.035944644
000330 df d2 15 c0 0d 29 e7 bf 6d fb 17 bf 36 cd 97 be
       -2.3409956 -1.8059403 -0.5936802 -0.2964875
000340 85 ba a8 be b2 f8 43 be 54 ca b5 bd ae e8 50 be
       -0.32954803 -0.19137838 -0.08876482 -0.2040126
000350 d2 79 be bc 80 fe 83 be 00 81 a6 bd 89 c8 20 3e
       -0.023251448 -0.25780106 -0.081300735 0.15701498
000360 77 cf 7a bd 0b 7d 81 3d d9 6d e1 3a c3 84 ef 3c
       -0.06123301 0.06322678 0.0017198875 0.02923811
000370 16 46 5e bd ab c2 9a bf 67 e5 ba bd ec dc 4d be
       -0.054266058 -1.2090658 -0.09125786 -0.20103806
000380 9a 79 99 3d cc 68 e1 3e d9 00 26 bd 8b 91 8c be
       0.07493897 0.44025266 -0.040528152 -0.2745479
000390 63 38 79 be 5b b7 0e bd 96 67 5f be d4 fd 4e 3e
       -0.24337916 -0.03484283 -0.21816859 0.20214015
0003a0 05 15 17 bd d0 30 e2 3d 87 f9 b9 bc c6 52 f5 bd
       -0.03688528 0.110444665 -0.022701992 -0.119786784
0003b0 9e fd bd 3d 85 36 24 be 78 41 0e 40 85 4b 76 3e
       0.09276889 -0.16036423 2.222746 0.24052246
0003c0 91 4d 02 be 60 9c ea bd 89 ee b8 3e 2a 2f b9 3d
       -0.12724902 -0.114556074 0.36119488 0.09042199
0003d0 82 13 99 3e aa f0 98 bd ea dd a4 3d 3e 1b c4 3e
       0.29897696 -0.07467778 0.08050139 0.38302034
0003e0 c3 17 da be 56 b0 fe 3d d4 18 70 bd 0a 9c 7c bd
       -0.42596254 0.12435977 -0.058617428 -0.061672248
0003f0 4e 7c 27 bd 1a fa b1 3c aa 54 0d 3d 04 9a 8c bd
       -0.04089003 0.021725703 0.03450457 -0.06865314

fc1.bias f4 [256]
000000 dc 96 75 bd fa 32 2c 3d c8 8c b8 3e fd e1 a9 3c
       -0.059958324 0.042040803 0.36044908 0.020737642
000010 1f 09 66 be 03 84 ad 3e c7 e5 86 bb fd 7d dd 3d
       -0.22464417 0.3388978 -0.004116747 0.10815046
000020 1c 97 8c bd 58 f2 f4 3e b3 27 af be a5 cc 18 bd
       -0.06864759 0.47841144 -0.34209976 -0.03730454
000030 52 a6 fa 39 3d 38 22 3e 68 a9 b1 bd 9e ef 69 bd
       0.00047807634 0.15841766 -0.0867489 -0.057113282
000040 81 de 1c 3e 49 99 81 bc 47 c6 49 bd f7 db 9d bd
       0.15319254 -0.015820162 -0.049261358 -0.077079706
000050 96 73 cb bd aa e3 07 3e 1b af 51 3e 6f 04 3c 3e
       -0.09934156 0.1327044 0.20476954 0.18361066
000060 ac 37 d4 3d f2 ca 2f 3e 11 2d 26 be a5 75 6f 3d
       0.10362181 0.17167261 -0.16228129 0.058461804
000070 cd e2 3b 3e af 4b b4 be 09 ec 81 bc 5c 32 25 3e
       0.18348236 -0.35213992 -0.01585962 0.16132492
000080 3f 87 ab bd 5c 73 23 bd 7e 49 39 be 05 fa 2c be
       -0.083754055 -0.039904937 -0.18094441 -0.1689225
000090 26 0c 1e be 5d 6c 47 be f9 0d b5 3d 49 5a 9b 3d
       -0.15434322 -0.19474931 0.08840556 0.0758558
0000a0 77 6e ef 3e 05 b3 15 bd d6 e4 13 3e 98 52 25 3d
       0.46763965 -0.03654768 0.14442763 0.04036197
0000b0 17 30 50 be 36 9c f3 bc d2 7f 2c 3e f3 aa ab 3e
       -0.20330845 -0.029737573 0.16845635 0.3352886
0000c0 72 26 0e 3e b0 a0 ba be c5 9a 1e be d6 87 c5 be
       0.13881853 -0.3645072 -0.15488727 -0.38580197
0000d0 c1 67 8f 3e d0 da 4b be dc 01 8e 3b f8 0d 88 be
       0.28008845 -0.19907689 0.0043337177 -0.26573157
0000e0 36 32 54 bd 87 33 03 3d aa 00 04 3d 50 d6 8b 3e
       -0.051805697 0.032031562 0.032227196 0.27311945
0000f0 ea 27 dd 3d 83 59 4e be 87 e1 03 be 17 da 23 3d
       0.10798629 -0.20151334 -0.12879 0.04000291
000100 dd 4c a0 bd ef b9 ed be 60 47 ba bd 6a 04 a2 be
       -0.078271605 -0.4643092 -0.09095645 -0.31643993
000110 94 fc 50 3e 35 40 2e 3e fa 6d cd bd cb 90 db bd
       0.20408851 0.1701668 -0.10030742 -0.107209764
000120 ef 7b 93 be ed 0b 86 3e 83 9e 32 3e 79 ad 21 be
       -0.2880549 0.26180974 0.1744328 -0.15788831
000130 2b f9 82 bd 92 b4 e7 3e c6 fc 56 3e 19 ab c8 bd
       -0.06395181 0.45254952 0.20994863 -0.09798259
000140 2c 03 86 be a1 12 30 3e 09 6d 7e 3d 1b 4a 0a be
       -0.26174295 0.17194606 0.062115703 -0.13504831
000150 dc 30 1a 3e 8b e3 a5 bd 71 24 c9 bd 88 98 04 3e
       0.15057701 -0.08100041 -0.09821404 0.12948811
000160 31 ff a8 3e d3 db 86 3c 85 d8 4d bd 42 58 b6 3e
       0.33007196 0.016462242 -0.050255317 0.3561421
000170 90 97 1f be fe e3 a9 bd d6 15 51 bb d8 fd 26 3e
       -0.1558516 -0.08295439 -0.0031903884 0.16307771
000180 35 c3 aa 3e e4 3a a6 3d a5 25 3a be 0d 40 77 be
       0.33352056 0.08116701 -0.18178423 -0.24145527
000190 74 31 91 3e de 62 21 be 78 17 3d 3e b2 60 27 be
       0.28358042 -0.15760371 0.18465984 -0.1634548
0001a0 54 a1 b7 3e a4 4b 93 3e 70 6a 96 bd 7d 15 44 3d
       0.3586527 0.28768647 -0.0734452 0.047872055
0001b0 e4 96 82 be 24 5d 27 bc ea 56 31 be 2d b1 37 3d
       -0.25505745 -0.010215078 -0.17318311 0.044846702
0001c0 d2 8b c0 3d 75 ae 09 be 3a 9c d0 bb 18 e0 28 3c
       0.094016686 -0.13445456 -0.00636628 0.010307334
0001d0 bf 88 e0 3e 11 11 92 3d 90 43 b0 bc b2 8a 18 3e
       0.4385433 0.071321614 -0.021516591 0.14896658
0001e0 e7 bf c2 be 16 ce 5c be 78 01 96 be 4c 89 17 3e
       -0.38037035 -0.2156299 -0.29297996 0.14798468
0001f0 a8 f1 56 be 3f 85 a8 3d 36 27 38 bd 6d e2 f1 be
       -0.20990622 0.0822854 -0.04495927 -0.47243062
000200 4e 0a 36 be 2c a0 46 3e 63 2e a1 bd ab f7 29 3d
       -0.17777368 0.19397038 -0.07870176 0.04149596
000210 c9 c3 87 be 2f b8 be 3b 9e 2b e6 3e c5 28 90 3e
       -0.2651656 0.0058202962 0.44955152 0.28156105
000220 c6 81 a3 3d e6 e1 48 3d f1 e4 dd be 9a 4e 2e be
       0.07983737 0.04904356 -0.4333873 -0.17022172
000230 21 be 9b 3e 9b 5a 25 3d cb ed 0e be e2 f7 12 3c
       0.30418494 0.04036961 -0.13957898 0.008970233
000240 f5 4e 83 be cf 93 ec bd d1 ca 57 3c 5e e5 b7 be
       -0.25646177 -0.1155163 0.013170914 -0.3591718
000250 cf 00 92 3d 33 94 57 be f0 b9 a8 3e e8 c2 1d be
       0.071290605 -0.21052627 0.3295436 -0.15406382
000260 30 88 10 be 0f 63 83 be 0c 9b 8c 3d 4a b2 75 be
       -0.14114451 -0.25661513 0.0686551 -0.23993793
000270 b5 47 a1 be 96 5b 2c bd 14 60 e4 bd 8f a3 c8 3e
       -0.3150002 -0.04207953 -0.11151138 0.39187285
000280 31 30 02 be d4 9f bd 3d 4b e8 5a be 4c 48 c9 3d
       -0.12713696 0.092590004 -0.21377675 0.09828243
000290 6d 2b b0 3d f9 0c 17 3e fe bd 82 be 70 dc 5a 3d
       0.08602033 0.14751042 -0.25535578 0.05343288
0002a0 b2 fe b7 3e 22 c0 5e 3d aa ca 95 bd 29 00 0d be
       0.35936505 0.05438245 -0.07314046 -0.13769592
0002b0 96 fe de bd 74 ae 3e bc 08 c8 4a 3e 7e 62 08 3e
       -0.10888402 -0.011638273 0.19802868 0.13318822
0002c0 48 cf 3d bd 39 6b 29 3d d4 05 07 be 55 b0 89 be
       -0.046340257 0.04136202 -0.13185817 -0.26892343
0002d0 77 46 d0 bc 77 f9 b0 3e 82 28 03 be 41 5c b3 3e
       -0.025424225 0.34565327 -0.12808421 0.35031322
0002e0 08 ee 88 be aa 64 04 3e 69 a4 85 be fa 46 30 be
       -0.26744103 0.12929025 -0.26101997 -0.17214575
0002f0 d9 fe 01 3f db 1d 4f 3d 24 c4 b8 3d 3d d4 a7 bd
       0.5077949 0.05056558 0.09021786 -0.08194778
000300 8f 8b 83 be c7 d6 90 be 9f 2b 61 bd 1d 54 fe 3c
       -0.25692412 -0.28288862 -0.05497324 0.031045968
000310 19 50 b9 3c 3d 19 50 be 62 35 a1 3d b5 2d 6d 3c
       0.022621201 -0.20322128 0.0787151 0.014476229
000320 66 1c 66 3d b2 f7 60 be bb 7c 04 3e 58 ee 15 bd
       0.056179427 -0.21969488 0.12938206 -0.036604255
000330 97 82 8a 3e ce 18 80 be 8b 11 20 3e 12 83 16 be
       0.27052757 -0.25018924 0.15631692 -0.14698437
000340 70 ec 4d be 71 d2 25 3e 16 c1 1a bd 6b e1 95 3d
       -0.20109725 0.16193558 -0.037781797 0.07318386
000350 9d 3f 78 be b7 cf 9b 3d 75 38 37 3e c3 da 1a be
       -0.24243017 0.07607978 0.1789263 -0.15122513
000360 24 a8 82 3e 38 1f 8b be c9 17 35 be db 37 eb 3e
       0.25518906 -0.27172256 -0.17684855 0.45941052
000370 c9 a1 05 be 64 6c ee 3d d3 4d 3e be fc bb 3d be
       -0.13049997 0.116417676 -0.18584375 -0.18528742
000380 95 ff 5c 3d dd 3b 37 3e ea 82 94 be aa b9 2f be
       0.05395468 0.1789393 -0.2900613 -0.17160669
000390 2b 7d 9a 3d 53 41 34 be 8d 07 31 be b9 3f 29 3f
       0.07543405 -0.17603044 -0.17288037 0.6611286
0003a0 6f dd be 3e c0 bf 35 be 1e 5c 1c be 12 2a d9 bd
       0.37278315 -0.17748928 -0.15269515 -0.106037274
0003b0 50 df 67 3d ba 7c 9c be a3 86 d8 3c 14 4a af 3e
       0.05660945 -0.3056391 0.026431387 0.34236205
0003c0 7e 54 aa be 50 14 b5 bd 41 68 0b be 27 71 73 3e
       -0.33267587 -0.08841765 -0.13613988 0.23773633
0003d0 52 37 4f 3e 7e 31 82 bd b5 dd d5 3c 6e 63 a9 3d
       0.20235947 -0.06357096 0.026106695 0.08270918
0003e0 d5 80 45 bd 59 1b 10 3d 52 79 ab 3e 86 4b 58 bd
       -0.048218567 0.03518233 0.33490998 -0.0528064
0003f0 1b d4 28 3d d4 31 c8 3d 8b 36 bf bb 7d c7 a0 bd
       0.041217905 0.09775129 -0.0058353595 -0.07850549

fc2.weight f4 [256, 256]
000000 2b 6a b8 3c 62 52 2c bd 36 07 b5 bc 29 8b 1a bd
       0.022511562 -0.042070754 -0.022098165 -0.03773037
000010 0a ab 0a 3e 93 6f a8 3d f1 35 91 bb 19 8a 8f bd
       0.13541809 0.08224406 -0.004431479 -0.07008762
000020 7d 0d 38 bc 79 58 d5 3b 04 35 0d 3d 03 66 92 bd
       -0.011233685 0.006510791 0.034474388 -0.071483634
000030 e8 8a 61 3d f4 c3 89 3b a8 33 8c 3d d1 3c 9e bc
       0.055064112 0.0042042676 0.0684579 -0.019316109
000040 07 4f 31 bd 92 33 28 3b 92 12 dd 3c 80 8d 91 3b
       -0.043288257 0.0025665504 0.026986394 0.004441917
000050 63 75 db 3b 23 34 2e bb 0c b4 19 3d c0 1a 8a bc
       0.006697343 -0.002658137 0.03752522 -0.016858459
000060 73 9c 2e bd e7 22 ac bc d8 43 1b 3c 8d 64 68 bd
       -0.04262967 -0.021012736 0.009476624 -0.056736518
000070 ea 95 8f bd c7 bc a2 3c e5 36 bb bd 2c 81 eb 3a
       -0.07011016 0.019865407 -0.0914133 0.0017967573
000080 67 56 2b 3c b0 d9 de bb cb c5 b9 bd e6 54 4d 3c
       0.010457612 -0.0068008527 -0.09070929 0.012532448
000090 d6 3c d0 3c ff 74 9f 3a a8 23 6d bd 4c 8a 0a bd
       0.025419634 0.0012165605 -0.057895333 -0.033823296
0000a0 0b 97 39 bd 17 2f 9e bb 62 d2 bf bc 00 fa 46 3c
       -0.04531006 -0.004827391 -0.023415748 0.012144566
0000b0 b7 82 0b 3d 42 0f bf 3c 26 17 1b 3d d7 bb dd bc
       0.034060206 0.023322705 0.037863873 -0.027067108
0000c0 2f fe 6f 3c 39 4f 60 3d ba ec 3e 3b 3f fe 0b 3d
       0.014648004 0.054763053 0.00291328 0.034178015
0000d0 c5 ae 12 bd f4 a6 e8 bc b8 94 0f bd f0 93 c0 bb
       -0.035811204 -0.028399922 -0.03505394 -0.0058770105
0000e0 6d 9a b7 bc 26 89 83 3d f0 e8 4d bd 76 ec 9f bc
       -0.022412503 0.06422643 -0.050270975 -0.019521933
0000f0 1b 7c da bb 43 87 d7 3c 09 e8 8a bd 6f 47 b1 bc
       -0.0066676266 0.026309615 -0.067825384 -0.021640508
000100 c1 ff b7 bd eb 56 1c bd 67 fd 30 3b 6e d8 c0 bc
       -0.08984328 -0.03816883 0.0027006508 -0.023540702
000110 91 df 2d 3d 85 b5 78 bd a4 b6 8e bd 75 1a a1 bd
       0.042449538 -0.060719986 -0.0696843 -0.078663744
000120 02 0e 24 3d 46 cb 21 3d e5 a4 25 3c 66 71 8c bd
       0.04005242 0.039500497 0.010110115 -0.068575665
000130 60 c8 92 3d a1 98 c0 bb f4 d0 e0 bc a3 87 6e 3d
       0.07167125 -0.00587757 -0.027443387 0.058234822
000140 aa a5 3c 3d 08 a8 41 bb 75 2a 86 bc 89 a5 f2 bc
       0.046056427 -0.0029549617 -0.016377667 -0.029619949
000150 58 a7 6f 3d b2 5c 9b 39 13 80 48 3d ef a2 be 3b
       0.0585092 0.00029632967 0.048950266 0.005817763
000160 a6 2b 5d bc 6e 51 69 3d 84 70 4e bd 5d 2e ad bc
       -0.013499176 0.056962423 -0.050400272 -0.021140272
000170 f5 77 2b 3d 16 ee 38 bc 72 cf 59 3d 11 70 88 3d
       0.041862447 -0.011287233 0.05317635 0.06662
000180 c3 62 2c 3d be 0e 82 bd 9d 80 98 3c 5e 69 95 3d
       0.042086374 -0.06350468 0.018616015 0.07295488
000190 7b 2e 9d 3d 0c 33 b3 3b 04 66 e7 bb 5d 8b 98 3c
       0.07674881 0.0054687317 -0.0070617218 0.018621141
0001a0 d5 61 b6 bc bf 1a 5b 3b 96 24 a5 3c ff 2e 90 bc
       -0.022263447 0.003343269 0.020159047 -0.017600534
0001b0 09 a4 1b 3d e5 6d f2 3c 9f 75 1f bc 42 6f 91 3d
       0.037998233 0.029593417 -0.009732633 0.07101299
0001c0 e9 b1 fc 3c 6b 58 3f bd 47 03 69 3a d3 ee 0d 3d
       0.030846553 -0.04671518 0.0008888733 0.03465159
0001d0 b3 b4 11 3d d6 70 e9 bc 99 dd 86 bd fa 6f e9 3b
       0.03557272 -0.028496187 -0.06585235 0.0071239443
0001e0 26 c1 ed bb a0 0c 02 bd a3 42 4e bd 17 59 5f 3d
       -0.007255691 -0.03175032 -0.05035652 0.054528322
0001f0 2b 7e b2 3c 9f 31 3b 3d 1e ae 99 3a 71 6d 28 3d
       0.021788677 0.04570162 0.0011724865 0.041119996
000200 da c9 6a 3d 71 b9 c6 3c 1d 2e 0b 3b 2c bd 4a 3d
       0.057321407 0.024258347 0.0021237202 0.049496815
000210 7a 09 51 bc 0b 57 02 3d c8 6b 26 bd 71 12 76 bd
       -0.012758607 0.031821292 -0.040630132 -0.06007618
000220 06 d4 c9 3c 0d a0 50 3c e5 59 85 3d ec 1d 95 bb
       0.024637233 0.012733472 0.06511287 -0.004550686
000230 7e df b6 3c d4 58 20 bd 79 bc 45 3d 40 24 8e 3d
       0.022323366 -0.039147213 0.048275445 0.06940508
000240 12 1c 15 bd ba 30 a2 3c 21 f8 87 bd 08 ab 89 bd
       -0.036403723 0.019798625 -0.06639124 -0.06722075
000250 ee 51 55 3d 2c 24 05 bd c2 6f 08 bd 5f 89 6a bd
       0.052080087 -0.0325052 -0.033309706 -0.057259914
000260 26 a8 15 3d 57 65 64 3d b3 44 6a bc 5e ce 0f 3d
       0.036537312 0.055760708 -0.014298606 0.035108916
000270 da 46 be 3d a1 93 a0 3a 11 22 ee ba 8c c9 2f bd
       0.092908576 0.0012251028 -0.0018168112 -0.04291682
000280 28 b1 7a bd 3e 3f 54 3b 3b 06 8b bc 01 e1 e5 bc
       -0.061204106 0.0032386328 -0.016970744 -0.028061392
000290 78 db 66 bc 79 2d 53 3b 35 e9 1a 3d 81 3c 80 bc
       -0.014090411 0.0032223149 0.03782006 -0.01565385
0002a0 ea a3 32 3c 47 7b 95 3c 5c db ca bc 04 85 a4 bb
       0.010903338 0.01824726 -0.024762802 -0.0050207395
0002b0 28 55 a3 ba fa 34 a2 bd 29 c3 07 3d 5d ce 7b bb
       -0.0012461292 -0.07920261 0.033145104 -0.0038422563
0002c0 b8 d0 3e bd 99 1d 03 3d 4d 0b c5 bd b9 13 4f 3c
       -0.04658577 0.03201065 -0.09621296 0.01263898
0002d0 9d a8 5d 3d 90 d7 da 3c 70 44 23 bd f9 3f 5d 3d
       0.05411588 0.026714116 -0.03986019 0.054016087
0002e0 b2 2b 93 3a 91 56 21 3d 4d 02 61 3c c4 40 96 3c
       0.0011228232 0.039389197 0.013733459 0.01834143
0002f0 49 de 84 bb 68 1e 26 3d af 8c 2d 3b c4 73 76 bd
       -0.004054819 0.04055634 0.002648156 -0.060168996
000300 8d 54 e9 bc 31 4e 59 3c 6f 22 b9 3c 46 0c 8a 3d
       -0.0284827 0.013263271 0.022599427 0.06740622
000310 72 07 84 bd f9 32 59 bd 4e 18 b2 3c 6b 16 a3 3a
       -0.064467326 -0.053027127 0.021740105 0.0012442594
000320 bf 2a 90 3d 2d a0 0a 3c 83 37 97 bc 98 a8 af 3c
       0.07039403 0.00846104 -0.018459087 0.021442696
000330 1a d6 90 3d 44 fa ec bc 9a 64 70 bd 20 9b b6 bc
       0.07072087 -0.02892793 -0.05868969 -0.022290766
000340 13 c4 84 3d 0a 59 fe bc f9 dd 8d 3c 81 4f e0 3c
       0.06482711 -0.031048317 0.017317759 0.02738166
000350 ae 59 72 3d 0d bd 55 3d b6 fa 33 bd 98 08 1c 3d
       0.059167556 0.052182246 -0.04394027 0.038094133
000360 85 bd 68 3d a8 dc ad bc fb b9 13 bc dd b8 4b bb
       0.056821365 -0.021223381 -0.009016509 -0.003108553
000370 d5 7a 38 3d c1 56 a2 3c f1 84 9c 3d eb 4d 50 3c
       0.045039017 0.019816758 0.07642544 0.01271389
000380 79 d4 04 bd e6 5e 5e bd b7 09 08 bd 58 7e f5 bb
       -0.032429192 -0.05428972 -0.03321239 -0.007491868
000390 3c d7 0f bc e4 4e 20 bd 45 8d bc bc ad c1 7d 3d
       -0.008779343 -0.039137736 -0.023016581 0.06195228
0003a0 77 ff 1f 3d de a7 2f bd 39 ed f8 bc c9 8d 4e 3c
       0.03906199 -0.0428847 -0.030386554 0.012607046
0003b0 98 0e 1f bd 5b 21 50 3d 86 19 1e 3d 6e 2b 8d 3c
       -0.038832277 0.05081306 0.03859856 0.017232623
0003c0 da 28 9b bc d1 88 06 3d 8b 98 22 ba d9 23 4e 3d
       -0.018940378 0.032845322 -0.000620254 0.050327156
0003d0 54 40 05 be cc 8f 27 3c 2b 8d 0e bd 09 6c 96 bb
       -0.1301282 0.010227155 -0.034802597 -0.0045905155
0003e0 ef 73 d0 bd 18 e8 b3 3c 5b 08 52 3d 86 c4 16 3d
       -0.101783626 0.021961257 0.0512775 0.036808513
0003f0 98 7b e8 bc 00 72 30 bd ff 65 cc 3c ad 3c 98 3d
       -0.028379247 -0.04307747 0.02495098 0.07433448

fc2.bias f4 [256]
000000 71 2d 44 3c 66 cb a6 bd db fa af 3d e4 fb 02 bd
       0.011973725 -0.08144264 0.08592769 -0.031978503
000010 e5 11 04 be 95 10 81 3e 43 0c 76 bd 04 6d 95 3e
       -0.12897451 0.25207964 -0.060070287 0.29184735
000020 0a cd 8d bd 7e de d7 3d ff 37 a2 bd 17 0c c9 bd
       -0.06923874 0.10540484 -0.07920837 -0.09816759
000030 93 a1 0f 3d bc 7e 76 3d db 4b b4 bc 8d 8a f7 3c
       0.0350662 0.060179457 -0.022008827 0.030217433
000040 0e cc dd 3b 76 b5 40 3d 97 e3 b7 bc 30 24 45 3c
       0.00676871 0.047048055 -0.02244739 0.012032554
000050 53 e4 ab 3c be b1 ea 3d d8 07 16 bd 60 3a 36 3d
       0.020982897 0.11459683 -0.036628574 0.044489264
000060 1d b3 20 be fb 6f b8 bd 84 b8 e9 bd f9 4e 80 3d
       -0.15693326 -0.090057336 -0.11412147 0.06265063
000070 9f b5 ab 3d 32 95 c0 bd 23 e1 3b bc cb 34 a1 3c
       0.08384251 -0.09403457 -0.011467251 0.019678494
000080 a9 8c 15 be 3b 68 91 bd ee 05 be 3b 8f b0 e8 3d
       -0.14604439 -0.070999585 0.0057990467 0.11361801
000090 cb e4 39 be 23 94 11 bc fa 76 58 bd 4b 12 1b 3e
       -0.18153684 -0.008885416 -0.05284784 0.15143697
0000a0 d6 c9 9d 3d f4 d0 e8 ba 73 cf 06 be ae e6 26 3d
       0.07704513 -0.0017762468 -0.13165073 0.040747337
0000b0 62 ae 55 3d 82 4d 6f bc 0f ed 17 bd 0a c4 57 be
       0.052168258 -0.014605882 -0.03709131 -0.21070877
0000c0 8b 6f 3f 3d fe b7 bc bc fc dc 4d ba b9 5e ab 3d
       0.046737235 -0.023036953 -0.00078530586 0.08367676
0000d0 e3 9b 17 be 35 1b cd bd 00 7b fd bc b4 fa d6 bb
       -0.1480556 -0.10014955 -0.03094244 -0.006560648
0000e0 3b 36 0b 3e a1 2b 1e 3e 5a 14 45 bd aa 9d b1 3d
       0.13594906 0.1544633 -0.048115112 0.0867265
0000f0 45 0c 32 3e a4 11 05 3d f4 67 a1 3c fc ea 04 3e
       0.17387493 0.032487527 0.019702889 0.12980264
000100 90 9b 5f bc 9e e5 26 be 58 4d 27 be 6a b2 93 3e
       -0.013647929 -0.1629853 -0.16338098 0.28847057
000110 1f f4 62 3c 70 93 fb bd 34 30 0d 3d d3 60 3e 3d
       0.013852148 -0.12283981 0.0344698 0.046479058
000120 75 2d 1e be 54 2b 14 be d4 3d e6 bd bc 54 cc 3d
       -0.15447028 -0.14469653 -0.112422615 0.09977099
000130 7d eb 08 3c 6d ed 63 bd 31 93 e7 bb aa 4e 97 bd
       0.008356926 -0.05564635 -0.007067107 -0.07388051
000140 50 6a de bd 09 92 a0 bd fc ff 78 3e e2 52 ff bd
       -0.10860121 -0.07840354 0.243164 -0.124669805
000150 99 d5 93 3c b3 5b 1a be 97 c7 9b 3d b7 0e eb bd
       0.018046187 -0.15074043 0.07606428 -0.11477416
000160 fb 00 fa bd e0 58 c0 3d 0b 1f 03 bd 97 2d 35 3b
       -0.12207218 0.093919516 -0.032012027 0.0027645582
000170 d1 2b 81 3d b1 27 40 3d c9 74 64 3c 1f 0e 49 bd
       0.063071854 0.046912853 0.013943859 -0.049085733
000180 f1 83 96 bb c3 16 5c bd a0 db a1 bb 68 e6 cd 3d
       -0.0045933654 -0.053732645 -0.0049395114 0.10053712
000190 f5 9c d6 bd 03 68 72 3d d2 41 31 3e 24 bb 6a 3d
       -0.10479156 0.059181225 0.17310265 0.057307377
0001a0 39 83 b8 3d 30 05 3b 3d d4 09 11 3e ec d6 20 3c
       0.09009404 0.045659244 0.14163905 0.009816866
0001b0 d3 da 5e 3c ae 4b fc 39 4e 2a 35 be 21 df 01 be
       0.013601976 0.0004812157 -0.17691919 -0.12682773
0001c0 1b eb ae 3d 17 21 7d bd e6 41 a8 3c 96 17 fa bd
       0.085409366 -0.061799135 0.020539235 -0.1221153
0001d0 35 df e2 bb 85 66 9f bd 52 23 0b bd 87 cb 9b bd
       -0.006923581 -0.07783226 -0.03396923 -0.07607179
0001e0 b2 bc 8a bc 56 a9 0e bd 70 ef 27 be 4c dd 7d 3b
       -0.01693568 -0.03482946 -0.16399932 0.003873664
0001f0 69 f0 8c bd 29 f2 83 3b 12 19 24 3e 86 a2 d9 3d
       -0.06881792 0.0040266705 0.16025189 0.10626702
000200 7d 2f fe 3d 8f c5 a3 3d 95 57 ba 3d 1c 68 b5 3d
       0.124114014 0.07996666 0.09098736 0.08857748
000210 39 64 09 3d e8 4f fe 3d be 97 51 3c 11 22 1d bc
       0.033542845 0.12417585 0.012792526 -0.009590642
000220 ae 14 f8 3d 29 4a de 3c 8a d0 da bd 62 03 8b bd
       0.12113319 0.027134972 -0.10684307 -0.067877546
000230 9f d6 8e 3d a2 4f d5 bc d2 bf 44 bd 40 1b fe bd
       0.069745295 -0.026038948 -0.048034497 -0.12407541
000240 a4 34 e6 bc 85 21 33 3e 99 14 07 3e f4 ab 83 3d
       -0.028101273 0.17493255 0.13191451 0.06429282
000250 32 3a b8 bc a9 cb db bd 03 b7 b0 3d 56 43 18 3e
       -0.022488687 -0.107322045 0.08628657 0.14869437
000260 84 00 6a be 87 1c 99 3d 27 03 25 be 54 e8 f2 bc
       -0.22851759 0.07476144 -0.16114484 -0.029651798
000270 c6 76 38 be a3 66 03 bd d6 50 d1 bc 41 0f c8 bc
       -0.18014058 -0.032080304 -0.02555124 -0.024421336
000280 85 56 e1 3d 8f 92 89 3d eb a9 ff bd 23 c2 16 3c
       0.110028304 0.06717407 -0.12483581 0.009201559
000290 5c 95 b0 bc 60 02 73 3c 96 41 34 3d 8b 87 c1 3d
       -0.021555595 0.014832109 0.04400786 0.09449681
0002a0 56 af 60 3c 40 50 2d 3d 6a 56 9d bd 05 38 a1 3d
       0.013713678 0.04231286 -0.07682498 0.07872013
0002b0 99 1d 99 3c f6 b7 65 3c d8 d0 95 3d 51 47 99 bd
       0.018690871 0.0140209105 0.073152244 -0.07484306
0002c0 9b d9 93 bd e2 f7 9e 3d 8a 75 11 3e 28 33 3b 3b
       -0.07219239 0.07762124 0.14204994 0.0028564427
0002d0 89 5a c5 bd fc 81 36 3d 4e 8a be bd 93 fd 33 bc
       -0.09636409 0.044557557 -0.09303723 -0.01098575
0002e0 fc c7 46 3d 60 98 66 bb 29 de ac 3d 67 11 41 3d
       0.048530564 -0.0035186037 0.08440811 0.047135737
0002f0 06 a2 86 bc da 06 9b 3b b8 d4 52 3d 57 d4 90 3d
       -0.01643468 0.0047310414 0.051472396 0.070717506
000300 8e f8 ac bd b7 81 84 bd 1e dd 0c 3e 2f a0 20 3c
       -0.084458455 -0.06470054 0.13756225 0.009803816
000310 0b e7 05 3e 16 41 a8 3d 88 38 1e bd b4 83 9c bc
       0.13076417 0.08215539 -0.03862813 -0.01910577
000320 df 1f 97 3d 93 66 8f 3d bf 98 b8 bd f2 a3 03 bd
       0.07379126 0.07001986 -0.09013509 -0.032138772
000330 df 9c 88 bc 41 21 0a bc 29 df 15 3d a1 c1 e0 bd
       -0.016676364 -0.00843078 0.036589775 -0.10974432
000340 09 f8 be bc 13 5d 3d bc d2 73 df bd 5a 65 4e 3d
       -0.023311632 -0.011557835 -0.10910763 0.050389625
000350 36 aa e8 bd b7 cb 1b be db 85 58 bd b1 fc 25 be
       -0.1136059 -0.1521443 -0.05286203 -0.16209675
000360 f2 ca ae 3c 96 6d 39 bc 77 10 57 bd 7d 23 96 bd
       0.021337006 -0.011317631 -0.052505936 -0.073309876
000370 79 6b 0b 3e bc c6 d4 3d 5b c0 19 be ec 03 6c 3d
       0.13615216 0.10389468 -0.15014784 0.057620928
000380 b0 27 88 3d b9 a9 32 3e 5c 46 08 bd 0f 84 49 be
       0.06648195 0.17447557 -0.033270225 -0.19679283
000390 f6 73 b5 3d 9b 35 40 be ef 68 f7 bd 02 69 d0 bc
       0.088600084 -0.18770449 -0.12080561 -0.025440697
0003a0 78 c9 51 3d 15 7c 21 3d c5 cb 0f 3e 04 9d 60 bc
       0.051217526 0.039424974 0.14042576 -0.01370931
0003b0 72 2f 0e 3e f6 78 6f 3d e2 ce ab 3d 06 c9 01 be
       0.13885286 0.058464967 0.08389069 -0.1267434
0003c0 e8 6a 7d bd a0 09 3e 3d 60 d3 3d bd c3 e3 00 be
       -0.061869532 0.046395898 -0.04634416 -0.12586884
0003d0 83 23 58 bd ae 56 0c bd 10 75 41 be 9f 40 2e bd
       -0.05276824 -0.03426235 -0.18892312 -0.042542096
0003e0 79 04 05 bc c1 ae 0a 3d 84 51 38 bd 4b 87 a6 3b
       -0.008118742 0.033858065 -0.044999614 0.005082046
0003f0 d6 fd a2 bc 94 df 07 be 0f d9 3f be 09 48 e8 bc
       -0.019896429 -0.13268882 -0.18735145 -0.028354662

fc3.weight f4 [6, 256]
000000 b7 c5 14 bd f2 b0 df 3d 40 3d 1b be 52 09 48 3d
       -0.036321368 0.109224215 -0.15160084 0.048837014
000010 36 c2 d0 3d e0 09 d4 3d ca b0 8d bd 69 d3 bf bc
       0.10193293 0.10353446 -0.069184855 -0.023416238
000020 12 3e 82 bd 4b 22 83 3d a9 5d d1 3d 8a 6e 3c 3b
       -0.06359495 0.06403025 0.102229424 0.002875241
000030 44 e1 36 3d 53 3b cd bb 8c 85 ad bd f0 81 96 3d
       0.044648424 -0.0062631755 -0.08472738 0.07349002
000040 0e ea cb bc 7a ee da bd 3c d6 18 bd 22 03 3a bd
       -0.02489188 -0.10690017 -0.037313685 -0.045413144
000050 2f ec d7 3c 87 ba 07 bb c6 b8 55 bd 05 af c3 bd
       0.026357738 -0.0020710544 -0.052178167 -0.09554867
000060 a5 41 8d 3c d8 e5 13 be a7 8c 92 3c b8 a0 68 bd
       0.017243216 -0.14443147 0.017889334 -0.0567939
000070 a9 51 0b bb a4 f6 5c 3d 3c f6 39 bb 12 86 74 be
       -0.002125839 0.053946152 -0.0028375527 -0.23879269
000080 0d 33 ff bc 86 39 01 3e 06 cc f8 3c 78 57 9e bd
       -0.031152273 0.126196 0.030370723 -0.07731527
000090 9f b5 4a 3d a3 7f c9 bc c8 ba 65 3d 2b 9d 8f be
       0.049489614 -0.024596995 0.05608633 -0.28049597
0000a0 f4 23 70 ba f5 4f 9e 3c 42 6a 78 3d 0c 97 21 bc
       -0.0009160631 0.019325236 0.06064821 -0.009862673
0000b0 df 34 13 3e 4f c3 23 3b d9 6e 18 3d 19 7b 6c bb
       0.14375637 0.002498824 0.037215088 -0.0036084114
0000c0 82 f2 a6 3d c4 da 06 bd 02 ac 0d 3e 80 e4 b8 3d
       0.081517234 -0.032923475 0.13835147 0.09027958
0000d0 b6 7f 59 bd 1b 24 55 3d d9 58 3b 3d 11 9f 5f bd
       -0.05310031 0.052036386 0.04573903 -0.054595057
0000e0 8f 72 17 3d 96 70 a7 be a6 65 ad 3d ee 04 83 3d
       0.036974486 -0.32703084 0.084666535 0.06397425
0000f0 12 5e e3 bc 83 6b 94 3d 87 5b 9e be 56 25 28 39
       -0.027754817 0.07247069 -0.30929205 0.00016035637
000100 6f 55 70 bb 85 af 44 bd f7 e2 73 3d b8 d9 84 be
       -0.0036672016 -0.04801895 0.059542622 -0.25947356
000110 30 fe 49 3d 83 eb 12 bd f8 04 c3 3c 6e 1c 50 bd
       0.049314678 -0.035869133 0.02380608 -0.050808363
000120 80 db 29 3e 56 c0 b8 bd 47 36 fe 3b 91 e0 f9 3c
       0.16587639 -0.0902106 0.007757935 0.03050259
000130 45 d3 86 bb e3 35 9e 3d 82 fb c9 bd 0a 89 72 3d
       -0.0041145408 0.07725122 -0.098624244 0.059212722
000140 59 ee 57 3d e3 7b ff 3c ba 6a 92 be 75 c9 21 bd
       0.05271754 0.031187003 -0.2859705 -0.039498765
000150 82 ed b4 bd c1 fb 3a 3d e4 23 38 ba 2e af a6 bd
       -0.088343635 0.045650247 -0.0007024391 -0.081388816
000160 36 bf af 3d 0a b8 c2 bc d2 11 71 bd 7e ab 8c 3c
       0.085813925 -0.023769397 -0.058854885 0.017171618
000170 20 58 c4 bc 99 0f 59 3d 8c 50 41 bc b8 ad 87 3c
       -0.023967803 0.05299339 -0.011798989 0.016562328
000180 c2 3b 83 3d 3f 74 01 3e 98 89 3f 3e e3 1f 1a bd
       0.06407882 0.12642 0.18704832 -0.037628066
000190 7b 91 6a be 40 d9 d1 bc 6a 9f d9 3d 9c 29 20 bb
       -0.22907059 -0.025616288 0.10626109 -0.0024438864
0001a0 fd 33 56 bd 4f 30 05 bd 03 6c b1 3d 02 2c 0e 3d
       -0.052295674 -0.032516774 0.0866318 0.034709938
0001b0 c4 f7 29 3c 05 ac a1 bd 1a d2 83 bd c1 25 84 3d
       0.010374013 -0.07894138 -0.06436558 0.064525135
0001c0 98 f5 bb bd e8 a2 48 3e 36 d2 c3 bd 28 8b 67 3d
       -0.09177703 0.19593394 -0.09561579 0.056529194
0001d0 ef 52 80 bd 11 e7 ef bc 65 f9 95 3d f1 18 17 3e
       -0.06265818 -0.029284986 0.07322959 0.14755608
0001e0 48 d6 cd bc c7 17 93 bc 01 fe 53 3b bb 92 ab bd
       -0.025126591 -0.017955674 0.0032347443 -0.08377596
0001f0 17 cd b4 bd eb 8c 0e 3d 75 37 a5 bd 89 0a b7 bd
       -0.0882818 0.03480236 -0.08067218 -0.08937556
000200 38 69 3b bd d8 a0 5a 3d 4e 8a c1 bc 29 69 8b be
       -0.04575464 0.05337605 -0.02362552 -0.27228668
000210 9c c7 1a 3d e8 e3 68 3d fe ed 2f 3d fd 6b 58 be
       0.03778802 0.056857973 0.042951576 -0.21134944
000220 33 37 02 bc 90 7b 05 3e 69 04 d4 3d 02 0a fc 3c
       -0.007947731 0.13035417 0.10352404 0.03076649
000230 89 9a d9 bc 52 c0 1e 3c eb aa 01 bd ec 8e 9f bb
       -0.026562946 0.009689407 -0.03165714 -0.0048693325
000240 f9 19 aa bc 6f 10 d8 3d f3 2e d3 3e e9 e6 c8 bd
       -0.020764338 0.105500095 0.41246757 -0.098096676
000250 15 3a 68 3c 8a 4a b4 3c de 7a 8e bd 6a c0 b7 bd
       0.014174004 0.0220082 -0.06957029 -0.08972247
000260 c9 8b 53 3d ce 25 42 bd f7 51 a8 be 91 7f 1c bd
       0.05164698 -0.047399335 -0.32875034 -0.038207594
000270 52 5f 9b 3d 09 03 0c 3e 27 e8 12 3d 58 86 31 bd
       0.0758654 0.13673033 0.03586593 -0.04334101
000280 8f a3 3d 3d b5 9a 72 ba a4 6a 6f 3d d3 c7 43 bd
       0.04629856 -0.00092546205 0.05845131 -0.04779799
000290 e8 ae a7 bc 8a 94 40 3c 58 53 43 bd 6f b1 08 be
       -0.020469144 0.0117541645 -0.047686905 -0.13348936
0002a0 ef b4 cb 3c 5a d2 98 3d 49 fe 1e bd e0 95 88 bd
       0.02486655 0.074619964 -0.038816724 -0.066692114
0002b0 89 57 1c 3e 21 88 20 3e ff bb 21 bd 91 e6 07 bd
       0.15267767 0.15676929 -0.039485928 -0.03317887
0002c0 3e 4f 09 be 7a 12 5e be bc c1 e6 bc d8 10 f1 bd
       -0.13409135 -0.21686736 -0.028168552 -0.11770791
0002d0 79 9e c0 3c 76 c8 a1 bc c7 86 47 3e 60 ed 8d 3d
       0.023513066 -0.019748908 0.19485007 0.06930041
0002e0 9f 6d 0e 3d 52 0b b9 bc e9 d9 06 3c 72 d9 dd bc
       0.03477251 -0.022588406 0.008230665 -0.027081225
0002f0 78 89 03 bc 7a fe 33 3b 01 80 ee 3c f2 27 39 bd
       -0.008028381 0.0027464912 0.029113771 -0.04520411
000300 63 97 64 bd 45 ba 06 3e 74 4f d7 bd 90 18 2b bb
       -0.055808436 0.13156994 -0.10513201 -0.002610717
000310 b9 16 b5 3b 8a b4 94 be 1a 3f a0 3d a3 4e ee bd
       0.0055263904 -0.2904399 0.07824536 -0.116360925
000320 f9 7b 87 3b d3 19 c4 bb 3e ed 40 be 85 80 3e 3c
       0.0041346517 -0.005984524 -0.188405 0.011627321
000330 e1 a8 ab 3d fb 2d 06 be 34 41 71 3d 4e 6b d9 bc
       0.083818205 -0.13103478 0.058900073 -0.026540425
000340 3e 91 91 3c ae 89 cd bd 30 f0 2a 3e 7f ae d8 3d
       0.017769452 -0.10036026 0.16693187 0.105801575
000350 8d 70 b9 3d 2e 80 ce bb 29 fd ac 3d f0 68 33 bd
       0.090546705 -0.0063019013 0.08446724 -0.043801248
000360 19 84 10 3d 1c 0d 23 3d b4 de 41 3d b5 fb 6b bd
       0.03528223 0.039807424 0.047331527 -0.057613093
000370 8c 03 81 3d 15 32 9c 3c 3a 10 7d be 9f e8 e0 3c
       0.06299505 0.01906685 -0.24713221 0.027454672
000380 49 18 6f 3e c2 2b 0b 3e 6e e0 6b be 9a 91 10 bd
       0.23349108 0.13590911 -0.23034832 -0.035295106
000390 77 76 ad bc b3 da 99 bb b4 44 3c 3d 04 93 3f 3d
       -0.021174653 -0.0046952604 0.045963958 0.046771064
0003a0 eb 0e d4 3d 06 c1 74 bd 33 41 f0 bd 68 69 39 3d
       0.10354408 -0.059754394 -0.11731186 0.04526654
0003b0 93 4d 3a bd 9f f2 14 bc 48 19 9e bd cd b8 e8 3d
       -0.045484137 -0.0090910485 -0.07719666 0.11363373
0003c0 36 e4 82 3d 73 54 b2 bc e0 a8 b9 3d d8 ba bd bd
       0.06391184 -0.021768784 0.090654135 -0.09264153
0003d0 9e 43 2a 3d 0d ed 1b 3d 53 44 d8 3c 8a 90 b0 bb
       0.04156839 0.038067866 0.026399767 -0.005388324
0003e0 56 a6 8f 3c 4f 40 54 3d 02 65 4f 3e dc 2a cc bd
       0.01753537 0.051819142 0.20253375 -0.09969112
0003f0 95 90 9a bd 1d 03 17 bd 18 f9 de bd e7 a9 b2 3c
       -0.07547108 -0.036868203 -0.108873546 0.021809531

fc3.bias f4 [6]
000000 00 6c 09 bd 3a 48 ea bd d4 83 aa 3d e1 f5 a3 3d
       -0.033550262 -0.114395574 0.083259255 0.08005882
000010 7c 7e d6 3c 3e c4 57 3d
       0.02618336 0.052677386
