model_save/bc/bc_policy45.pt (torch, 289751 bytes, 6 tensors)

fc1.weight f4 [256, 17]
000000 33 7b 90 3e 2d 5f 76 3e a6 b7 0d 3f 9a 8d 62 3f
       0.28218994 0.24059744 0.5535835 0.88497317
000010 1a 06 52 3e 67 fe e5 3d 71 ed 34 bf 9a 19 1b be
       0.2051014 0.11230164 -0.70674807 -0.15146485
000020 56 d2 b4 be 27 f8 62 3e b2 ce 9a 3e b6 5e 20 3e
       -0.35316724 0.22164975 0.3023582 0.1566113
000030 fa ad 53 3e 6b ab 6e 3d 0b a3 0f be 52 eb 26 be
       0.20671836 0.058268946 -0.1402704 -0.16300705
000040 26 03 d0 3b d4 b3 35 c0 78 3d 2e be e8 8e 13 3e
       0.0063480316 -2.8391008 -0.17015636 0.14409983
000050 c5 fc 88 3e 1d ef 26 be 90 ba 08 be cb e0 ab 3d
       0.26755348 -0.16302152 -0.13352418 0.08392485
000060 33 f6 11 bf 74 ba 32 3c 5b f8 1a bf 5d fa 7c 3e
       -0.57016295 0.010908712 -0.6053521 0.24704881
000070 ed 21 9c 3d fa 4e a5 3d 84 bf 1c bd 09 d2 a5 3d
       0.07623658 0.08071704 -0.03826858 0.08096702
000080 d3 5e 02 3e b3 66 ec 3d 42 ec 06 c0 82 03 93 be
       0.12731485 0.11543026 -2.10817 -0.28713614
000090 65 da d6 be af 9e 41 bf 27 c9 c1 be ea dc c3 be
       -0.41963497 -0.75632757 -0.3784878 -0.38254482
0000a0 5d e4 32 be 92 6d 06 bf 20 6d dc bd 4b ec 66 be
       -0.17469926 -0.5251094 -0.107630014 -0.22551076
0000b0 75 3d 7c 3c ee 74 c9 3c f8 02 09 3d 68 4e 11 3d
       0.015395512 0.02459189 0.033450097 0.035475165
0000c0 cc 87 be bc 5d 7a 47 bd 50 84 4f 3d 75 2b 20 bf
       -0.023258112 -0.04870068 0.050663292 -0.6256631
0000d0 fc 2d b8 bd 4d e8 61 bc 57 91 85 be f9 a5 f2 bd
       -0.08993146 -0.013788295 -0.26087448 -0.11848063
0000e0 46 8a 69 bd c0 ee f6 3d 1c d1 19 3e fa bb 50 be
       -0.057016633 0.12057257 0.15021175 -0.20384207
0000f0 cf 2a 09 be f5 18 82 3e 8c 9d 61 3e 8b f3 e4 3d
       -0.13395236 0.25409666 0.22032756 0.11179265
000100 73 07 a2 bd f7 3a 6c 3e 17 c0 13 bd 9b 00 00 bd
       -0.07911577 0.23069368 -0.036071863 -0.031250577
000110 c1 d4 19 3f 44 84 36 c0 74 ca 85 3e 01 3a a4 be
       0.6009026 -2.8518229 0.26131022 -0.32075503
000120 9e 71 95 3e 54 2f ab 3e e3 f0 4e 3e 57 4a 87 3e
       0.29188246 0.33434546 0.20209078 0.26423904
000130 ac b2 13 bb 41 4e 56 bd 2a c0 41 be 6f 95 99 bc
       -0.0022536917 -0.052320722 -0.18920961 -0.018748013
000140 1b a8 bf 3c 54 fc 7e bd 2d f9 0b 3d 2a 35 e7 3b
       0.023395589 -0.062252358 0.03417318 0.007055898
000150 06 32 85 3c cf 1a b7 bf 4b 8e 03 3f d1 38 f7 be
       0.016259205 -1.4305056 0.51388997 -0.48285535
000160 f5 a1 4d bf 40 6d 96 3f 25 fb 53 3f 7a fc c9 3d
       -0.8032525 1.175209 0.8280509 0.09862609
000170 63 e4 39 3c c2 01 67 be ed 79 19 bf 64 70 e7 bd
       0.011345956 -0.22559264 -0.5995167 -0.11300734
000180 b7 b7 56 3d e9 89 21 bd fe 80 13 bc 7e 0c 86 bd
       0.052421298 -0.039438162 -0.009002922 -0.065453514
000190 3b c9 6c bd 61 25 37 bd 4b 6e 7a 3f a2 dd 81 be
       -0.057809096 -0.04471338 0.97824544 -0.25364405
0001a0 e4 8a ef 3e 5b ce c9 bd 7c 97 75 be 9f 49 13 3f
       0.46785653 -0.09853812 -0.23983568 0.5753421
0001b0 34 83 14 bf 3b 3f f5 3e 21 53 b5 bd b0 d0 3d 3f
       -0.580127 0.47899804 -0.08853746 0.74146557
0001c0 78 86 f7 3e 87 29 47 bc 57 aa d1 bc ac e8 00 3e
       0.4834478 -0.012155897 -0.02559392 0.12588757
0001d0 81 59 80 bd 62 ef 12 3e 9c 7e bf bd 90 71 8c 3e
       -0.062670715 0.1434913 -0.09350321 0.2743039
0001e0 36 ee f4 3e d6 ed 8b 3e ab 85 2e 3f d5 2a 30 3d
       0.4783799 0.27329892 0.6817271 0.043009598
0001f0 89 54 c5 be 10 1f a5 be d7 ed 3a 3f d0 f3 ac 3c
       -0.38541058 -0.3225026 0.73019165 0.021112353
000200 60 e9 fc bd b7 6a 52 3e bb 80 85 3d ff 5a 21 3b
       -0.123492 0.20548521 0.06518694 0.0024620888
000210 9b ae 4c 3d 4e 7f 8f 3d 58 06 69 3d 03 df c1 bc
       0.049971204 0.07006703 0.056890815 -0.02366591
000220 9f ec b5 bf a1 f1 30 3e f0 86 77 3e b8 f5 b7 be
       -1.4212836 0.17279674 0.24172568 -0.35929656
000230 fd 9b 22 be ce 20 80 bf ca a2 34 bf f0 3c 0a 3f
       -0.15879817 -1.0010011 -0.70560896 0.53999233
000240 70 c9 1b be 47 0d d0 be a4 56 53 3f ed 9c 19 be
       -0.15213561 -0.4063513 0.8255408 -0.15001269
000250 0a b8 46 bd e0 c9 30 3d a9 ea d8 bc e6 ef 67 3d
       -0.048515357 0.043161273 -0.026479082 0.05662527
000260 d1 c5 68 3d 34 34 5f bf 8b 18 2d bf 41 9a af bd
       0.056829277 -0.8718903 -0.67615575 -0.085743435
000270 f5 9a d6 be 7d c8 19 be 1e 74 66 bf bb 91 b6 3e
       -0.41915098 -0.15017886 -0.9002093 0.3565806
000280 ad d7 02 bf 03 70 ec bd 78 bb 46 bf 65 57 95 bd
       -0.51110345 -0.11544802 -0.77629805 -0.0729206
000290 22 60 b8 3c 87 7c 49 bd 63 f1 04 3e c9 fe 3a 3d
       0.022506777 -0.049191024 0.12982707 0.04565314
0002a0 07 eb c4 3c 74 00 65 bd 5c 1f ea be 50 ad 03 3e
       0.024037851 -0.055908635 -0.4572705 0.12859082
0002b0 c6 8e ae bd ba 8e 15 be 6d 4a 93 3e 6b 80 11 bf
       -0.085233256 -0.14605227 0.2876772 -0.56836575
0002c0 93 be 80 3e f8 cb a3 be e1 81 e1 bd bd b6 39 bf
       0.25145397 -0.31991553 -0.110111006 -0.7254446
0002d0 de 8c 8f 3e 83 cc 95 3d ed e8 cc bd 0d c4 c0 3d
       0.2803716 0.07314398 -0.100053646 0.09412394
0002e0 f1 77 1d 3e 41 ad 52 bd f5 ef 07 3d fe 70 77 bf
       0.15377785 -0.05143476 0.033187825 -0.9665679
0002f0 32 5f 9c 3e 6a 6b e8 be c3 46 0a bf 82 c0 9d be
       0.30541378 -0.4539445 -0.54014224 -0.30810934
000300 2e 5a 02 3f ee 6e a7 bf 09 bf 89 be b9 e0 27 be
       0.50918853 -1.3080728 -0.2690356 -0.16394319
000310 5c ee 02 bf c8 7f 93 3e 77 8b e7 3c bc 7e 22 3e
       -0.5114496 0.28808427 0.028264744 0.15868658
000320 78 46 5b bd 73 33 76 3d c7 d5 3f bd 71 36 8d 3c
       -0.053534 0.06010766 -0.046834733 0.017237874
000330 28 9c 30 c0 af 63 11 c0 8c 14 37 bf 9b a9 a2 be
       -2.759531 -2.2717092 -0.7151573 -0.31770024
000340 1d 0f 9b be 75 93 72 be 2b 55 d8 bd 6c 85 88 be
       -0.30284968 -0.23689063 -0.105631195 -0.26664293
000350 b8 d6 c2 bc 34 9b 74 be ff c3 cc bd 77 71 02 3e
       -0.023784027 -0.2388733 -0.09998321 0.12738596
000360 5e 32 5a bd 2c 63 eb 3c e8 b7 a0 3a 8d 34 71 3c
       -0.05327069 0.028733812 0.001226184 0.014722002
000370 c5 e7 d7 bc 31 3e bb bf 84 3e bd bd 1a 21 c1 be
       -0.026355634 -1.4628354 -0.092404395 -0.37720567
000380 e8 86 b9 3d dc ff 1d 3f c8 86 ae 3b 52 a0 a1 be
       0.090589345 0.61718535 0.005326126 -0.31567627
000390 c3 5f c0 bd ba 0e 86 bd 62 7d 80 be b3 08 3e 3e
       -0.09393265 -0.065457776 -0.2509566 0.18558006
0003a0 d2 a8 d3 bc 8a 63 99 3d 84 c1 95 bc 5e f4 68 bd
       -0.025837336 0.07489689 -0.018280752 -0.05687367
0003b0 81 fc ca 3d c0 d8 f1 bd 83 6e 3b 40 b5 5d 6a 3e
       0.099114425 -0.1180892 2.92862 0.22887309
0003c0 6b 2c f2 bd a6 11 1f be 38 fc d4 3e 33 05 bf 3d
       -0.11824878 -0.15534076 0.41598678 0.093271635
0003d0 23 10 93 3e 06 d4 ae bd e5 fe 81 3d 3e bb de 3e
       0.2872325 -0.08536534 0.063474454 0.4350223
0003e0 54 57 c8 be aa e8 88 3d 84 47 36 bd 11 e3 40 bd
       -0.39129126 0.06685002 -0.044501796 -0.047091547
0003f0 c1 fe ce bc a7 32 fc ba f1 b4 0c 3c 6d df 96 bd
       -0.02526796 -0.001924117 0.008588062 -0.07366834

fc1.bias f4 [256]
000000 65 ec 15 be 88 16 f1 3c 80 17 fc 3e 6c 04 0e bc
       -0.14640959 0.029429689 0.4923668 -0.008668046
000010 30 62 6f be 52 16 e1 3e d2 4d 25 bc 89 7f 65 3d
       -0.233773 0.43962342 -0.010089355 0.05602983
000020 7d 30 ee bd 88 29 11 3f a8 bc e6 be 2f 11 68 bd
       -0.11630342 0.56703997 -0.45065808 -0.056657013
000030 5c 64 3f bd b2 65 ce 3d c9 01 ae bd 50 f9 14 be
       -0.04672657 0.100779906 -0.08496434 -0.1454823
000040 79 be 87 3e 77 93 19 3c 37 e7 d1 3a 7b 1c 43 bd
       0.26512507 0.009373537 0.0016014342 -0.047634583
000050 2e 2d f4 bd 28 04 27 3e 3e 0d 64 3e 07 22 0f 3e
       -0.1192268 0.16310179 0.22270676 0.13977824
000060 06 a5 06 3e 3a 90 57 3e d2 e1 73 be b1 04 a1 3d
       0.13148889 0.21051112 -0.23816612 0.07862223
000070 73 95 3b 3e 31 60 08 bf 13 9e 09 bd bc b9 2f 3e
       0.18318729 -0.53271776 -0.033598017 0.17160696
000080 ff c1 51 be e6 3b 33 bd 87 3d 27 be 3b a8 91 be
       -0.2048416 -0.043758295 -0.16332065 -0.28448662
000090 33 77 75 be a6 35 45 be dd 6b ac 3d aa 4f cd 3d
       -0.23971252 -0.19258747 0.08419011 0.1002496
0000a0 c8 f0 0d 3f 08 26 93 bd 11 8d 63 3e 63 3c 1e bd
       0.5544553 -0.07184988 0.22221781 -0.038631808
0000b0 7c d9 89 be 40 99 bd bd 62 ad 31 3e 82 a8 cb 3e
       -0.2692374 -0.09257746 0.17351297 0.39777
0000c0 c9 8f 1d 3e a7 2b 05 bf 40 e9 08 be 0c c1 0c bf
       0.15386881 -0.52019733 -0.13370228 -0.54982066
0000d0 1e 1b bc 3e 32 a8 88 be 74 f7 ab bc 71 67 c2 be
       0.3673944 -0.26690823 -0.020992018 -0.37969545
0000e0 f9 da 29 bc ba a9 5d bd 76 17 13 3b 24 11 b1 3e
       -0.010367149 -0.054116942 0.0022444404 0.3458339
0000f0 0e 05 80 3d a4 0d ae be 5d 61 57 be 5d 7e 2a 3d
       0.06250964 -0.33994782 -0.21033235 0.041624416
000100 73 3d f1 bd e6 6e 23 bf 29 2e 3b be 60 4d d8 be
       -0.11779299 -0.6384109 -0.18279327 -0.42246532
000110 e7 93 40 3e e0 65 50 3e 83 0b 79 be f3 11 0c be
       0.1880642 0.20351362 -0.24320798 -0.13678722
000120 f3 99 cc be c6 33 8d 3e 2f 51 3c 3e 7c 56 20 be
       -0.39961204 0.27578562 0.18390344 -0.15657991
000130 34 8d 8d bd 9d c8 05 3f 25 1b 5e 3e 2d 6b 17 be
       -0.06911698 0.52259237 0.21690042 -0.14786978
000140 a2 c9 a8 be 3c e6 49 3e 51 5b 26 3e 40 6c 23 be
       -0.32966334 0.19716734 0.16245772 -0.15959263
000150 a2 f2 30 3e 0a 09 1e be b2 9a c2 bd a9 d2 03 3e
       0.17280057 -0.15433136 -0.09502162 0.12873329
000160 8e c1 ed 3e bf 05 00 3c 08 df 80 bd be 6e e6 3e
       0.46436733 0.00781387 -0.0629254 0.45006365
000170 13 38 63 be 6d 32 10 be ac b5 d6 3c ae 26 37 3d
       -0.2218936 -0.14081736 0.026209675 0.044714622
000180 5f b7 d7 3e 17 2b 41 3d c5 d3 83 be 1e be 8f be
       0.4213209 0.047160234 -0.25747505 -0.28074735
000190 d5 1b b1 3e 9e e9 55 be 68 b9 aa 3e 18 01 28 be
       0.34591547 -0.20889899 0.3334458 -0.16406667
0001a0 cc 1a db 3e e4 69 b1 3e a2 ec dd bd 8c db fb bb
       0.42793882 0.346511 -0.1083615 -0.007686084
0001b0 b5 14 c1 be be b4 32 bd fe 61 51 be 10 0c b5 3c
       -0.3771111 -0.0436294 -0.20447537 0.022100478
0001c0 51 50 fc 3d c8 7e 99 bd 31 4d 3b bd a7 65 9d bc
       0.12320007 -0.07494885 -0.045727912 -0.01921351
0001d0 fb ee 0b 3f 72 c6 b3 3d 85 6a 19 bd f5 26 10 3e
       0.5466153 0.08778085 -0.0374551 0.14077361
0001e0 1d 57 0c bf f3 43 91 be 6b 5c b2 be ba c6 e7 3d
       -0.54820424 -0.28372154 -0.34836134 0.11317201
0001f0 0d c9 99 be f2 b3 2e 3e 4d 59 ad bd 67 78 20 bf
       -0.30036202 0.17060831 -0.084642984 -0.6268372
000200 59 42 9c be 12 40 9c 3e ff 07 19 be e5 c3 04 bc
       -0.3051937 0.30517632 -0.14944457 -0.0081033455
000210 2b e1 a3 be d4 74 a3 bb 03 97 24 3f 58 23 c2 3e
       -0.32007727 -0.004988292 0.64292926 0.3791759
000220 45 e6 04 3e b3 59 81 bd b3 ac 03 bf c5 9a 91 be
       0.12978466 -0.06315937 -0.51435393 -0.28438392
000230 a3 3e a3 3e ba 90 3d 3d 0b 62 44 be 78 1e fc bc
       0.31883726 0.0462806 -0.19178025 -0.030776247
000240 78 59 f3 be 84 cf 18 be 9e d4 76 3d db a4 02 bf
       -0.47529197 -0.14922911 0.06026136 -0.510328
000250 f0 91 0f 3e 84 81 89 be 42 68 cc 3e ae 2c 60 be
       0.14020514 -0.26856625 0.39923292 -0.21892044
000260 25 10 4a be e2 ba 95 be 66 1b ec 3d 13 17 99 be
       -0.19732721 -0.29244143 0.11528663 -0.29900417
000270 62 a7 d1 be a6 0f 23 bd 12 2b 1e be 02 f6 fd 3e
       -0.40948015 -0.039809845 -0.15446118 0.49601752
000280 80 f4 52 be 21 45 a5 3c 0e 1d 5d be 63 15 f6 3d
       -0.20601082 0.020174565 -0.21593115 0.12015798
000290 eb f4 aa 3d e5 ab 3a 3e 9a ec af be d2 91 b7 3c
       0.08347496 0.18229635 -0.343602 0.0224084
0002a0 6f 06 d4 3e 3b 6c d7 3c 92 dd 16 be bd e0 b5 bd
       0.41411158 0.026296725 -0.1473296 -0.08880756
0002b0 3d 2b e0 bd 89 0c 8e bd 17 c1 23 3e 8f e7 30 3e
       -0.10945747 -0.06935985 0.15991627 0.17275833
0002c0 9a 93 25 be 56 9d 61 3d a5 b0 0e be a5 e3 9a be
       -0.16169587 0.055081688 -0.13934572 -0.30251804
0002d0 71 36 41 bb 06 55 b9 3e 7e 7d c2 bd 97 b7 da 3e
       -0.0029481912 0.3619768 -0.09496592 0.42718193
0002e0 1f fd aa be 1f f6 00 3e db 38 bf be ee 01 82 be
       -0.3339624 0.12593888 -0.37348065 -0.25392097
0002f0 4e ad 2e 3f 8b 6b a7 3d 1a 58 41 3d c8 92 13 be
       0.6823319 0.08174809 0.04720316 -0.14411461
000300 c4 8f 77 be 64 61 dd be b5 b8 d5 bd e5 3c c8 bc
       -0.24175936 -0.43238366 -0.10435621 -0.0244431
000310 65 e9 9a bc 32 e6 64 be d0 c5 32 3e ca 9d bc bd
       -0.01891012 -0.22353438 0.17458272 -0.092097834
000320 3e b6 5a 3d 03 d7 9c be 89 9e 14 3e da c2 08 bd
       0.053396456 -0.3063279 0.14513601 -0.03338895
000330 6b ef a7 3e d3 1c aa be 09 1f 09 3e 51 63 15 be
       0.3279985 -0.33225116 0.13390745 -0.14588667
000340 8d 93 99 be 82 39 97 3d ef 04 e0 bd dd 81 c6 3d
       -0.29995385 0.073840156 -0.10938441 0.09692738
000350 88 c8 ad be 05 64 b7 3d 32 96 49 3e 65 32 8b be
       -0.33942056 0.08954624 0.19686201 -0.27186885
000360 cc c1 38 3e 5c 99 cd be 73 52 ac be 8a 37 0f 3f
       0.18042678 -0.40156066 -0.33656654 0.5594412
000370 7f 50 36 be 8c 58 b6 3d ba 3f 00 be 36 cb 20 be
       -0.17804144 0.08903608 -0.1252431 -0.15702519
000380 13 d1 3c 3d ee 97 68 3e 30 49 c0 be 49 c1 34 be
       0.046097826 0.22714207 -0.37555838 -0.17651857
000390 4a 81 b5 3d 36 22 1b be 18 52 f1 bd 0b fa 66 3f
       0.088625506 -0.15149769 -0.11783236 0.90225285
0003a0 47 07 1a 3f c9 4d 94 be 44 8f 8a be 4b 3f b4 bc
       0.60167354 -0.28965595 -0.27062428 -0.022002837
0003b0 ec 2a 76 3d 48 8f ac be 03 bf b9 bc 9c 18 d5 3e
       0.060099527 -0.33703065 -0.02267409 0.41620338
0003c0 cb c4 d0 be 0a 6c cb bd a6 d0 79 be bd be 25 3e
       -0.4077514 -0.09932716 -0.24396 0.16186042
0003d0 ba 8a 96 3e fd 42 f2 bd 52 58 8f bd 70 14 d6 3d
       0.29402715 -0.11829183 -0.06999268 0.10453117
0003e0 9b ec 9c bd 35 49 7d 3d 84 75 ad 3e 73 a1 12 bd
       -0.076623164 0.061837394 0.3387872 -0.0357985
0003f0 22 00 d3 3c fe 92 23 3d 30 7b d5 bc ae 4f 1f be
       0.0257569 0.039935105 -0.026059717 -0.15557739

fc2.weight f4 [256, 256]
000000 34 41 ef 3b bc bf d6 bd 58 60 90 bd 87 56 81 bd
       0.007301474 -0.10485789 -0.07049626 -0.06315332
000010 0a 57 2e 3d 3e 18 e2 3d 35 58 d8 bd 4e 74 8e bd
       0.042563476 0.1103978 -0.10563699 -0.06955777
000020 76 5c 0a bd a7 db 79 bd 5b 95 98 3d 44 6e 88 bd
       -0.033779584 -0.061000492 0.07450362 -0.066616565
000030 49 4b 9b bd 21 21 80 3c 8e 03 d5 3d 29 77 77 3c
       -0.07582719 0.015640797 0.10401069 0.015104094
000040 e7 6e 29 bd 94 82 ca bc 07 77 a8 bd b9 66 9e bd
       -0.04136553 -0.024720468 -0.08225828 -0.077344365
000050 8a db 5a 3c 1d dc 3c bd ae e0 88 3c 22 b6 67 bd
       0.013358006 -0.046108354 0.016708698 -0.05657018
000060 2f 80 15 be 56 6c 0a bc a9 17 7e bc 60 47 95 bd
       -0.1459968 -0.008448681 -0.015508571 -0.07289004
000070 bd 1d 13 be 17 eb 51 bd 1d 25 f4 bd 05 1a 7c bd
       -0.14366813 -0.05124959 -0.11921141 -0.06154825
000080 61 48 2e bd 02 18 5d bd 44 0d ad bd 22 bf 3a 3d
       -0.042549495 -0.053977974 -0.08449796 0.045592435
000090 41 7e 41 3c 0a 3d b8 3c 6b 8d 10 be f5 9f b5 bd
       0.011809886 0.022490043 -0.14116447 -0.088684
0000a0 d8 d7 19 be ee f2 db bc 6e 5b 58 3b 4a 70 ea bc
       -0.15023744 -0.026849236 0.003301348 -0.028617997
0000b0 0f ac 8b bc 84 23 b4 3c 0a 88 3f bb 0b 1c 04 bd
       -0.017049817 0.021989591 -0.0029225373 -0.032253306
0000c0 5f a5 ec 3b 74 b2 ea 3d 15 cf 9b bd 9e 33 08 3d
       0.007221862 0.114598185 -0.07607857 0.03325235
0000d0 65 ec 94 bd 41 fc fb bc 2f 80 7b bd 21 6f d7 bd
       -0.07271651 -0.030759932 -0.061401542 -0.10519243
0000e0 10 97 41 bd c3 dd 9b 3d 78 ad 34 be 19 52 c5 bd
       -0.047263205 0.07610657 -0.17644298 -0.096347995
0000f0 97 63 b3 3c 80 a7 be 3b 7f a6 c5 bd 90 52 76 bd
       0.021898074 0.0058183074 -0.09650897 -0.06013733
000100 7e 32 46 bd 03 e0 0a bd d6 13 ad 3c 6e ac 07 bd
       -0.048387997 -0.03390504 0.021127623 -0.033123426
000110 82 57 7d 3d 8e 84 93 bd 12 89 19 be ca a3 e8 bc
       0.061851032 -0.07203017 -0.14993694 -0.028398413
000120 45 c8 47 bd 46 77 47 3d 50 92 2c 3d c5 33 1c be
       -0.048774976 0.048697732 0.042131722 -0.15254124
000130 89 45 b8 3d 5b b7 da bb f7 4c 99 bd 5c 1b 0f 3d
       0.08997638 -0.0066746897 -0.07485383 0.0349382
000140 e8 e7 08 3d 25 ba d7 bc 77 75 bf bd c6 a3 54 bc
       0.033424288 -0.026333878 -0.093485765 -0.0129785
000150 a2 23 e6 3d df 9e b1 bc 61 48 f1 bc 39 fd 3d bd
       0.11237265 -0.021682201 -0.029453458 -0.04638407
000160 c0 ca 74 bd e2 fb 31 3d 2a 6e ac bc 91 0d 53 bd
       -0.05976367 0.043453105 -0.021048624 -0.05152661
000170 d7 99 1f 3d 18 40 57 bd cd cb 80 3d fb eb 7b 3d
       0.038965072 -0.05255136 0.06288872 0.061504345
000180 27 a7 72 3d c2 9a ea bd ef e1 a1 3b 82 87 d5 3d
       0.05924144 -0.11455299 0.0049402635 0.10426237
000190 e8 94 83 3d a7 0a c2 bc 23 e8 4b 3b 26 26 43 3c
       0.06424886 -0.02368672 0.0031113706 0.011910951
0001a0 6f fd 46 bd 28 8e ed bc 29 f0 2b 3d 30 b7 0c bd
       -0.048581537 -0.02899845 0.04197708 -0.03435439
0001b0 b3 26 d3 3d c6 06 e4 bc ad 66 98 bd 38 57 a2 3d
       0.10310116 -0.027835261 -0.07441459 0.07926792
0001c0 84 6b a4 bb 18 68 82 bd a2 4f 28 bd 22 57 2b bc
       -0.0050176997 -0.063675106 -0.04109157 -0.010457786
0001d0 f3 01 3d 3d 3f 0c ba bc 50 c2 f6 bd ba d1 2c 3d
       0.046144437 -0.022710918 -0.12048781 0.0421922
0001e0 cf 54 26 bd 76 b3 58 bd 59 43 be bd 90 ee ca 3d
       -0.040608224 -0.052905522 -0.09290189 0.099087834
0001f0 2f b3 bd bb a1 35 fb bb ac 12 b6 bd f8 9b 6b 3d
       -0.0057891826 -0.007666305 -0.0889028 0.05752179
000200 18 91 18 bb cc 28 a7 bc 7a c5 2c 3c 53 b5 11 3d
       -0.0023279842 -0.020405196 0.010545129 0.035573315
000210 86 c6 44 3c ed f3 86 3d 7c 54 a5 bd 3e cc 93 bd
       0.012010222 0.06589494 -0.08072755 -0.072166905
000220 85 1d ae 3c 8d ce ed 3c 82 7f 2f 3d 15 31 58 bd
       0.02125431 0.029029155 0.04284621 -0.052781183
000230 63 e1 83 3d 32 ca 4c bd e6 d3 fe 3c 0e 7f 19 3d
       0.064394735 -0.049997516 0.0311069 0.037474684
000240 4e 0c 8c bd 62 81 00 3d 34 d1 93 bc 02 c5 6e bd
       -0.068382844 0.03137339 -0.018044092 -0.05829335
000250 aa 31 5c bc 51 ca 14 bd c1 00 98 bd 83 39 0d be
       -0.013439575 -0.036325756 -0.07422019 -0.1379147
000260 34 00 59 3a bf 1f 46 3c d1 d6 23 bd ab 48 ed 3c
       0.00082779233 0.01209253 -0.039999787 0.028965315
000270 5f 10 a1 3d d3 f3 86 bd 2d 9f bf bc 4b d9 ba bd
       0.07864451 -0.065894745 -0.02339133 -0.091234766
000280 83 90 98 bd f2 39 81 3d 5a 2e 47 bd c1 f2 dd bd
       -0.074494384 0.0630988 -0.04862819 -0.10837317
000290 b0 07 8f 3c 7c bd 27 3c d2 f8 46 3d 0f ad c4 bc
       0.01745972 0.010238048 0.048577137 -0.024008302
0002a0 58 86 9f 3c 67 e3 e3 3c 2b 34 a3 39 e2 2f e5 bb
       0.01947324 0.027818395 0.0003112865 -0.0069942335
0002b0 c0 17 0b bc f4 d9 95 bd 6f 2c d0 3c 40 64 43 bc
       -0.008489549 -0.07316962 0.025411813 -0.011925757
0002c0 2a 9d 44 bd ad be 6a bd 5a 89 05 be 67 a0 e2 3c
       -0.048001446 -0.05731075 -0.13040677 0.027664376
0002d0 df 17 5b 3d 24 00 02 bc 2a 56 7b bd ec 0d 58 3d
       0.053489562 -0.007934604 -0.06136147 0.052747652
0002e0 80 48 47 3c 0a 13 86 3d 2a 2b 16 bc 34 97 bb bc
       0.012163281 0.065466 -0.009165565 -0.022899248
0002f0 47 fa 96 bc 88 7a 4d 3d da c2 bf bc 3e 1e 0f be
       -0.018429888 0.050165683 -0.023408342 -0.1397638
000300 0b 44 c7 bd 56 9e ba 3d c3 03 75 bd e8 19 d8 3d
       -0.09729775 0.091122314 -0.05981804 0.10551816
000310 13 b7 20 be 7c 53 07 bd f0 65 c6 bc fb 14 98 bc
       -0.15694837 -0.0330386 -0.02421853 -0.018564692
000320 4e 9d 4a 3d fb de ec bc ab 88 dc 3a 0e ce 0a 3b
       0.049466424 -0.02891492 0.0016825398 0.0021179947
000330 58 f9 24 3d dd 11 e2 bc 91 27 aa bd 3b 3c 23 bd
       0.040276855 -0.027596409 -0.08308328 -0.039852362
000340 e6 38 51 3d ea dc a0 bc 65 30 08 3c 27 8f 5c 3c
       0.051079653 -0.01963659 0.008312319 0.013461865
000350 db fa 8a 3d 98 c0 2d 3c 32 61 73 bd 5b e6 cb 3c
       0.06786128 0.010605 -0.059418865 0.024890115
000360 39 b7 75 3d b9 3a 8f bc e8 e4 d4 bb 79 41 82 bd
       0.059989188 -0.017484056 -0.0064970143 -0.06360144
000370 45 c8 2c 3c 90 e5 0c 3d f8 1c 10 3d 2e 29 ab bc
       0.010545795 0.034398615 0.035183877 -0.02089366
000380 08 ec 6a bd 83 6a 04 be b4 65 57 bd df 1a 56 3a
       -0.057354003 -0.12931256 -0.052587226 0.0008167456
000390 44 4c 23 bd d0 61 6b bd 72 2a bf bd ff 82 5e 3d
       -0.039867654 -0.05746633 -0.09334268 0.054324146
0003a0 1b 48 3c 3d 3a b2 1a bd f6 7e 5f bb b6 23 55 bc
       0.045967203 -0.037767626 -0.0034102774 -0.013009002
0003b0 1d 72 aa bd 0a 49 2c 3d 71 3f e3 b9 18 df 5e bc
       -0.08322547 0.042061843 -0.00043344081 -0.013602994
0003c0 c3 d9 1c bd 74 19 02 bd 88 b0 b6 3a a5 fb 56 3d
       -0.03829361 -0.031762555 0.0013938108 0.05248608
0003d0 e4 92 eb bd 00 09 ad 3c 36 23 ae bd fe 85 6e bd
       -0.115026265 0.021122456 -0.0850281 -0.058233254
0003e0 c8 35 3b be 6b 4a 64 bc 8f 8d 1d 3d a2 c1 30 3d
       -0.18282235 -0.013933758 0.03846508 0.043153413
0003f0 43 11 ed bd ac 86 07 be 88 f2 8f bc 0b a1 e6 3d
       -0.11575558 -0.13234967 -0.017571703 0.11261185

fc2.bias f4 [256]
000000 83 ce 23 bd 5a 50 df bd c0 45 3e 3e 96 e7 ae bd
       -0.039991867 -0.10903998 0.18581295 -0.08540265
000010 1e 21 26 be 3f 67 83 3e 2a f9 48 bd 2a e7 92 3e
       -0.1622357 0.25664708 -0.049065746 0.2869199
000020 0c 5d 4e bd dd e6 17 3e df ba 56 bd 74 a0 04 be
       -0.050381705 0.14834161 -0.052424308 -0.12951833
000030 1f 68 1c bd 58 4e e7 3d 47 77 05 bc 9f 44 a9 3d
       -0.038185235 0.1129424 -0.008146114 0.082650416
000040 c3 cd c1 bb bd b8 96 3d d7 7d df 3c 51 67 a7 3c
       -0.0059144213 0.07359455 0.027281685 0.020435007
000050 b6 fa 25 3c 9a bb 2b 3e b7 3b 31 bd 6a d4 d7 b9
       0.010130575 0.16770783 -0.04326984 -0.00041166256
000060 8a 04 60 be c9 dd 16 be fd bd 82 be b6 1c 21 3d
       -0.21876732 -0.14733042 -0.25535575 0.03933402
000070 20 02 0b 3e 32 fa 4a be d8 c3 66 bd ba 0f 1e bd
       0.1357503 -0.19822004 -0.056339115 -0.038589217
000080 60 6f 3d be a3 8b 9e bd 42 8c 4d 3d d2 9f 40 3e
       -0.18499517 -0.07741477 0.05018259 0.18810967
000090 4b d0 73 be 66 59 01 3d fd d3 83 bd 51 1b 95 3e
       -0.23809926 0.031579398 -0.06436918 0.29122403
0000a0 3c 91 0c 3e 9d 17 2b 3d 7f 8e 55 be 26 ee 86 3c
       0.13727278 0.041770566 -0.20855139 0.01647098
0000b0 36 51 84 3d a5 ec e3 bd c5 11 e0 3c f4 24 93 be
       0.06460802 -0.11129121 0.027352223 -0.2873913
0000c0 c4 bf a1 3d 1b 3d 90 b8 5c 0e 0e bd c4 93 04 3e
       0.078979045 -6.877837e-05 -0.034681663 0.12946993
0000d0 c0 b0 53 be ae a5 f9 bd b0 c8 13 bd f4 3b 0f 3d
       -0.20672894 -0.12189804 -0.036080062 0.034969285
0000e0 0f 6b 30 3e bf 15 6f 3e e9 35 86 bd 4a 31 07 3e
       0.1722834 0.23348139 -0.06553251 0.13202396
0000f0 21 75 4d 3e 60 ea a7 3d a7 73 9a 3d 72 ab 28 3e
       0.20064212 0.08199 0.0754159 0.16471651
000100 88 86 91 bc e8 7a 72 be fe ad 60 be 33 bd ac 3e
       -0.017764345 -0.23679698 -0.21941373 0.33738098
000110 1f 43 fc 3b 52 32 60 be 16 49 6a 3c 05 88 de 3c
       0.007698431 -0.21894196 0.014299652 0.027164469
000120 b2 1e 32 be 75 26 0c be 7d 33 12 be 0e c6 55 3e
       -0.17394522 -0.13686545 -0.14277454 0.20876333
000130 2b 47 1c 3d 1e 37 83 bd 52 39 36 bc d6 ff 34 bd
       0.03815381 -0.06406997 -0.011122065 -0.044189297
000140 a2 7a 30 be 61 e0 bf bd 65 ee b9 3e 1d f1 2b be
       -0.1723428 -0.09368969 0.36314693 -0.16791196
000150 a3 74 ef bb 77 54 47 be 90 b8 31 3d ef a9 1a be
       -0.0073076054 -0.19465815 0.043388903 -0.15103887
000160 41 e2 49 be 14 6a 2d 3e 71 35 55 bd c4 36 3d bd
       -0.19715215 0.16934997 -0.05205292 -0.046194807
000170 cf 85 ff 3d 75 01 02 3e 24 98 1f 3d 8b 0b b0 bd
       0.12476694 0.12695868 0.038963452 -0.08595952
000180 b2 19 46 bd dd d3 d6 bd dc c5 2c bb a3 46 26 3e
       -0.04836435 -0.104896285 -0.002636305 0.16237883
000190 d1 da 96 bd fb 3c d9 3d fd 9a 01 3e c6 5b 44 3c
       -0.07365955 0.10607334 0.1265678 0.011984771
0001a0 db 94 e1 3d 99 cc 14 3d 91 ec 6d 3e af 28 46 3d
       0.1101472 0.036327932 0.23234774 0.048378643
0001b0 84 a7 cf 3c 5e f1 87 bc 39 c9 85 be c3 a2 42 be
       0.025348432 -0.016594585 -0.26130083 -0.19007401
0001c0 16 a5 bb 3d 58 4e 30 bd c6 66 85 3c 99 1a 06 be
       0.09162347 -0.043043464 0.016284358 -0.13096084
0001d0 1f bc 8f 3c 5c c4 d7 bd ff 2b 85 3c a2 36 0f be
       0.017545758 -0.105354995 0.01625633 -0.13985685
0001e0 73 22 25 bd 56 a9 0e bd 8e 92 88 be 13 20 e2 3c
       -0.040316056 -0.03482946 -0.26674312 0.027603185
0001f0 06 85 20 be 0a fc ab bd b0 c3 78 3e d3 e7 09 3e
       -0.15675744 -0.08397682 0.24293399 0.1346734
000200 16 e3 f9 3d 58 69 cb 3d f6 a6 28 3e e9 ac b1 3d
       0.12201516 0.09932202 0.1646994 0.08675558
000210 b3 f2 38 3d 80 bc 40 3e 32 54 c9 3d 37 d9 9c bc
       0.04515333 0.18821907 0.09830512 -0.019146545
000220 3a f3 1f 3e d2 20 ab 3d 76 d2 3e be ad 5f ad bd
       0.15620127 0.08355869 -0.18634972 -0.08465514
000230 8b 7f db 3d c1 7d 6f 3b 2b 71 8d bd b2 27 2e be
       0.10717686 0.003654346 -0.06906351 -0.1700733
000240 42 f7 87 bd ac 7f 17 3e 37 3b 1e 3e 36 07 11 3e
       -0.066389576 0.14794797 0.15452276 0.14162907
000250 7b e7 f4 bc b4 cd b1 bd cf 55 01 3e 50 53 29 3e
       -0.029895535 -0.08681813 0.1263039 0.16535687
000260 ee 83 98 be dd 15 7a 3d 2d 00 51 be 6b 44 69 bc
       -0.29788154 0.061056007 -0.20410223 -0.0142375035
000270 28 41 70 be 49 80 37 bd e5 64 39 bc 41 0f c8 bc
       -0.23462355 -0.044800077 -0.011315559 -0.024421336
000280 16 1a 32 3e f0 a4 14 3e a7 b2 3f be af 3d 88 3c
       0.17392763 0.14516044 -0.18720494 0.016630976
000290 c2 0a 03 bc fe 53 c6 3c 6d 01 9e 3d 4d 99 55 3e
       -0.00799817 0.024209972 0.07715116 0.20859261
0002a0 31 05 fa bc ce 67 d3 3d e0 96 ee bd d2 d2 3f 3e
       -0.030520054 0.103225335 -0.11649871 0.18732765
0002b0 4e aa 0c 3d 4a 30 9a 3d 55 2d 52 3c 0e f2 0d be
       0.034342103 0.07528742 0.012828191 -0.13861868
0002c0 c7 5c 88 bc 4e 69 fa 3d 9e 0c 57 3e d8 6c 4f 3d
       -0.016645802 0.122271165 0.21000907 0.05064091
0002d0 4e 66 0d be 5c ea 97 3d ba f1 b2 bd 10 dd a8 bc
       -0.13808557 0.074177474 -0.08737512 -0.020613223
0002e0 a1 a5 ca 3d 56 03 b0 bd c6 3e df 3d f4 cf 79 3c
       0.098948725 -0.08594386 0.10900645 0.015247334
0002f0 c7 2a d3 bc c9 f3 5d bd 7a 28 0f 3e 84 dc a0 3d
       -0.025777234 -0.05418757 0.13980284 0.0785456
000300 26 df 13 be 76 56 fd bd fd 87 4f 3e e2 fe bd 3d
       -0.14440593 -0.12370007 0.20266719 0.09277131
000310 78 d9 31 3e c5 00 c1 3d 5d c6 3c bd bb 4b 62 3b
       0.17368114 0.09423975 -0.04608761 0.0034530002
000320 1e 99 e3 3d 96 8b c7 3d ee 9c 3c be fd 28 9a bd
       0.11113189 0.09743421 -0.18419239 -0.07527349
000330 6f 6e 54 3c 9d 74 31 bc 6b 30 d6 3d 65 b3 0c be
       0.012965783 -0.010831025 0.10458454 -0.13740309
000340 09 f8 be bc e9 69 be bb 8d 7c 0a be 94 8b 43 3d
       -0.023311632 -0.0058109653 -0.13524075 0.047740534
000350 b5 10 50 be 25 46 83 be d2 fb fc bd 5d 3d 69 be
       -0.20318873 -0.25639454 -0.123527184 -0.22777314
000360 87 2f 5b 3d 81 51 b3 bd f8 e2 ec bd 3d 51 10 be
       0.053512122 -0.0875578 -0.11566728 -0.1409349
000370 90 96 50 3e f7 3d 11 3e 80 21 60 be 6e d9 76 3d
       0.20369935 0.14183794 -0.21887779 0.06026595
000380 38 10 b5 3d c2 37 df 3d 68 a6 d8 bd 72 43 a9 be
       0.08840984 0.10899307 -0.105786145 -0.3305927
000390 ee ad fe 3d 22 fd 88 be 18 b0 38 be 85 7d b3 bd
       0.12435518 -0.26755625 -0.18035924 -0.08764175
0003a0 30 69 8a 3d 7a 1e 9c 3d 9d 50 60 3e 73 91 05 bc
       0.06758344 0.076230004 0.21905752 -0.008152354
0003b0 c6 9b 36 3e e9 e7 a7 3d b9 49 03 3e ea e5 4c be
       0.1783286 0.0819853 0.12821092 -0.2000958
0003c0 50 60 e0 bd 12 e1 76 3d 94 7e 83 bd 57 04 66 be
       -0.1095587 0.060273238 -0.06420627 -0.22462593
0003d0 80 b8 a9 bd 5d 61 3e bd 85 6b 6a be 8f 6d b9 bd
       -0.08287144 -0.04647957 -0.22892578 -0.090541
0003e0 1f d3 b2 bc 4c cb c9 3d 03 e9 07 bd 86 cf 1a bb
       -0.021829186 0.09853229 -0.0331812 -0.0023622229
0003f0 9b 97 7b bd 28 40 3d be b0 be 91 be 45 1c 36 bc
       -0.06142388 -0.18481505 -0.28465796 -0.011115138

fc3.weight f4 [6, 256]
000000 23 b5 8d bd 30 1e 3f 3e 2b 31 14 be f7 f0 61 3d
       -0.06919315 0.1866386 -0.14471881 0.055161443
000010 ef 65 9c 3d dc 63 3d 3e b4 a4 90 bc 88 4a d6 bc
       0.0763663 0.18495125 -0.017656662 -0.026158586
000020 00 27 90 bd ac 6e 57 3e 4b 54 69 3d dd 13 88 3d
       -0.07038689 0.21038312 0.056965154 0.066444136
000030 78 25 e6 3d 1f 20 c5 bb 9c 1e 1f be 4b 7c d1 3d
       0.11237615 -0.006015792 -0.1553902 0.10228785
000040 ac 7f 32 3d 7a 5d 18 be fb 6d 2f bd 53 5d 10 be
       0.04357879 -0.14879408 -0.042829495 -0.140981
000050 1d 6b fa bb 51 6d 8c 39 fb c8 bc bd 46 df 61 be
       -0.0076421634 0.00026784328 -0.092180215 -0.22057828
000060 23 fb a0 bc 07 56 3d be 8e f2 a0 bc e8 94 76 bd
       -0.019651001 -0.18489848 -0.01964691 -0.0602006
000070 fb 88 2f 3c 02 cb 3a 3e 79 de 6b 3d 1d 5b 88 be
       0.010713811 0.18241504 0.057585213 -0.26632014
000080 ae d7 60 3c 35 b3 d4 3d b4 ef 7e 3d 57 73 3e bd
       0.013723297 0.103857435 0.062240317 -0.046496715
000090 6c 8b 9f 3b 9f 4b ca bc 67 aa 71 3d 82 22 97 be
       0.0048689153 -0.024694262 0.0590004 -0.29518515
0000a0 e2 ba 25 3a 2b 6e 38 3d 6c e0 b5 3d fd 05 bd bc
       0.0006322098 0.04502694 0.08880696 -0.023074144
0000b0 f7 fb 10 3e 4d 1a c7 3c 91 84 44 3c e3 c4 38 bc
       0.14158617 0.024304533 0.011994497 -0.01127741
0000c0 0e e8 6c 3d 2e 11 3b bd 32 a5 4e 3e d1 b5 1e 3e
       0.057838492 -0.04567068 0.20180205 0.15499045
0000d0 9e 7c dc bd f9 1b 15 3d 66 ee 3e 3d 37 f2 8a bb
       -0.10765956 0.03640363 0.046614073 -0.0042403
0000e0 74 b6 68 3b 3a 56 a2 be d4 ba d8 3d 1c 84 bd 3d
       0.003550914 -0.3170641 0.1058251 0.092537135
0000f0 3e d2 d3 bc af 53 57 3d 92 46 bb be 99 13 93 bc
       -0.025857087 0.05257004 -0.36577278 -0.01795368
000100 08 6c ff 3c 8e 8f 38 bd eb 48 be 3d 97 e8 7f be
       0.031179443 -0.04505878 0.09291252 -0.2499107
000110 a7 9a 84 3d 3a bb b4 ba 86 8b 0a 3c d4 85 59 bd
       0.0647481 -0.0013788708 0.008456117 -0.053106144
000120 ea 4f 0f 3e 1a fc 93 bd e8 09 e6 3c c0 2e 04 3d
       0.13995329 -0.07225819 0.028080896 0.032271147
000130 7c e3 a6 ba af 7f 69 3d 66 f0 dc bd a3 f2 53 3d
       -0.001273259 0.057006534 -0.1078804 0.05174507
000140 aa d5 86 3d ff 2e 44 3d 43 4a 70 be bc 67 26 bd
       0.06583722 0.04789638 -0.23465829 -0.040626273
000150 83 11 86 bd eb 96 2b 3d 25 9c d5 3c 8b 66 66 bc
       -0.06546309 0.041891973 0.026075432 -0.014062534
000160 63 73 39 3d 6f 7d a6 bc f3 bb c3 bd 83 e7 ce 3b
       0.045276057 -0.020323483 -0.09557333 0.0063142194
000170 af 12 8f bb ea 9a d7 3d ff 09 31 bd 13 0d 54 3d
       -0.004366241 0.105275944 -0.043222424 0.05177028
000180 c1 e2 22 3e db 83 32 3e c8 48 84 3e 93 c0 3b bd
       0.15906812 0.17433111 0.25836778 -0.04583795
000190 b1 dd 8b be b1 42 ae bb 54 0e fd 3c 7f 45 2e bd
       -0.27317575 -0.005318009 0.030890621 -0.042546745
0001a0 08 ee 4b bc e7 12 0b bd 28 3a e5 3d 78 14 dd 3b
       -0.012446888 -0.033953574 0.11192733 0.006746825
0001b0 0a bc 92 bc f4 01 18 bd cb 4f 07 3c ed cb f5 bc
       -0.01791193 -0.037111238 0.00825877 -0.030004466
0001c0 65 90 c3 bd dc 7b 36 3e 3f 96 3b be 13 44 89 3e
       -0.095490254 0.17820686 -0.18319033 0.2680975
0001d0 64 29 20 be fa 11 a4 bc 78 3e 86 3d 0e 08 2d 3e
       -0.1564079 -0.020028103 0.06554884 0.16897604
0001e0 fb 65 ec 3c c7 17 93 bc 6d 9d 94 bc ac 27 d7 bd
       0.028857222 -0.017955674 -0.018141473 -0.10505614
0001f0 0a 86 23 be 2f 15 6a 3d 22 33 7c bd 33 a2 f8 bd
       -0.159691 0.05714911 -0.0615722 -0.12140312
000200 ff d5 76 bd c1 ee 88 3d 2d 28 d5 bd 00 79 07 bf
       -0.060262676 0.06686164 -0.104080535 -0.52919006
000210 9b d9 7d 3d b5 35 a5 3d 52 4b 49 3d 65 77 54 be
       0.061975103 0.080668844 0.049144097 -0.2074867
000220 a1 54 98 bd c1 f0 bf 3d 7b 2e 25 3e 2c 88 be 3d
       -0.07438017 0.09372092 0.16131012 0.093033165
000230 21 d9 86 bc 3a 0e 24 3d 8e 68 ad bc 7f a3 57 3b
       -0.016460957 0.04005263 -0.02116802 0.0032903848
000240 9d 3d 6f bc 1d c8 f7 3d 6e 07 1a 3f 39 06 df bd
       -0.014602092 0.120987155 0.60167587 -0.10889859
000250 02 ff b6 3b c0 98 96 3d 33 04 60 bd 7b 6e cc bd
       0.0055845985 0.073533535 -0.054691505 -0.0998201
000260 75 5e c0 3d 9c b7 74 bc 89 1e 6e be 82 58 59 bd
       0.09393016 -0.014936354 -0.23253836 -0.053062923
000270 66 e7 cd 3d 1a 0c 28 3e 58 36 89 3d 58 86 31 bd
       0.100539014 0.16410866 0.066998184 -0.04334101
000280 26 93 50 3d 64 50 01 bd 67 41 7b 3d bd 2a d9 bd
       0.05092158 -0.031570807 0.06134167 -0.10603855
000290 c7 0a 0b bd 8f 52 01 ba 35 cc 5c bd d7 4a 2b be
       -0.033945825 -0.00049332617 -0.053905685 -0.16727768
0002a0 a5 bf f6 3c c6 0b 9a 3d dd 3e b7 bc 8b 09 ab bd
       0.03012068 0.07521777 -0.022368843 -0.083514296
0002b0 7f 9b 4c 3e a2 8e 18 3e fb ee 62 bd dd 25 0b bc
       0.19981192 0.1489816 -0.05540369 -0.008492914
0002c0 43 8d 61 be 0b ab 48 be ea a2 f1 b9 e7 e6 d1 bd
       -0.22026543 -0.19596498 -0.00046088482 -0.10249119
0002d0 e8 27 90 3d d0 48 70 bc ed 24 8e 3e 65 20 d5 3d
       0.070388615 -0.014665797 0.27762547 0.104065694
0002e0 74 87 e6 3c a7 c8 8a bc c7 1f dc 3c 97 54 c5 bd
       0.028140761 -0.016941382 0.026870621 -0.09635275
0002f0 ff a6 bf 3c 97 c5 33 bc 93 39 b0 3d c3 d8 31 bd
       0.02339506 -0.010972402 0.086047314 -0.04341961
000300 ed 05 3a be a4 ea e9 3d d4 54 ff bd f3 db 81 bd
       -0.18166323 0.11421707 -0.124673516 -0.0634078
000310 e1 79 57 bd d4 af f8 be 18 b9 2d 3d 25 d6 2f be
       -0.052606467 -0.48571646 0.042412847 -0.17171533
000320 f9 07 ac bb c7 3f 54 3c c4 68 86 be 2f 93 a1 bb
       -0.005249974 0.012954659 -0.26251805 -0.0049308757
000330 fd 85 fd 3d fa fd e4 bd 73 1c 10 3d 70 45 0e bd
       0.12379072 -0.11181255 0.03518338 -0.03473419
000340 3e 91 91 3c 1f 14 b2 bd 10 2a 26 3e 6a 1f b1 3d
       0.017769452 -0.08695244 0.16226983 0.0864857
000350 10 e9 de 3d 69 5b ee bc f2 be 83 3d 1e 03 ff bd
       0.10884297 -0.029096322 0.06432904 -0.124517664
000360 6f 92 ce 3c df 6f a9 3d 82 50 d5 3d eb 34 a7 bd
       0.02521631 0.08273291 0.10415746 -0.0816439
000370 d8 0e 1b 3d 0b d4 6a 3c 05 76 b3 be 6b d4 2a 3e
       0.037855953 0.014332782 -0.3505098 0.16682594
000380 79 40 21 3e ea 1d aa 3d bf 6d 87 be 16 9e f0 bd
       0.1574725 0.08306487 -0.26450917 -0.117489025
000390 22 f5 dc bc 3d d4 56 3c 31 6a c6 3c 84 6d a9 3d
       -0.026972357 0.013112125 0.024220558 0.082728416
0003a0 66 57 03 3e 97 cb b5 bd 57 88 d5 bd 0d 94 85 3d
       0.12826309 -0.08876722 -0.104263954 0.06522379
0003b0 cf d9 2f bb 3f f1 88 bc ee 98 9b bd e3 a1 a8 3d
       -0.0026832705 -0.016716598 -0.075975284 0.082340024
0003c0 06 bc 8e 3d ac ba 03 bd 21 90 16 3e 30 15 26 be
       0.069694564 -0.032160446 0.14703418 -0.1621902
0003d0 68 6b 83 3c c8 35 08 3d 86 0b 5c 3d 80 2d 01 bd
       0.016042426 0.033254415 0.053721927 -0.031537533
0003e0 8a 77 92 3a b0 e8 1d 3d 51 7a 8d 3e ac e8 d8 bd
       0.0011174541 0.038551986 0.27632383 -0.10591254
0003f0 c3 b0 f6 bd d9 da 94 bb 20 81 f0 bd 8c b3 b4 3d
       -0.12045433 -0.0045426902 -0.11743379 0.08823308

fc3.bias f4 [6]
000000 25 4d 7e bd 0d 25 36 be 11 b2 f0 3d 7d 6e e9 3d
       -0.06208529 -0.17787571 0.117527135 0.11398027
000010 c2 e9 8a 3d bf db 84 3d
       0.06782867 0.06487226
