model_save/bc/bc_policy15.pt (torch, 289751 bytes, 6 tensors)

fc1.weight f4 [256, 17]
000000 09 be 21 bd b8 a9 66 3e 37 cc a0 3e 95 ac 32 3f
       -0.039487872 0.2252568 0.31405804 0.6979459
000010 4d d8 27 3e 3a c8 bf bc aa 61 2a bf 76 4f 8e be
       0.16391106 -0.023410905 -0.66555274 -0.27795
000020 a2 9c a9 be f9 30 d5 3e 6a 33 b5 3e 8b 75 1d 3e
       -0.33127314 0.41638926 0.35390788 0.1537687
000030 3b b9 4f 3e 9d b6 f4 3d 02 a9 37 be 59 3a 3d be
       0.20285504 0.11948893 -0.17935565 -0.18479289
000040 ab 1a 05 3e 0c 87 d1 bf 38 94 dc bd 75 bd 50 3e
       0.12998454 -1.6369338 -0.10770458 0.20384772
000050 ec 12 56 3e 37 fa 9c bd 4f d6 c3 bd 35 47 93 3c
       0.20905656 -0.07664912 -0.095623605 0.01797829
000060 55 76 e4 be 4e 7c 4d 3b 0d f9 11 bf de 99 91 3e
       -0.4462153 0.003135461 -0.57020646 0.28437704
000070 8a cc a8 3d aa 5e f6 3d 01 5a 33 bc 33 8e cd 3d
       0.08242138 0.120297745 -0.010946752 0.10036888
000080 1d 0b 38 3e 06 3a 18 3e a2 41 b7 bf 72 70 1f be
       0.1797299 0.14865884 -1.4316905 -0.15570238
000090 23 ab 3d be 14 f8 0e bf 21 59 9d be ff 14 ba be
       -0.18522315 -0.5584729 -0.30732062 -0.36344144
0000a0 d4 aa 99 3d 57 07 ce be ed ef e3 bd 5d 2f 7d be
       0.07503286 -0.40239975 -0.111297466 -0.24725099
0000b0 ee 8a 36 3d 72 db 1f 3d 4e f2 48 3d 05 be d5 3d
       0.044566087 0.03902764 0.049059205 0.10436634
0000c0 d1 a5 6a bd 9c 42 af bd e5 38 fd 3d 8d f1 04 bf
       -0.05728704 -0.085576266 0.123643674 -0.5193108
0000d0 21 4b 6c 3d 24 66 64 bd ea 37 5e be 0a e8 fa bd
       0.057688836 -0.05576147 -0.21701017 -0.12251289
0000e0 b0 45 de bd 2e 8c d0 3d 56 d7 da 3d a2 f2 48 be
       -0.108531356 0.10182987 0.10685603 -0.19623807
0000f0 37 4d eb bd 52 65 8b 3e 65 39 7b 3e 68 16 d7 3d
       -0.11489337 0.2722574 0.24533613 0.105023205
000100 ae 53 93 bd b5 78 82 3e 47 f8 16 be df 7d 08 3d
       -0.07193695 0.25482717 -0.14743148 0.033323165
000110 67 0e 04 3f 5d 93 1d c0 66 3c 8b 3e a5 e6 76 be
       0.51584476 -2.4621193 0.27194518 -0.24111421
000120 da 2b 93 3e 57 4e 93 3e 3d a8 75 3e 3c 95 5d 3e
       0.28744394 0.28770706 0.23989959 0.2163896
000130 33 21 97 bc d1 82 65 bd 10 b6 63 be 71 ac 3e bb
       -0.018448448 -0.05603296 -0.2223742 -0.0029094482
000140 10 63 27 3d 12 61 c0 bd 1b 18 39 3d a6 d4 28 3c
       0.040865958 -0.09393515 0.045189004 0.010304606
000150 f1 84 44 3c 4b b8 4b bf 45 ff c0 3e 0a 95 e2 be
       0.011994586 -0.79578084 0.37694755 -0.44254333
000160 30 cb 2e bf 45 e8 4f 3f b1 61 f0 3e cf 3d 35 3e
       -0.6827879 0.8121379 0.46949533 0.1769936
000170 84 ef de bd a3 62 63 be 17 fa d2 be e4 9e 09 be
       -0.10885528 -0.22205596 -0.41206428 -0.13439518
000180 1f 4a 74 3d e5 53 8a bd 93 4f e3 bc fd 33 74 bd
       0.059641 -0.06754283 -0.027747905 -0.059619892
000190 8c a5 cf bd 4c 21 a6 bd 23 cf 07 3f 40 0a 19 be
       -0.101389974 -0.081118196 0.5305044 -0.14945316
0001a0 fa 83 4f 3e 4a d8 15 3d 1b 86 3a be 53 69 c0 3e
       0.20265189 0.036583222 -0.1821522 0.37580356
0001b0 b4 ce 07 bf d1 41 88 3e d6 a5 ba bd b9 90 2c 3f
       -0.5304978 0.26612714 -0.09113662 0.6740833
0001c0 bf eb ca 3e a5 08 87 bb 7c 9c 7c bc 09 f3 2a 3e
       0.39632985 -0.0041209036 -0.015418168 0.16694273
0001d0 12 67 a9 bd d0 5b 46 3e 0b 0a 2b be 29 ad 48 3e
       -0.08271612 0.19370961 -0.1670305 0.19597305
0001e0 5e 39 e2 3e aa 24 2e 3e 3f f8 0a 3f 46 12 bb 3c
       0.44184393 0.17006174 0.54285043 0.022835862
0001f0 42 00 b4 be 6f f7 bc be e2 b7 ef 3e 0d 65 24 3d
       -0.35156447 -0.36907527 0.4681998 0.040135432
000200 1a fa 9f bd 09 43 53 3e 31 ab 7f 3d 14 ab 65 3b
       -0.07811375 0.2063104 0.06241912 0.0035044597
000210 78 8e 77 3d f8 4d ac 3d c4 04 c7 3d 13 68 26 bd
       0.060438603 0.08413309 0.09717706 -0.040626597
000220 bb 34 3a bf b7 89 0e 3e 83 be 2a 3e 88 62 87 be
       -0.7273671 0.13919722 0.16674237 -0.2644236
000230 e0 47 a3 bd 1f 28 33 bf 34 92 04 bf 5e 0f bf 3e
       -0.079726934 -0.69983095 -0.5178559 0.37316412
000240 03 59 23 be 89 e7 02 bf de e3 40 3f ae 1a 36 be
       -0.15951924 -0.51134545 0.753477 -0.17783615
000250 1d 87 de bd 0f 02 6b 3d f1 39 37 bd 12 d3 82 3d
       -0.108656146 0.05737501 -0.04473299 0.06387915
000260 8e 46 ed 3d 74 6a f5 be eb 29 fd be 57 26 96 3d
       0.11585723 -0.4793278 -0.49446043 0.073315315
000270 3c a7 c3 be 2e 8e 82 bd 39 54 3e bf 67 dc e5 3e
       -0.38213527 -0.06374775 -0.74347264 0.44894716
000280 5e 3b a8 be 67 0c de bd a8 04 29 bf e9 3c 80 bd
       -0.32857794 -0.10842209 -0.6602273 -0.06261618
000290 7e 49 8d ba 1e 7b b7 bd 01 69 67 3e e5 16 56 3d
       -0.0010779349 -0.089590296 0.2259865 0.052267928
0002a0 d2 f9 28 3d c6 12 00 be a6 06 87 be a2 44 32 3e
       0.041253872 -0.12507161 -0.2637226 0.17408994
0002b0 01 2a e8 3c c6 a8 0b be d9 ac 77 3e f2 d0 ea be
       0.028340342 -0.136386 0.2418703 -0.45862538
0002c0 93 9d 72 3e 43 93 6b be ed a4 c5 bd 40 53 18 bf
       0.23692922 -0.23005395 -0.09650598 -0.5950203
0002d0 17 35 a4 3e 42 e8 02 3d 82 3d 0a be 6d 27 e0 3d
       0.32071754 0.03195978 -0.13500026 0.1094502
0002e0 86 12 30 3e a7 6e bb bd 63 a8 0e 3d 5c f2 13 bf
       0.17194566 -0.09151965 0.034828555 -0.57791686
0002f0 34 6a 81 3e 61 24 d2 be 22 83 d8 be 3c b2 27 be
       0.2527634 -0.4104338 -0.42287546 -0.16376585
000300 79 0b e5 3e 7f 59 5a bf e5 37 15 be 6c c4 40 be
       0.44735315 -0.8529281 -0.14572103 -0.18824929
000310 ea ab b7 be 5b b0 81 3e ac 6a 7c 3d e0 16 39 3e
       -0.35873348 0.2532986 0.061625168 0.18075132
000320 c7 9a 81 bd 54 06 b6 3d 9e 78 b0 bd 8f ef 4a 3d
       -0.063283496 0.08887926 -0.08616756 0.049544867
000330 4b 72 05 c0 d9 7f cf bf 09 f2 10 bf b4 71 94 be
       -2.085101 -1.6210891 -0.56619316 -0.28993
000340 2b 4f ad be b8 cb 1e be 8e 07 a2 bd de c4 40 be
       -0.33849463 -0.155074 -0.07911597 -0.18825099
000350 80 93 e6 bc be 63 91 be 4b 77 a3 bd e0 65 21 3e
       -0.028146505 -0.2839641 -0.07981738 0.15761518
000360 dd e1 81 bd e9 ca a4 3d 4b 2f 16 ba 94 48 14 3d
       -0.06341908 0.080465145 -0.0005729093 0.03620203
000370 ce 50 87 bd 91 a4 87 bf d2 06 ca bd 76 e1 11 be
       -0.06607209 -1.0597097 -0.09864582 -0.14246163
000380 9e e8 c0 3d 50 46 c9 3e ad cf 8d bd a9 58 a2 be
       0.09419368 0.39311457 -0.06924377 -0.31708267
000390 2a eb 8b be 37 c9 d7 bc 22 a0 5f be 75 1f 60 3e
       -0.27327853 -0.026341064 -0.2183843 0.21887
0003a0 2c 3c 07 bd 64 4e ed 3d f8 4d a4 bc 38 d7 0b be
       -0.03301637 0.115872175 -0.02005671 -0.13656318
0003b0 df 57 bd 3d d8 bd 42 be 96 07 f3 3f 5b 81 69 3e
       0.09245276 -0.19017732 1.898669 0.22803251
0003c0 94 6e 0e be 59 4e d2 bd 2a 7c b2 3e b5 91 ae 3d
       -0.1390937 -0.1026885 0.34860355 0.08523885
0003d0 a0 f6 9e 3e ed 9a 96 bd 30 02 aa 3d d4 a1 be 3e
       0.31047535 -0.073537685 0.083011985 0.3723284
0003e0 ac dd d8 be 44 62 0b 3e b7 2a 8d bd 28 54 83 bd
       -0.42356622 0.13611704 -0.06892913 -0.06412536
0003f0 08 41 53 bd 2d 78 e4 3c 31 69 48 3d fc 2a 7d bd
       -0.05157569 0.027889336 0.048928443 -0.06180857

fc1.bias f4 [256]
000000 74 d1 fb bc f9 d1 c7 3c 63 aa a4 3e dd 95 ff 3c
       -0.030739523 0.024392115 0.32161245 0.03119939
000010 dd c1 5f be 0b 6a 90 3e c2 64 f8 bc 38 3b f1 3d
       -0.21851297 0.28205904 -0.030321483 0.11778873
000020 b7 86 8f bd 89 34 e6 3e 5a d6 9f be 49 cb 03 bd
       -0.07008117 0.44961956 -0.31218225 -0.03217629
000030 a4 ac 81 3b 6b 09 36 3e 6e 57 c3 bd 60 4c aa bc
       0.003957348 0.1777703 -0.0953816 -0.020788372
000040 a0 9f f1 3d c8 c7 30 bc 63 fe a1 bd 08 85 8c bd
       0.11798024 -0.010789819 -0.079098485 -0.06861311
000050 56 f4 d5 bd b5 13 f3 3d 8e 8d 4d 3e 6d 68 43 3e
       -0.10446994 0.11868993 0.2007353 0.19082804
000060 ef cc b2 3d f7 49 14 3e 80 96 1a be 33 81 70 3d
       0.08730494 0.1448134 -0.15096474 0.058716964
000070 88 36 25 3e 6c 77 91 be f8 61 8a bc ed 83 29 3e
       0.16134083 -0.28411424 -0.016892418 0.16554232
000080 69 b9 5c bd 66 37 6c bd b0 b4 26 be ee 84 0b be
       -0.05388776 -0.05767002 -0.16279864 -0.13624927
000090 01 46 e1 bd 86 19 3d be eb 7d b6 3d 3a c8 9f 3d
       -0.1099968 -0.18466768 0.08910736 0.07801862
0000a0 0a 2f e4 3e 2b e6 ec bc 7b 6d 0c 3e 60 35 5f 3d
       0.44567138 -0.028918346 0.13713638 0.05449426
0000b0 95 fa 32 be e7 87 c6 bc 82 cd 25 3e 7b 9d 97 3e
       -0.17478402 -0.024234725 0.16191676 0.29612336
0000c0 e2 eb 06 3e 5f 69 a5 be f4 f6 18 be 2f 47 ac be
       0.1317592 -0.32306954 -0.14937955 -0.3364806
0000d0 7d fb 8a 3e 25 48 3a be 26 5c 8b 3c 10 6e 70 be
       0.27144995 -0.18191583 0.017011713 -0.23479486
0000e0 c8 ab 53 bd f2 a9 4f 3d 6e c8 01 3d ff 67 81 3e
       -0.051677495 0.05069918 0.031685285 0.25274655
0000f0 91 e8 cc 3d b3 0b 35 be f9 0c dd bd ee 49 14 3d
       0.10005296 -0.17680244 -0.1079349 0.036203317
000100 1c 22 7d bd 35 a7 d2 be de 45 83 bd ae 38 95 be
       -0.061800107 -0.41143194 -0.064098105 -0.29144806
000110 8d c9 54 3e f9 38 2e 3e e1 97 93 bd 25 32 d3 bd
       0.2078001 0.17013921 -0.07206703 -0.10312299
000120 a4 2f 80 be c6 ce 76 3e f5 b0 22 3e 7a b6 2b be
       -0.25036347 0.24102315 0.15887816 -0.16768828
000130 79 e5 86 bd e3 91 da 3e ac 36 48 3e fc e2 98 bd
       -0.06586737 0.42689428 0.19552106 -0.07465169
000140 c4 e4 72 be 08 68 33 3e 4c 29 cb 3c 56 a1 0b be
       -0.2372008 0.17520154 0.024799965 -0.13635764
000150 f3 ed 21 3e fd 7a 85 bd df 0d ce bd bc 16 0d 3e
       0.15813427 -0.06517599 -0.100612395 0.13778204
000160 98 c3 95 3e c5 1b c7 3c c9 0c 0e bd 66 0e a3 3e
       0.2925079 0.024305234 -0.03468016 0.31846923
000170 3b f0 1b be 03 13 98 bd 35 f4 bd bc 94 0e 42 3e
       -0.1522836 -0.07425501 -0.023187736 0.18950874
000180 2c 01 93 3e f5 d9 d0 3d bd dc 32 be b4 c7 6f be
       0.28711832 0.10197822 -0.17467017 -0.23416024
000190 b5 aa 8b 3e e0 ca 11 be e9 5c 2c 3e 62 c2 2b be
       0.27278677 -0.14237547 0.16832317 -0.1677337
0001a0 ee 9f aa 3e f5 1e 85 3e 5c c5 81 bd 5d 7a 4e 3d
       0.33325142 0.2600018 -0.063364714 0.050409663
0001b0 ca a5 5e be ac e2 93 bc ee d0 1f be 48 0f 5c 3d
       -0.21742931 -0.018052422 -0.15607044 0.05372551
0001c0 25 1e ac 3d ad 33 10 be f6 c1 63 bc 50 68 b3 ba
       0.08404187 -0.14082213 -0.013901224 -0.0013687704
0001d0 1e c7 cf 3e 76 66 a5 3d 6a b4 8d bc e6 e4 1d 3e
       0.40581602 0.080761835 -0.017297942 0.15419349
0001e0 d3 6a ab be ad 7a 4d be 99 bf 8a be 25 ab 1a 3e
       -0.33479938 -0.20066328 -0.27099302 0.15104349
0001f0 89 c8 3d be d0 f4 98 3d e7 32 29 bd a7 6f db be
       -0.1853353 0.07468569 -0.04130831 -0.4285862
000200 bb e5 14 be 84 53 26 3e 50 87 8d bd cb f6 39 3d
       -0.1454076 0.16242796 -0.069105744 0.045401376
000210 16 99 79 be 46 4c c8 3c 94 82 ca 3e c6 55 87 3e
       -0.24374804 0.024450433 0.39552748 0.26432627
000220 56 57 79 3d 20 b9 7b 3d a5 d2 d1 be 23 23 0b be
       0.060874306 0.061455846 -0.40981022 -0.13587622
000230 a6 81 99 3e 55 dc 1f 3d b5 a2 ff bd f1 9a 67 3c
       0.29981726 0.039028484 -0.12482206 0.014136062
000240 24 27 56 be 17 2d c8 bd 21 c3 5b 3c 07 d9 9f be
       -0.20913368 -0.09774225 0.013413222 -0.31220266
000250 23 3e 56 3d 50 3f 50 be ed 94 a1 3e c1 4d 13 be
       0.052305352 -0.20336652 0.31558934 -0.1438513
000260 a2 b1 01 be b5 78 81 be 5f 9f 79 3d 2f 2d 60 be
       -0.12665418 -0.25287405 0.060943004 -0.21892236
000270 ba dc 91 be 9a e4 13 bd 44 21 d7 bd 74 a4 ac 3e
       -0.28488714 -0.036106683 -0.10504392 0.33719218
000280 ee e4 d6 bd b4 1a c8 3d 80 ae 4e be 2a 9f e4 3d
       -0.104928836 0.09770718 -0.20183754 0.11163171
000290 f4 18 ac 3d 15 fa 0c 3e f6 b2 5e be df 04 53 3d
       0.08403197 0.13767274 -0.21747956 0.051518317
0002a0 47 a6 ad 3e 32 92 80 3d d9 0f 8c bd fa cc 18 be
       0.33915922 0.062778845 -0.0683896 -0.14921942
0002b0 d3 7c d8 bd 36 a0 17 bc ec 09 58 3e aa bc f2 3d
       -0.10570683 -0.009254506 0.21097535 0.11852391
0002c0 ba ce 20 bc 33 50 c5 3c a8 cc 0d be ca 76 78 be
       -0.009814912 0.024086094 -0.13847601 -0.24264064
0002d0 b9 bc bc bc 3b 7a b1 3e b9 d2 11 be b8 e0 a9 3e
       -0.023039209 0.34663567 -0.1424054 0.3317926
0002e0 38 fe 7b be 04 54 0a 3e 6a 0c 6c be e9 42 22 be
       -0.24608696 0.13508612 -0.2305161 -0.15845837
0002f0 fc 3b de 3e 38 c3 45 3d 52 5c cd 3d 57 52 85 bd
       0.4340514 0.04828188 0.10027374 -0.06509846
000300 4e 88 7e be 3d a4 82 be de 27 29 bd c5 73 c0 3c
       -0.24856684 -0.2551593 -0.041297786 0.023492703
000310 33 12 08 3d 76 c0 43 be 96 ce 8a 3d 54 01 d7 3c
       0.03322048 -0.19116387 0.067776844 0.02624575
000320 ef 87 63 3d 1c 17 4b be 09 57 0a 3e 87 34 e5 bc
       0.05554956 -0.19833034 0.13509764 -0.027979149
000330 68 33 8a 3e 98 70 62 be 71 8c 27 3e b8 dc 05 be
       0.26992345 -0.22113264 0.16362168 -0.13072479
000340 b7 12 2d be e7 0e 3b 3e 44 94 37 bd e5 9e 85 3d
       -0.1690167 0.18267404 -0.04481913 0.06524447
000350 b0 e9 50 be 6f 7b 9b 3d 1f cc 2c 3e b9 22 03 be
       -0.20401645 0.075919025 0.16874741 -0.12806214
000360 d7 10 84 3e 08 2f 71 be c8 aa 0e be 10 db d2 3e
       0.25794098 -0.23553097 -0.13932335 0.41182756
000370 73 71 fc bd b4 d9 03 3e 44 fc 4a be a3 4f 3d be
       -0.12326326 0.12876016 -0.19822794 -0.1848741
000380 1e 05 4e 3d f5 8e 2d 3e df 9f 82 be 8e b8 27 be
       0.05029785 0.16949065 -0.25512597 -0.16378996
000390 c7 fd a9 3d 37 56 33 be a9 1f 3c be e0 eb 19 3f
       0.08300357 -0.17513357 -0.18371452 0.6012554
0003a0 f9 73 9a 3e a5 06 17 be 70 18 e8 bd e1 04 07 be
       0.30166605 -0.14748628 -0.11332786 -0.13185455
0003b0 70 e9 41 3d 71 f9 96 be 0e 15 35 3d c3 1f a0 3e
       0.047341764 -0.29487184 0.044209532 0.31274232
0003c0 d2 f6 9b be b9 91 ad bd bd 35 fd bd c8 d4 75 3e
       -0.30461746 -0.0847506 -0.123637654 0.24006951
0003d0 7a a1 37 3e 82 ed 85 bd f4 4b 81 3d 64 67 a1 3d
       0.17932692 -0.06539442 0.06313315 0.07881048
0003e0 ff c9 20 bd 4f dd fb 3c 2d 6d a6 3e 14 62 37 bd
       -0.03925514 0.030745177 0.3250517 -0.04477127
0003f0 ff b1 a3 3c f5 b6 b8 3d 3a 23 34 3b 45 df 93 bd
       0.019982336 0.09019271 0.0027486817 -0.0722032

fc2.weight f4 [256, 256]
000000 99 db bb 3c 9e 48 5e bd e9 79 c5 bc b6 a6 c2 bc
       0.02293186 -0.054268472 -0.024105983 -0.023761135
000010 47 eb 15 3e 04 15 b4 3d fc b0 1a bb 1e e8 99 bd
       0.14640532 0.08793071 -0.0023604026 -0.07514976
000020 5c d6 7a bc 90 8c b8 3c f0 65 08 3d 07 59 19 bd
       -0.015309896 0.022527963 0.03330034 -0.03743842
000030 51 81 51 3d 78 f4 3a bb e7 32 91 3d ce ca 97 bc
       0.051148716 -0.0028527062 0.07089787 -0.018529322
000040 00 30 21 bd 68 17 dd bb fb 91 d4 3c 75 d5 2e 3b
       -0.039352417 -0.006747175 0.025948515 0.0026677523
000050 ea 82 c6 3b 72 42 97 ba c1 8f f0 3c 1d 8c 47 bc
       0.0060580866 -0.0011540188 0.029365422 -0.012179402
000060 1d a9 31 bd 09 b1 40 bc ca 25 3e 3c 6d cf 5b bd
       -0.04337417 -0.0117609585 0.011605689 -0.053664614
000070 39 01 8d bd c3 69 95 3c ec b0 a2 bd 7a e3 c5 bb
       -0.06884999 0.018238908 -0.079439014 -0.00603908
000080 65 2b 4b 3c a2 4c bd bb 7c 75 9d bd ed cf 81 3c
       0.012400483 -0.0057769576 -0.07688424 0.015846217
000090 4b b8 dd 3c 6e 7a 7d ba a6 04 6e bd 5c 05 16 bd
       0.027065417 -0.00096694275 -0.0581099 -0.036626205
0000a0 64 51 20 bd 79 f2 2b bb 8d 19 a3 bc ad f3 8e 3c
       -0.03914012 -0.0026237054 -0.019909644 0.017450178
0000b0 03 1e 24 3d 14 12 bd 3c 16 ae 27 3d a7 e7 8b bc
       0.040067684 0.02307991 0.040937506 -0.017078234
0000c0 b2 7f 90 3c 37 e6 48 3d 31 9e c2 bb 92 1e 0f 3d
       0.017639015 0.049047675 -0.005939268 0.034941263
0000d0 72 99 2e bd 2e 66 04 bd 13 46 13 bd 3b 42 76 bb
       -0.042626806 -0.03232401 -0.0359555 -0.0037576098
0000e0 b4 c2 b9 bc 24 00 80 3d e4 b7 15 bd 63 98 ba bc
       -0.02267585 0.06250027 -0.036552325 -0.022777742
0000f0 73 af 3e bc 7c 9c ec 3c 2e b6 87 bd 4f a2 98 bc
       -0.01163851 0.028883211 -0.06626545 -0.018632082
000100 82 7f b8 bd f6 a2 29 bd a8 1e 93 3a f5 1e a4 bc
       -0.09008695 -0.041415177 0.0011224346 -0.020034293
000110 d3 86 2f 3d d9 43 85 bd 5a 00 84 bd 7e 5f 97 bd
       0.042853188 -0.065070815 -0.064453796 -0.073912606
000120 00 18 42 3d 67 ac fb 3c 56 64 2e 3c 5d 71 8b bd
       0.04738617 0.030721856 0.010644039 -0.06808732
000130 85 c4 88 3d 8b a1 a5 bb d4 7b b6 bc 1e ff 61 3d
       0.06678108 -0.005054658 -0.022275843 0.05517494
000140 a6 c6 4e 3d 0f 7b 82 bb 06 54 a0 bc f2 e5 1e bd
       0.050482415 -0.003981955 -0.019571315 -0.03879351
000150 0d f0 4c 3d 69 0a a7 3b fc c8 37 3d 5e bd e1 3b
       0.050033618 0.0050976765 0.044869408 0.0068890294
000160 9e 12 91 bb d3 4a 6f 3d df e5 75 bd dd c6 98 bc
       -0.004427268 0.058420967 -0.060033675 -0.018649513
000170 36 ea 37 3d 03 70 23 bc 68 5d 42 3d b9 43 8e 3d
       0.044901095 -0.009975436 0.04745236 0.06946511
000180 30 27 2c 3d c1 14 61 bd de 37 e9 3c ab 97 95 3d
       0.04202956 -0.054951433 0.028469022 0.07304319
000190 3b ba a8 3d da 4c 5c 3b 3a 0b 0a bc d9 b9 a4 3c
       0.08238646 0.0033615143 -0.008425528 0.02010815
0001a0 3d 10 c4 bc 88 a2 dc 3b ce b1 8f 3c f6 87 92 bc
       -0.023933524 0.0067332424 0.017540839 -0.017887097
0001b0 a1 92 10 3d 17 a6 01 3d 33 4a 32 bc 15 21 95 3d
       0.035296086 0.031652536 -0.010881948 0.072817005
0001c0 3f e9 fb 3c 33 3a 4f bd 4b e3 05 bb 0f ae 30 3d
       0.030750869 -0.050592612 -0.0020429667 0.043134745
0001d0 77 4f 2d 3d 16 13 29 bd f5 54 85 bd 59 95 89 3b
       0.04231211 -0.041277967 -0.06510345 0.004198712
0001e0 1d 6c 19 bc 4d a9 f1 bc 38 1c 46 bd 1b da 33 3d
       -0.009364155 -0.029499674 -0.048366755 0.043909173
0001f0 53 be a8 3c 9c ac 2c 3d d1 53 cd 3b 5b ce 32 3d
       0.020598566 0.0421568 0.006266095 0.043653827
000200 16 68 79 3d 24 ce cc 3c 18 6c ee 3b f2 46 55 3d
       0.06089028 0.02500064 0.0072760694 0.05206961
000210 95 d0 6a bc 94 e8 11 3d fe c1 14 bd 84 ff 6b bd
       -0.014331956 0.035622194 -0.036317818 -0.057616726
000220 1c 41 ba 3c 49 58 6b 3c 8d 16 7e 3d 75 de 20 bb
       0.022736125 0.014364311 0.062033225 -0.0024546657
000230 4a 7c a7 3c cc 90 29 bd 63 e8 4c 3d c3 81 84 3d
       0.020445008 -0.041397855 0.05002631 0.064700626
000240 99 72 19 bd 87 04 cf 3c f7 56 83 bd d5 27 8f bd
       -0.037462804 0.025270713 -0.064130716 -0.06990019
000250 45 e8 75 3d dd a7 0c bd 20 02 0e bd 5d ec 61 bd
       0.060035963 -0.034339774 -0.034669995 -0.055157054
000260 a0 37 09 3d da ed 74 3d 13 9a 75 bc 59 c8 27 3d
       0.033500314 0.059797145 -0.014990347 0.04096255
000270 e7 f7 a4 3d 1a 6e a6 ba e0 95 35 bb 1c bd 37 bd
       0.08055096 -0.0012697608 -0.002770774 -0.044858083
000280 93 15 86 bd 48 e1 10 bb e3 ff 8d bc 5a 24 d3 bc
       -0.06547084 -0.0022106934 -0.01733393 -0.02577417
000290 c4 81 a4 bc 0c b7 6b 3b 96 3f b7 3c ed 4c 83 bc
       -0.020081408 0.0035967259 0.022369187 -0.016027892
0002a0 9a 14 5d 3c 61 a3 50 3c 0e 02 d3 bc 00 d0 c5 bb
       0.013493681 0.012734265 -0.025757816 -0.0060367584
0002b0 fb 7b 86 ba 54 49 98 bd 9a 83 09 3d 35 07 33 bc
       -0.0010260338 -0.07435861 0.03357277 -0.010927011
0002c0 70 ef 3d bd 4e 3c e5 3c 64 7c b9 bd 8f 10 29 3c
       -0.046370924 0.027982857 -0.09056929 0.010318889
0002d0 66 65 77 3d 22 59 07 3d 41 82 22 bd 21 29 63 3d
       0.060399435 0.033043988 -0.039675 0.055459145
0002e0 4b 03 8b 3b 8e f1 1f 3d 0a a5 4e 3c 7d 57 8b 3c
       0.004242336 0.039048724 0.012612591 0.017009491
0002f0 08 10 f2 bc 87 a8 2a 3d a6 1f f5 3b 9e 80 09 bd
       -0.02954866 0.041664626 0.0074805794 -0.033569925
000300 e8 ba e0 bc a4 82 5c 3c c2 4d db 3c a7 95 77 3d
       -0.027432874 0.0134588815 0.026770476 0.060445454
000310 7a 37 4f bd 67 e5 66 bd 5d 52 cd 3c 9d 1b 2d bc
       -0.050590016 -0.05637112 0.025063688 -0.010565666
000320 ec 6b 93 3d 88 f5 87 3c 6f 66 88 bc d9 fe 4e 3c
       0.07198319 0.01659657 -0.016650407 0.012634003
000330 e5 5d 8f 3d 39 c3 f3 bc 97 bd 6a bd c4 b6 c0 bc
       0.07000331 -0.029756175 -0.057309713 -0.02352465
000340 02 f2 7c 3d aa 99 fb bc 1d 26 2d 3c d6 a9 e2 3c
       0.061754234 -0.030712921 0.010568169 0.027668875
000350 78 25 84 3d 17 39 4f 3d a4 59 26 bd 30 01 10 3d
       0.06452459 0.050591554 -0.04061283 0.035157382
000360 46 a3 76 3d 9e 87 b9 bc bd e9 27 bc 37 f6 d1 ba
       0.060214303 -0.022647675 -0.010248599 -0.0016018812
000370 3c 77 28 3d 93 44 82 3c 77 93 91 3d 27 12 5f 3c
       0.041129336 0.01590184 0.07108205 0.013615168
000380 94 8d b5 bc e4 4a 53 bd ba 2f 0b bd 07 7d fa bb
       -0.022162236 -0.051585093 -0.033981062 -0.007644299
000390 98 5f 84 bb be 2f 11 bd bd 77 c0 bc 81 89 56 3d
       -0.004039716 -0.03544592 -0.023494596 0.052377228
0003a0 4b 96 f9 3c a8 c6 29 bd 1b 88 ff bc 12 3c 73 3c
       0.030467173 -0.04144922 -0.03119283 0.014845865
0003b0 6a 3c 3f bd cb b1 36 3d b9 22 4f 3d 46 f0 76 3c
       -0.046688475 0.04460315 0.050570223 0.015071934
0003c0 4b 22 3f bc 11 ab 1e 3d ac fa 44 bc 7b e1 4c 3d
       -0.011665891 0.03873736 -0.012022655 0.050019722
0003d0 af 8d 00 be 94 6a 65 3c c9 7b f1 bc 69 ff 5b 3b
       -0.12554048 0.014002461 -0.02947797 0.0033568984
0003e0 fa c3 d5 bd f7 cf ac 3c 17 6f 59 3d 9a eb 22 3d
       -0.1043777 0.02109526 0.05308446 0.03977547
0003f0 7d 3c f4 bc 38 ec 41 bd b6 bc 2c 3d 9d 54 99 3d
       -0.029814 -0.047344416 0.042172156 0.07486842

fc2.bias f4 [256]
000000 3d 6d 48 3c fb c2 91 bd f9 06 4c 3d 9b a6 c3 bc
       0.012233076 -0.07117268 0.049811337 -0.023883155
000010 20 87 ed bd 6f 22 6a 3e fa 36 5f bd 18 ec 8f 3e
       -0.11598039 0.22864698 -0.05449579 0.28109813
000020 02 df 90 bd bb a1 8b 3d 11 bd a0 bd 68 0b c7 bd
       -0.07073785 0.06817957 -0.078485616 -0.097189724
000030 69 3f 50 3d ed f1 33 3d a7 27 da bc c5 cb 68 3c
       0.050841723 0.04393189 -0.026630236 0.014208739
000040 e5 0d fa 3a 4e 5b 25 3d bd 7c ca bc 46 ee 79 3c
       0.0019077627 0.040370278 -0.024717683 0.015254563
000050 06 0b 10 3d 4a 9b d1 3d 05 ab c3 bc 71 91 3c 3d
       0.035166763 0.10234697 -0.02388526 0.04603714
000060 9e c0 06 be 2e 20 90 bd 22 be 9d bd cc f8 51 3d
       -0.13159415 -0.07037388 -0.077022806 0.05126266
000070 98 90 8f 3d c9 45 b3 bd 57 f5 63 3b b0 35 95 3c
       0.07010001 -0.08753545 0.0034783685 0.018214077
000080 3a dd 02 be 40 ef 8c bd 59 32 ae bb 1e 34 bf 3d
       -0.12779704 -0.06881571 -0.0053160605 0.093361124
000090 34 56 1a be 1f 14 80 bc fd 29 5c bd c5 7e e0 3d
       -0.15071946 -0.015634594 -0.05375098 0.10961679
0000a0 30 b5 8b 3d d2 b2 ac bc 77 3f e4 bd c4 07 2b 3d
       0.06821668 -0.021081362 -0.111449175 0.041755453
0000b0 1e 06 4f 3d ca a8 82 3b ca 5c 54 bd 95 2f 35 be
       0.050542943 0.0039874064 -0.051846303 -0.17693932
0000c0 62 d3 1e 3d 15 f2 ed bc ff c3 49 bb 5e 71 9f 3d
       0.03877581 -0.029046098 -0.0030786989 0.07785295
0000d0 3b c2 08 be 1b 47 b9 bd 00 7b fd bc a9 64 62 bc
       -0.13355343 -0.090467654 -0.03094244 -0.013817945
0000e0 10 cc e0 3d c9 9c f7 3d 19 32 09 bd 1e 11 a4 3d
       0.10976422 0.12090451 -0.033495042 0.08011077
0000f0 67 91 1e 3e 4b f8 b9 3c 41 2a 72 3c a0 84 f4 3d
       0.15485154 0.022701403 0.014780582 0.11939359
000100 c2 42 4b 3a f1 10 0e be ed ba 06 be 5e 57 90 3e
       0.0007753783 -0.1387365 -0.13157244 0.28191656
000110 a5 64 a1 3c 0a 74 d1 bd a7 d6 21 3d 45 39 12 3d
       0.019701311 -0.10227211 0.03951135 0.035699148
000120 a0 fb 0e be 47 bd 11 be ce 96 ce bd 63 4c 8d 3d
       -0.13963175 -0.1423236 -0.100873575 0.06899335
000130 ba ef 1e 3b ed 63 76 bd 27 57 3e 3b 4e 86 94 bd
       0.0024251775 -0.06015389 0.0029043646 -0.07252179
000140 d1 d1 a8 bd 4e 59 9e bd 74 34 67 3e ed 52 dd bd
       -0.08243144 -0.07731877 0.22578603 -0.108068325
000150 17 53 05 3d 18 70 0e be 5e 59 94 3d e1 22 de bd
       0.032549944 -0.13909948 0.07243608 -0.108464964
000160 0d 1c c1 bd 86 4c a2 3d 8c f5 da bc 80 45 64 3c
       -0.094291784 0.07924752 -0.026728414 0.013932586
000170 9c 96 4a 3d 5b bb ff 3c 53 ce e4 3b 70 65 1e bd
       0.04946004 0.031217268 0.0069826036 -0.038670957
000180 82 2a 3c bc a1 ab 15 bd 00 cf 97 bb ac af bb 3d
       -0.011484744 -0.03654063 -0.0046328306 0.09164366
000190 62 87 c3 bd 96 16 4d 3d 79 74 21 3e d8 94 7b 3d
       -0.095473066 0.050070368 0.15767087 0.061421245
0001a0 a9 09 a0 3d 30 05 3b 3d 35 cc e1 3d 4d 8e a2 3b
       0.078143425 0.045659244 0.110252775 0.004960811
0001b0 e7 39 70 3c 5f 36 d3 b9 67 d7 16 be 59 e2 cd bd
       0.0146622425 -0.00040285566 -0.14730607 -0.10052938
0001c0 5c 4d a1 3d a9 ce 58 bd 00 29 9a 3c 51 ea d4 bd
       0.07876083 -0.05293146 0.018818378 -0.10396255
0001d0 94 f7 35 bc ed 0d 9f bd fc a8 44 bd 48 51 8e bd
       -0.0111063905 -0.07766328 -0.04801272 -0.06949097
0001e0 93 d8 11 39 56 a9 0e bd f4 8c 10 be 4e 78 82 bc
       0.00013908958 -0.03482946 -0.1411627 -0.015926506
0001f0 69 cf 30 bd 11 7f e0 3b f3 02 13 3e 03 3e 9b 3d
       -0.04316655 0.006851085 0.14356594 0.07580187
000200 8b 5b da 3d 02 2e a4 3d e2 b1 a4 3d 36 19 b2 3d
       0.10661992 0.08016588 0.08041741 0.08696215
000210 a9 4a 0e 3d 50 a7 c0 3d 50 15 68 3b 82 ee dc bb
       0.03473917 0.09406912 0.0035413094 -0.0067422995
000220 a8 44 d4 3d 2c 4b 94 3c 9c ff 97 bd 7b 40 67 bd
       0.10364658 0.018102251 -0.074218005 -0.056457978
000230 0d 6a 6c 3d cb 1a 17 bd 72 6a 12 bd f1 3f e0 bd
       0.057718325 -0.036890786 -0.035746045 -0.10949696
000240 e7 12 a2 bc 2f f5 36 3e 40 3c 00 3e c8 29 3a 3d
       -0.019784404 0.17866968 0.12522984 0.045450002
000250 6c 61 a5 bc 6a 17 c2 bd 5c e1 b2 3d a0 7d 13 3e
       -0.020188056 -0.09477122 0.0873439 0.14403391
000260 d9 1e 4d be e4 51 a3 3d e9 cc 0e be 96 33 f3 bc
       -0.20031299 0.07974604 -0.13945355 -0.029687684
000270 c8 fa 25 be da b4 e3 bc ed fc aa bc 41 0f c8 bc
       -0.16208947 -0.027796198 -0.020872558 -0.024421336
000280 1f a0 a5 3d a2 c0 80 3d 6b d8 e0 bd ff 2a eb 3a
       0.08087181 0.06286742 -0.109787785 0.0017941891
000290 c3 0b 74 bc ab 96 43 3b 1a d0 1b 3d d6 65 9d 3d
       -0.014895382 0.0029844444 0.038040258 0.07685439
0002a0 3b cf a2 3c 74 02 e8 3c e9 97 80 bd a7 8a 7e 3d
       0.019874206 0.028321482 -0.062789746 0.062143948
0002b0 ef 7c 94 3c 7c d2 75 ba 82 44 b3 3d e5 85 4b bd
       0.01812598 -0.0009377373 0.08753301 -0.04968824
0002c0 74 7f a4 bd 24 89 92 3d 11 68 f7 3d 02 46 a3 bb
       -0.08032122 0.07155064 0.12080396 -0.004982711
0002d0 11 e5 ba bd 41 8d 18 3d 16 2c be bd d5 52 16 bc
       -0.09125722 0.037244085 -0.092857525 -0.009175022
0002e0 c4 70 df 3c a0 73 9e 3c b1 65 9a 3d 65 c7 38 3d
       0.02727545 0.019342244 0.07538927 0.045112032
0002f0 88 56 9a bc 8d 54 c5 3c 86 6d fd 3c d9 66 93 3d
       -0.01884009 0.024088169 0.030936014 0.07197351
000300 23 d8 8f bd 72 92 51 bd b0 12 fd 3d 5c 20 31 bc
       -0.07023647 -0.05116505 0.1235708 -0.010810938
000310 fb 0d e5 3d f6 0c 9f 3d 15 bc 0c bd 61 ae d3 bc
       0.11184307 0.07766144 -0.034359057 -0.025839986
000320 6a e5 8d 3d 37 f0 8b 3d 7a aa 97 bd 89 5c b4 bc
       0.06928523 0.06832927 -0.07405563 -0.02201678
000330 dc 89 94 bc 7f a8 99 bc cf e0 cd 3c 28 3e c2 bd
       -0.018132143 -0.018757103 0.025131611 -0.094845116
000340 09 f8 be bc a7 b1 05 bc 99 91 c1 bd d1 5c f4 3c
       -0.023311632 -0.008160031 -0.09451599 0.029829415
000350 07 93 b2 bd ce bc 00 be 71 50 27 bd 70 bb 0d be
       -0.087194495 -0.12572023 -0.0408482 -0.13841033
000360 7e 41 6e 3c 69 75 35 3b 8a 06 22 bd ba 60 87 bd
       0.014541982 0.002768839 -0.039557017 -0.06610246
000370 3d d1 e4 3d 53 30 b3 3d 11 c5 ff bd 31 d6 5e 3d
       0.111727215 0.087494515 -0.12488759 0.054403488
000380 94 7b 6b 3d 63 94 36 3e e4 e1 69 bb 2e 74 29 be
       0.0574909 0.17830043 -0.003568762 -0.16548225
000390 76 8a ad 3d 74 bd 21 be cf 52 d1 bd 9f c7 7e bb
       0.08473675 -0.15794927 -0.102208726 -0.0038876308
0003a0 69 be 48 3d 2c 34 03 3d ad 00 fc 3d df 21 70 bc
       0.049009714 0.032032177 0.123048164 -0.014656513
0003b0 9a 1d 01 3e 06 24 5c 3d 29 87 8a 3d c8 49 bd bd
       0.12608948 0.053745292 0.06764061 -0.09242588
0003c0 bb 7c 24 bd 0c 93 39 3d 6f c2 37 bd 82 a6 e1 bd
       -0.040158015 0.04530625 -0.04486316 -0.11018087
0003d0 d4 37 05 bd 95 1c 0d bd 72 5d 31 be 53 ee 05 bd
       -0.032523945 -0.034451086 -0.17320803 -0.032697987
0003e0 ef c8 01 bc 66 37 4c 3c 0c 00 48 bd 4c 9d ea 3b
       -0.007921441 0.01246438 -0.04882817 0.0071598645
0003f0 23 49 90 bc d1 78 e2 bd 6f ea 20 be e3 c9 f0 bc
       -0.017613 -0.110582 -0.1571443 -0.029393142

fc3.weight f4 [6, 256]
000000 8e 31 24 bd 26 c3 af 3d 3a 58 15 be 87 37 0c 3d
       -0.04008632 0.085821435 -0.14584437 0.034232643
000010 01 61 c9 3d 58 ca c1 3d 21 12 a3 bd ba 17 bd bc
       0.09832955 0.09462422 -0.07962442 -0.023082603
000020 c6 f3 56 bd 82 e6 aa 3c 98 2a cc 3d 9b d8 b4 bc
       -0.052478574 0.020861868 0.099690616 -0.022075942
000030 de 4b af 3c 65 e6 48 bb ef a7 94 bd e6 59 77 3d
       0.021398481 -0.0030654904 -0.07258593 0.06038847
000040 64 23 d7 bc 1f e2 a1 bd c5 f3 0a bd c9 ee bd bc
       -0.026261993 -0.07904457 -0.033923883 -0.02318515
000050 34 59 f1 3c ab af a9 bb 3b ee 14 bd 85 3d 68 bd
       0.02946148 -0.005178412 -0.036360007 -0.056699295
000060 0b 40 a6 3c 13 65 ee bd c3 ed ad bb 67 96 6e bd
       0.02029421 -0.11640372 -0.0053078844 -0.058248904
000070 73 76 40 bc 50 1e 83 3c f9 b0 14 bb c9 c5 6a be
       -0.0117469905 0.016005665 -0.0022688492 -0.22927012
000080 c1 ea 06 bd 25 8a 03 3e 45 91 c8 3c c8 c3 a6 bd
       -0.032938723 0.12845667 0.024483332 -0.08142811
000090 f4 28 f2 3c da 04 e1 bc c1 a2 51 3d 11 dc 6f be
       0.029560544 -0.027468134 0.051180605 -0.23423792
0000a0 2c a6 50 bc 75 5c c1 3c 84 f7 37 3d c5 06 8e bc
       -0.012734931 0.023603657 0.044913784 -0.017337212
0000b0 03 60 12 3e 70 2b c4 bc 33 c3 12 3d 3e 6a 53 bc
       0.14294438 -0.023946494 0.035830688 -0.012903748
0000c0 43 b6 c5 3d 27 fc a0 bc 97 09 ca 3d 6c f8 ad 3d
       0.09653904 -0.019651486 0.0986511 0.08494648
0000d0 d6 f0 03 bd 4d df 81 3d d9 58 3b 3d dc e8 43 bd
       -0.0322121 0.06341419 0.04573903 -0.047829494
0000e0 6d 0d 15 3d ce 16 a5 be 93 87 ad 3d 3d 82 71 3d
       0.036389757 -0.3224396 0.08473124 0.058962096
0000f0 32 b6 22 bd 31 54 60 3d d2 86 8d be 23 75 f9 3a
       -0.039724536 0.05476779 -0.27641922 0.0019032102
000100 70 36 f5 bb c2 b9 96 bd de c4 3e 3d 8a 73 8b be
       -0.007483296 -0.07359649 0.046574466 -0.27236587
000110 6d 45 48 3d 69 a4 20 bd 29 70 a4 3c 64 b3 45 bd
       0.048894335 -0.039219294 0.020073013 -0.048266783
000120 8d 11 f8 3d 2d e4 aa bd 53 07 83 bb 8f 0a b0 3c
       0.121127225 -0.08344302 -0.003998676 0.02148941
000130 03 21 fa 3b 68 78 a1 3d 5b 82 b9 bd b4 54 85 3d
       0.00763333 0.07884294 -0.090580665 0.065102965
000140 78 55 62 3d 8c 9c d8 3c 3b e0 94 be 1a 69 f9 bc
       0.05525729 0.026441835 -0.29077324 -0.030445624
000150 98 a0 d9 bd bc d1 79 3d 0c 17 5b ba ea ad c5 bd
       -0.10626334 0.060991034 -0.0008357621 -0.09652312
000160 b8 cc b8 3d 1f 5c e8 bc 1d dd 64 bd 35 5d 43 3c
       0.09023422 -0.02836424 -0.055874933 0.011924078
000170 aa 27 7e bc a6 2b 36 3d b0 cc 60 bb 08 b4 39 bc
       -0.015512386 0.04447522 -0.003430169 -0.011334427
000180 d7 c9 47 3d 3f 7e cd 3d 22 4f 47 3e 5d 10 e4 bc
       0.048776474 0.10033845 0.1946378 -0.027839834
000190 da 2c ee bd d7 fe c3 bc 7e 8d f9 3d 79 3d 84 3b
       -0.116296485 -0.023925228 0.121851906 0.0040356484
0001a0 c3 0a 5a bd 4f 30 05 bd 55 b8 99 3d f9 82 26 3d
       -0.05323292 -0.032516774 0.07505862 0.04065225
0001b0 ea bc 5e 3c 86 33 9c bd 11 06 99 bd fa 14 cf 3d
       0.013594845 -0.07627015 -0.0747186 0.10111423
0001c0 71 ae df bd be 66 00 3e d6 4b ad bd ef f6 72 3c
       -0.10921944 0.12539193 -0.0846173 0.014829381
0001d0 a5 c3 01 bd e0 7f 1f bd 73 e5 86 3d 5f da ff 3d
       -0.03168072 -0.03894031 0.06586733 0.12492823
0001e0 be 49 f2 bc c7 17 93 bc 82 d6 89 3c 99 15 90 bd
       -0.029576179 -0.017955674 0.016825918 -0.070353694
0001f0 eb 86 a1 bd 2f 1e 07 3d 74 68 b4 bd 92 7d 81 bd
       -0.07887062 0.03298777 -0.08808985 -0.06322779
000200 32 3d 27 bc 0d ad 54 3d 70 b9 c4 bc 6c f0 d0 bd
       -0.010207461 0.051922847 -0.024014205 -0.10202107
000210 9c 16 3d 3d 4a 0f 78 3d c6 15 f7 3c 55 02 5c be
       0.04616414 0.060561456 0.03016175 -0.21485265
000220 08 47 22 bc f5 60 0d 3e 33 b6 8a 3d 41 32 16 3d
       -0.0099046305 0.13806517 0.06773033 0.03666902
000230 c7 fd d4 bc 47 7a 9a 3c 7b 33 87 bc 02 dd 35 bc
       -0.025999917 0.018857135 -0.01650404 -0.011100056
000240 6f 49 36 bc 1f 90 b5 3d 13 ea 76 3e 83 2c ab bd
       -0.011125906 0.088653795 0.2411273 -0.08358099
000250 84 df 84 3c d5 00 c0 3c 4d 2e 7f bd ef ee be bd
       0.016219862 0.023437897 -0.062300015 -0.09322917
000260 6b c2 29 3c 91 d2 5a bd d0 e6 5f be ee e0 f9 bc
       0.010361294 -0.053423468 -0.21865392 -0.030502763
000270 c4 6a 76 3d 8a 96 ff 3d bc 79 34 3c 58 86 31 bd
       0.060160413 0.12479885 0.011015352 -0.04334101
000280 52 55 5b 3d 6a 1b c0 bb 57 25 8f 3d 99 6b 78 bc
       0.053548165 -0.005862643 0.06989544 -0.015162372
000290 bc db a4 bc 07 db 13 3c f4 b4 46 bc fc d5 00 be
       -0.020124309 0.009024388 -0.0121281035 -0.12581629
0002a0 56 6f 9a 3c 9c 33 72 3d ff 6e 32 bd 32 88 84 bd
       0.018851917 0.05913125 -0.043562885 -0.0647129
0002b0 7d a5 ee 3d ac 98 21 3e 67 ac f0 bc f9 79 3d bd
       0.11652658 0.15780896 -0.029379083 -0.0462589
0002c0 25 21 cc bd 62 85 44 be 7f 9b 3e bd 99 98 e1 bd
       -0.09967259 -0.19191507 -0.04653501 -0.11015434
0002d0 a6 4a 3b 3c 47 e0 dd bc cc 1b 26 3e c0 d5 81 3d
       0.011431372 -0.027084483 0.16221541 0.06339598
0002e0 4b be 28 3d c4 f7 0c bd 88 c3 08 3a 16 af b4 bc
       0.041197103 -0.034415975 0.00052171247 -0.022056144
0002f0 94 e1 61 bc 65 5e f9 3a 4e c9 db 3c a3 db 8d bc
       -0.013786692 0.0019025324 0.026829388 -0.017316645
000300 7b fb d0 bc ba 30 f2 3d b5 39 e1 bd 3e 2a d5 3b
       -0.02551054 0.118257 -0.10997335 0.00650528
000310 59 cd 1b 3c 60 ed 57 be 46 46 ac 3d 92 35 9e bd
       0.009509408 -0.21086645 0.08411841 -0.077250615
000320 57 d4 03 ba c7 19 5f bc 05 28 1c be a1 fe c3 3c
       -0.00050288945 -0.013616986 -0.15249641 0.023925127
000330 83 2a 4f 3d 04 47 d7 bd d9 24 87 3d 49 1b e8 bc
       0.05057765 -0.10511592 0.06598825 -0.028333323
000340 3e 91 91 3c 15 e4 c8 bd 5c 6d 25 3e b4 05 d6 3d
       0.017769452 -0.09809128 0.16154999 0.104503065
000350 b7 92 aa 3d e3 be 8d bc a5 70 c9 3d 50 fc 6b bc
       0.08328765 -0.017302936 0.09835938 -0.014403418
000360 1d fb 1c 3d 3c 74 18 3d d1 ea 06 3d 24 69 5e bd
       0.038325418 0.037220225 0.032938782 -0.05429949
000370 20 a7 8f 3d 46 01 71 3c 35 c8 1c be c7 3f 74 bc
       0.070142984 0.014709776 -0.15310748 -0.014907784
000380 ef 99 60 3e 3c 9c 1d 3e 0d f1 b9 bd 7a 3d 3a bc
       0.21933721 0.1539163 -0.0907918 -0.011367196
000390 a6 82 9e bc 23 35 81 bc 95 84 2a 3d e6 cd 93 3d
       -0.019349407 -0.015772408 0.041630346 0.072170064
0003a0 c5 aa ca 3d 36 ea 2c bd be 79 e2 bd 6a 4c 57 3d
       0.09895853 -0.04221555 -0.11058377 0.05256311
0003b0 99 e5 2d bd aa cb 28 bc c7 50 9b bd eb 71 01 3e
       -0.04245529 -0.010302464 -0.075837664 0.12641113
0003c0 5a d1 26 3d d4 a6 18 bc 8b d0 a9 3d 74 9d 7c bd
       0.040726997 -0.009317119 0.082917295 -0.061673597
0003d0 a2 6d 4f 3d 83 4d 9e 3c fd 1b 6d 3c fb 2c 53 3c
       0.050641663 0.01932407 0.014472005 0.012889142
0003e0 97 de 82 3c 3f ee 35 3d 4c f4 24 3e 33 d3 ca bd
       0.01597528 0.044416662 0.16108817 -0.09903564
0003f0 20 5c 26 bd f9 ae 3f bd 62 51 98 bd 43 9e 07 3d
       -0.0406152 -0.046797726 -0.074373975 0.033109915

fc3.bias f4 [6]
000000 49 91 c7 bc 07 b6 bc bd 14 f8 86 3d 53 10 95 3d
       -0.02436127 -0.092144065 0.06590286 0.07278504
000010 02 22 79 3c 12 85 46 3d
       0.015205862 0.04846675
