model_save/bc/bc_policy40.pt (torch, 289751 bytes, 6 tensors)

fc1.weight f4 [256, 17]
0	0x3e813fd2	0.25244004
1	0x3e70b1e8	0.23505366
2	0x3f097574	0.53694844
3	0x3f57f62f	0.8436002
4	0x3e47630d	0.19471379
5	0x3dbe8fc8	0.09304768
6	0xbf33548c	-0.70050883
7	0xbe261289	-0.16218008
8	0xbeb5bc5b	-0.35495266
9	0x3e78766b	0.24263923
10	0x3e9f2204	0.3108064
11	0x3e213540	0.1574297
12	0x3e55c2bb	0.20875065
13	0x3d81469f	0.06312298
14	0xbe131e7c	-0.14367098
15	0xbe2a4a8e	-0.16630003
16	0x3c5c10e1	0.013431759
17	0xc02e1188	-2.71982
18	0xbe287557	-0.16451012
19	0x3e118dc0	0.1421423
20	0x3e86eba5	0.26351658
21	0xbe1e6581	-0.15468408
22	0xbe077a7a	-0.13230315
23	0x3daa03ea	0.08301528
24	0xbf0dc791	-0.5538264
25	0x3c68136a	0.014164785
26	0xbf1b90c0	-0.60767746
27	0x3e809b20	0.2511835
28	0x3d9f97ba	0.077926114
29	0x3da912d8	0.08255547
30	0xbd0b0adc	-0.033945903
31	0x3dad3f2c	0.08459315
32	0x3e1418b4	0.14462548
33	0x3df07df3	0.11742773
34	0xc004da94	-2.075841
35	0xbe87f3e7	-0.2655327
36	0xbed32003	-0.4123536
37	0xbf3c2ab7	-0.7350268
38	0xbec24232	-0.37941128
39	0xbec05ac5	-0.37569252
40	0xbe246d94	-0.16057426
41	0xbf049594	-0.5179074
42	0xbddba8a5	-0.10725526
43	0xbe690d9c	-0.22759098
44	0x3cbb0084	0.022827394
45	0x3cb4edc5	0.022086034
46	0x3cffc7d2	0.031223211
47	0x3d172f13	0.036910128
48	0xbcb9941c	-0.022653632
49	0xbd4045cf	-0.046941575
50	0x3d7adf7c	0.061248288
51	0xbf22a4cf	-0.6353273
52	0xbdb6c93c	-0.08925101
53	0xbbdb7428	-0.0066971965
54	0xbe80eec0	-0.25182152
55	0xbdecb39f	-0.115576975
56	0xbda48bb8	-0.08034462
57	0x3def9635	0.116985716
58	0x3e037392	0.12837055
59	0xbe5113c1	-0.20417692
60	0xbe106c5c	-0.14103836
61	0x3e80a9d0	0.25129557
62	0x3e653291	0.22382571
63	0x3df0095e	0.11720537
64	0xbd9b386a	-0.075791195
65	0x3e748276	0.23877892
66	0xbd51c040	-0.051208735
67	0xbc51518d	-0.012775791
68	0x3f187ea7	0.59568256
69	0xc033a9a6	-2.8072295
70	0x3e88e408	0.26736474
71	0xbe9db98d	-0.30805627
72	0x3e988456	0.29788464
73	0x3ea67063	0.3250762
74	0x3e53d6c3	0.20687394
75	0x3e876b58	0.26449084
76	0xbad78365	-0.0016442357
77	0xbd51b691	-0.0511995
78	0xbe4146c6	-0.18874654
79	0xbc96b79d	-0.0183981
80	0x3cdbd576	0.026835185
81	0xbd88bbe7	-0.066764645
82	0x3d15440f	0.03644186
83	0x3c3cab70	0.011515483
84	0x3c84c22e	0.016205873
85	0xbfb10d8e	-1.3832262
86	0x3f0222c7	0.50834316
87	0xbefa2ae7	-0.48860857
88	0xbf4ebf90	-0.8076105
89	0x3f93c281	1.1543733
90	0x3f4ec458	0.80768347
91	0x3ded8a66	0.11598663
92	0xba27ee04	-0.00064060115
93	0xbe64e522	-0.22353032
94	0xbf1388a2	-0.5763036
95	0xbde6c1f6	-0.11267464
96	0x3d4a9a7b	0.04946373
97	0xbd2149db	-0.039377075
98	0xbc13dcd5	-0.009024818
99	0xbd793f53	-0.060851406
100	0xbd882a7c	-0.06648728
101	0xbd674b34	-0.056468204
102	0x3f7673f9	0.9627071
103	0xbe8166ff	-0.25273892
104	0x3ee5af0c	0.44860113
105	0xbd497fa7	-0.049194004
106	0xbe81c50b	-0.25345644
107	0x3f06e43e	0.5269202
108	0xbf18981d	-0.59607106
109	0x3efd6a03	0.49494943
110	0xbdbce9a9	-0.09224255
111	0x3f404dd8	0.7511878
112	0x3ef528e7	0.4788277
113	0xbc10ef23	-0.008846077
114	0xbcc50fab	-0.024055323
115	0x3e065b98	0.13120878
116	0xbd847bb1	-0.06468905
117	0x3e150343	0.14552025
118	0xbdbe25ae	-0.092845306
119	0x3e8b137f	0.27163312
120	0x3ef44b02	0.47713476
121	0x3e8c10d9	0.27356604
122	0x3f297d14	0.6620648
123	0x3d31750e	0.043324523
124	0xbec9862d	-0.3936018
125	0xbeaf3260	-0.3421812
126	0x3f308bc8	0.6896329
127	0x3cab092a	0.020878393
128	0xbdf5a9b5	-0.1199526
129	0x3e4f7470	0.20259261
130	0x3d8bfcf9	0.0683536
131	0x3b004118	0.001957005
132	0x3d4a1712	0.049338408
133	0x3d91fb68	0.0712803
134	0x3d77b49d	0.06047498
135	0xbcc4b83a	-0.024013627
136	0xbfaff544	-1.3746724
137	0x3e315c22	0.17320302
138	0x3e6dbe12	0.23217037
139	0xbeac13d1	-0.3360887
140	0xbe271a29	-0.16318573
141	0xbf799c7c	-0.975044
142	0xbf30b69b	-0.69028634
143	0x3f081d8b	0.5317008
144	0xbe182e5f	-0.14861439
145	0xbed4ce0c	-0.4156345
146	0x3f519b1f	0.8187732
147	0xbe1f5559	-0.15559901
148	0xbd74c340	-0.059756517
149	0x3d3b47cc	0.045722768
150	0xbccc936b	-0.024972638
151	0x3d7d0d78	0.061780423
152	0x3d84e51d	0.064890124
153	0xbf54e35a	-0.8315941
154	0xbf26f547	-0.65218014
155	0xbd7e3c86	-0.06206944
156	0xbed49a31	-0.4152389
157	0xbe137303	-0.14399342
158	0xbf67e931	-0.90590197
159	0x3eb9a5ab	0.36259207
160	0xbefc078b	-0.49224505
161	0xbdecc496	-0.11560933
162	0xbf43d8ec	-0.7650287
163	0xbd9080c7	-0.07055812
164	0x3ca56551	0.020189913
165	0xbd4c7a6c	-0.049921438
166	0x3e0ae332	0.1356323
167	0x3d55a232	0.052156635
168	0x3cd7957c	0.026316397
169	0xbd7c4c21	-0.06159604
170	0xbee4c7d3	-0.44683704
171	0x3e0dfb3a	0.13865367
172	0xbd8365b8	-0.06415886
173	0xbe0eb13f	-0.13934802
174	0x3e93514a	0.28772956
175	0xbf0f2130	-0.55910015
176	0x3e809a0d	0.2511753
177	0xbea24df4	-0.317001
178	0xbdea40cb	-0.114381395
179	0xbf3672ab	-0.7126872
180	0x3e908011	0.28222707
181	0x3d986bcc	0.074424356
182	0xbdd0657a	-0.10175605
183	0x3dcfadab	0.101405464
184	0x3e1c3084	0.15252882
185	0xbd55c1d1	-0.05218679
186	0x3d0395e6	0.032125376
187	0xbf702560	-0.9380703
188	0x3e99ba6b	0.30025038
189	0xbee60de1	-0.44932464
190	0xbf08be55	-0.53415424
191	0xbe986167	-0.29761812
192	0x3efdb741	0.49553874
193	0xbfa07479	-1.2535545
194	0xbe8d1119	-0.27552107
195	0xbe2c60aa	-0.1683375
196	0xbf00a792	-0.5025569
197	0x3e8f41d7	0.2797992
198	0x3d0d6647	0.034521367
199	0x3e23f31d	0.16010709
200	0xbd800031	-0.062500365
201	0x3d83dc6d	0.06438527
202	0xbd473664	-0.048635855
203	0x3ccaabea	0.024740178
204	0xc02d657a	-2.7093186
205	0xc00d5fc3	-2.2089698
206	0xbf31f105	-0.6950839
207	0xbe9ef693	-0.31047496
208	0xbe982e21	-0.29722694
209	0xbe6e0f63	-0.23248057
210	0xbddd4c93	-0.10805621
211	0xbe82edca	-0.25572044
212	0xbccb961f	-0.024851857
213	0xbe747e00	-0.2387619
214	0xbdc75774	-0.09733477
215	0x3e0933c6	0.13398656
216	0xbd64a612	-0.05582244
217	0x3cfcaff5	0.030845622
218	0x3b8ca593	0.004292199
219	0x3c46c7ed	0.012132627
220	0xbce5ebcc	-0.028066538
221	0xbfb95b06	-1.4480903
222	0xbdb610b7	-0.08889907
223	0xbeb90525	-0.36136737
224	0x3d969efe	0.07354544
225	0x3f184535	0.594806
226	0xbbc4972e	-0.0059994673
227	0xbe8e0991	-0.27741674
228	0xbde665a7	-0.112498574
229	0xbd8563f1	-0.06513203
230	0xbe5d60c6	-0.21618947
231	0x3e3eeade	0.18644282
232	0xbce7e69e	-0.028308209
233	0x3db1b681	0.08677388
234	0xbcac4dd2	-0.021033201
235	0xbd7d97b3	-0.06191225
236	0x3dc5d522	0.096597925
237	0xbdf0dc8a	-0.117608145
238	0x4035902f	2.8369253
239	0x3e64d274	0.22345906
240	0xbdee92ea	-0.116491154
241	0xbe14cdeb	-0.14531676
242	0x3ecfa587	0.40555975
243	0x3db6f4bc	0.08933398
244	0x3e9136d7	0.28362152
245	0xbdb42974	-0.08796969
246	0x3d8421d3	0.06451764
247	0x3ee0a1f0	0.43873549
248	0xbeca1ef2	-0.39476734
249	0x3d9ea629	0.07746536
250	0xbd4568e5	-0.04819574
251	0xbd3a875c	-0.045539245
252	0xbcd2a194	-0.025711812
253	0x3ae8fc55	0.0017775396
254	0x3c381bc3	0.011237088
255	0xbdba676b	-0.09101757

fc1.bias f4 [256]
0	0xbe0837d2	-0.13302544
1	0x3d044e0b	0.03230099
2	0x3ef6897c	0.48151767
3	0x3b19b91b	0.0023456279
4	0xbe6c4c6e	-0.2307603
5	0x3edb1a76	0.42793626
6	0xbc6274c8	-0.013821788
7	0x3d78e3f2	0.06076426
8	0xbdd8efe1	-0.10592628
9	0x3f0ece2a	0.5578333
10	0xbee09a71	-0.4386783
11	0xbd6c9d5e	-0.057767265
12	0xbd252fb1	-0.040328685
13	0x3df4c081	0.1195078
14	0xbdaf3017	-0.08554094
15	0xbe0604cf	-0.13087772
16	0x3e8026bd	0.25029555
17	0xba201b4e	-0.00061075843
18	0xbbcb4c5b	-0.0062041706
19	0xbd6029c6	-0.05472734
20	0xbdf36b05	-0.11885647
21	0x3e25d0f8	0.16192997
22	0x3e5f0c1d	0.21781965
23	0x3e1130b5	0.14178737
24	0x3e042297	0.1290382
25	0x3e57f60f	0.21089958
26	0xbe67553c	-0.22591108
27	0x3d98941c	0.074501246
28	0x3e3d3db2	0.18480566
29	0xbf0347c9	-0.5128141
30	0xbcd09a31	-0.02546415
31	0x3e31abc8	0.17350686
32	0xbe36723f	-0.17817019
33	0xbd0932b4	-0.03349562
34	0xbe3068b9	-0.17227449
35	0xbe87c556	-0.26517743
36	0xbe71d1f8	-0.23615253
37	0xbe459938	-0.1929673
38	0x3da91ab9	0.0825705
39	0x3dcf6681	0.10126973
40	0x3f09d1f9	0.5383602
41	0xbd848485	-0.064705886
42	0x3e598eac	0.21245831
43	0xbca00322	-0.019532744
44	0xbe875655	-0.26433054
45	0xbda5363d	-0.08066986
46	0x3e31db61	0.17368843
47	0x3ec91046	0.39270228
48	0x3e205e2c	0.15660924
49	0xbefb69e5	-0.4910423
50	0xbe0a776e	-0.13522121
51	0xbf07072e	-0.5274533
52	0x3eb2b7f6	0.34905976
53	0xbe82a870	-0.25519133
54	0xbcb35422	-0.021890704
55	0xbeb6cdc9	-0.35703877
56	0xbc9e68bf	-0.019337056
57	0xbd279954	-0.04091771
58	0x3bba68f1	0.0056887795
59	0x3eaa92f9	0.33315256
60	0x3dab2cff	0.08358192
61	0xbea48a3c	-0.32136714
62	0xbe4b91e1	-0.19879867
63	0x3d375ac8	0.04476431
64	0xbde626a8	-0.11237842
65	0xbf1b5169	-0.606711
66	0xbe2c8191	-0.168463
67	0xbecbf19d	-0.39832774
68	0x3e415a10	0.18882012
69	0x3e480798	0.19534147
70	0xbe65f108	-0.22455227
71	0xbdff93ca	-0.124793604
72	0xbec152c9	-0.37758473
73	0x3e902cee	0.2815928
74	0x3e3edbe7	0.18638574
75	0xbe1a431d	-0.15064664
76	0xbd8f3884	-0.069932014
77	0x3f031f1c	0.51219344
78	0x3e5e1bea	0.21690336
79	0xbe0b1a8d	-0.13584347
80	0xbea602ed	-0.32424107
81	0x3e489335	0.19587405
82	0x3e2126de	0.15737483
83	0xbe182100	-0.14856339
84	0x3e2422fb	0.16028969
85	0xbe10abce	-0.14128038
86	0xbdc3afea	-0.09555037
87	0x3e1289ce	0.14310381
88	0x3ee852e9	0.45375755
89	0x3c45a3e3	0.012062999
90	0xbd6d1955	-0.057885487
91	0x3ee1322e	0.43983597
92	0xbe5693f2	-0.20954874
93	0xbe01d4b1	-0.12678792
94	0x3ce67b0e	0.028134849
95	0x3d6f3b31	0.05840606
96	0x3ed338b8	0.4125421
97	0x3d4e1a55	0.05031808
98	0xbe7a49dd	-0.24442239
99	0xbe8d390d	-0.2758259
100	0x3ead4ff5	0.33850065
101	0xbe4e30bf	-0.20135783
102	0x3e9dcc2a	0.30819827
103	0xbe22f151	-0.15912367
104	0x3ed82d78	0.4222219
105	0x3eaebb13	0.341271
106	0xbdd02324	-0.101629525
107	0x3b4396f5	0.0029844616
108	0xbebb38da	-0.36566812
109	0xbcd37765	-0.025813768
110	0xbe5065e5	-0.2035137
111	0x3cdae485	0.026720295
112	0x3df3d26d	0.1190537
113	0xbda7be4d	-0.08190594
114	0xbd141255	-0.036150295
115	0xbbcc9005	-0.0062427544
116	0x3f077a1e	0.5292071
117	0x3db3644d	0.08759365
118	0xbd089cfe	-0.033352844
119	0x3e0c6ea7	0.13714086
120	0xbf052537	-0.5200991
121	0xbe8eb116	-0.2786948
122	0xbeaf9bb9	-0.34298494
123	0x3df8ae66	0.12142639
124	0xbe9402b3	-0.2890831
125	0x3e20be41	0.15697576
126	0xbda991e4	-0.082797796
127	0xbf18e50d	-0.59724504
128	0xbe926535	-0.2859284
129	0x3e940d82	0.28916556
130	0xbe0b49d8	-0.13602388
131	0x3b2d569f	0.0026449335
132	0xbea09acb	-0.31368098
133	0xbbc9e7f9	-0.0061616865
134	0x3f1dedcb	0.6169097
135	0x3eb97bab	0.36227164
136	0x3e069bab	0.1314532
137	0xbd45a69f	-0.048254605
138	0xbf00840b	-0.5020148
139	0xbe8b24f2	-0.27176625
140	0x3ea17241	0.3153248
141	0x3d2b3523	0.041798722
142	0xbe3ce505	-0.18446739
143	0xbcb7cfd0	-0.02243796
144	0xbedfa805	-0.43682876
145	0xbe1548e4	-0.14578587
146	0x3d39eea7	0.045393612
147	0xbef76c08	-0.4832461
148	0x3e02f735	0.12789614
149	0xbe7dd8c5	-0.24789722
150	0x3ec72057	0.3889186
151	0xbe519504	-0.20467001
152	0xbe3ea393	-0.18617086
153	0xbe9458f3	-0.28974113
154	0x3ddc15d3	0.1074635
155	0xbe99501e	-0.29943937
156	0xbecb9de4	-0.39768898
157	0xbd2fb439	-0.042896483
158	0xbe0aa665	-0.13540037
159	0x3ef759c2	0.48310667
160	0xbe4520a2	-0.1925073
161	0x3d068e8a	0.03285078
162	0xbe5f8433	-0.21827774
163	0x3df2f7af	0.11863648
164	0x3da41dc5	0.080134906
165	0x3e359a87	0.17734729
166	0xbeac5eca	-0.33666068
167	0x3cdf7972	0.02727959
168	0x3ecdf56f	0.40226313
169	0x3d0bbabb	0.034113627
170	0xbe02bbaa	-0.127669
171	0xbdc5bbce	-0.096549615
172	0xbde1a421	-0.11017633
173	0xbd527666	-0.051382445
174	0x3e2e1fdb	0.1700434
175	0x3e2ed963	0.17075114
176	0xbe0b055f	-0.13576268
177	0x3d58aaca	0.052897252
178	0xbe10f3be	-0.1415548
179	0xbe95a772	-0.29229313
180	0xbbb31dda	-0.005466205
181	0x3eb8fc39	0.3612993
182	0xbdc6efd2	-0.09713711
183	0x3ed58f65	0.41710964
184	0xbea5ff1b	-0.32421193
185	0x3e05503a	0.13018885
186	0xbeb3e560	-0.35135937
187	0xbe6e28e3	-0.23257785
188	0x3f2a3345	0.6648448
189	0x3da04d95	0.078272976
190	0x3d5f9bcf	0.05459195
191	0xbe0acab9	-0.13553895
192	0xbe7fbc6d	-0.24974222
193	0xbed04818	-0.40680003
194	0xbdcbeefa	-0.099576905
195	0xbc15b9d6	-0.009138545
196	0xbc85e308	-0.016343608
197	0xbe62296e	-0.22086117
198	0x3e2648d4	0.16238719
199	0xbda17b65	-0.07884864
200	0x3d65165d	0.05592953
201	0xbe934816	-0.28765935
202	0x3e0e6258	0.13904703
203	0xbd1faa57	-0.038980808
204	0x3ea2a602	0.3176728
205	0xbe9f7561	-0.3114424
206	0x3e04a168	0.12952197
207	0xbe1cb212	-0.15302303
208	0xbe948362	-0.29006487
209	0x3dbdeb5f	0.09273409
210	0xbdbfc1f6	-0.09363167
211	0x3db0dea7	0.086362176
212	0xbea49c45	-0.32150474
213	0x3dc0e930	0.09419477
214	0x3e43f35c	0.19135803
215	0xbe78e976	-0.24307808
216	0x3e4f570c	0.2024805
217	0xbec2db1f	-0.380578
218	0xbea105d3	-0.31449756
219	0x3f0bdae1	0.5463086
220	0xbe3286c8	-0.17434227
221	0x3dbeb53a	0.0931191
222	0xbe088b47	-0.1333438
223	0xbe280550	-0.16408277
224	0x3d571f4a	0.052520074
225	0x3e5effeb	0.21777312
226	0xbebd46d5	-0.36968103
227	0xbe35e096	-0.17761454
228	0x3dbdf5be	0.09275387
229	0xbe1ddc94	-0.15416175
230	0xbe003630	-0.12520671
231	0x3f5dcb01	0.86637884
232	0x3f1295cd	0.5725983
233	0xbe8b1e44	-0.27171528
234	0xbe7cdf41	-0.2469454
235	0xbcfca84c	-0.030841969
236	0x3d857683	0.06516745
237	0xbeaa7613	-0.33293208
238	0xbca38bd0	-0.019964129
239	0x3ed0cd02	0.4078141
240	0xbecb7f79	-0.3974569
241	0xbdc661c8	-0.09686619
242	0xbe62d97d	-0.22153278
243	0x3e34cfdd	0.17657419
244	0x3e90e5f6	0.28300446
245	0xbdcbd288	-0.09952265
246	0xbd785f74	-0.060637906
247	0x3dd390bd	0.10330341
248	0xbd9bedba	-0.07613702
249	0x3d5efabd	0.05443834
250	0x3eae2e9f	0.34019944
251	0xbd2ba6e8	-0.04190722
252	0x3d108ddb	0.035291534
253	0x3d3c2f33	0.04594345
254	0xbcc69684	-0.024241693
255	0xbe0ccd0c	-0.13750094

fc2.weight f4 [256, 256]
0	0x3c0f37fe	0.008741377
1	0xbd9cdc0b	-0.07659157
2	0xbd830590	-0.06397545
3	0xbd8a767a	-0.06760879
4	0x3d3f7ffd	0.04675292
5	0x3d9c3b2c	0.07628474
6	0xbdaa2f92	-0.083098546
7	0xbd758ab7	-0.059946742
8	0xbc1b4257	-0.009476266
9	0xbd43f041	-0.047836546
10	0x3d78eb62	0.060771354
11	0xbda51825	-0.08061246
12	0xbd68672d	-0.05673902
13	0x3cf36871	0.029712887
14	0x3dbe6c25	0.09297971
15	0x3b59bfe4	0.0033225948
16	0xbd31562f	-0.04329508
17	0xbc9f70bd	-0.019462937
18	0xbd94d0c7	-0.072663836
19	0xbd41a814	-0.047279432
20	0x3cac1f31	0.021010967
21	0xbd1181a0	-0.03552401
22	0x3d0c86d0	0.034308255
23	0xbd54400c	-0.051818892
24	0xbdbc19b9	-0.09184594
25	0xbca708a2	-0.020389859
26	0xbbe3b6f5	-0.0069493004
27	0xbd949d0d	-0.072565176
28	0xbe132c36	-0.14372334
29	0xbd303f5f	-0.043029185
30	0xbe02f052	-0.12786987
31	0xbd1bd7dd	-0.03804766
32	0xbd2db451	-0.04240829
33	0xbd02769c	-0.031851396
34	0xbdab81ea	-0.083743885
35	0x3d2437d4	0.040092304
36	0x3cac7b48	0.021054879
37	0x3c75648b	0.014977585
38	0xbe0a8926	-0.1352888
39	0xbd905226	-0.070469186
40	0xbde4c624	-0.11170605
41	0xbcd4f6dd	-0.02599662
42	0xbc557b8d	-0.013029945
43	0xbcf0bc4b	-0.02938666
44	0xbbb6d28f	-0.0055792998
45	0x3cc8947c	0.024484865
46	0x3c27bcfa	0.010237927
47	0xbcc0bf65	-0.023528764
48	0x3bd260d9	0.0064202365
49	0x3dea6948	0.11445862
50	0xbd9e98aa	-0.07743962
51	0x3d054911	0.032540385
52	0xbd80e801	-0.06294251
53	0xbd0c8065	-0.034302134
54	0xbd6ebc2f	-0.058284935
55	0xbd2183d2	-0.039432354
56	0xbceacd1e	-0.02866226
57	0x3d865917	0.06559961
58	0xbdf6e133	-0.12054672
59	0xbd754358	-0.059878677
60	0x3c87cc7e	0.016577002
61	0x3c2200c9	0.0098878825
62	0xbdb9889f	-0.090592615
63	0xbd543a26	-0.051813267
64	0xbd7c081c	-0.06153117
65	0xbd118d7b	-0.035535317
66	0x3c837052	0.01604477
67	0xbcf304bc	-0.029665343
68	0x3d685283	0.056719314
69	0xbd71e8ba	-0.059059836
70	0xbde711e3	-0.112827085
71	0xbd5087bb	-0.050910693
72	0xbcee9c14	-0.029127158
73	0x3d41f1c8	0.04734972
74	0x3d07ca42	0.033151872
75	0xbe09a055	-0.13440068
76	0x3daf3b1e	0.085561976
77	0xbb9f3432	-0.004858517
78	0xbd669448	-0.056293756
79	0x3d1df3c5	0.038562555
80	0x3d04ec38	0.03245184
81	0xbc797972	-0.015226709
82	0xbdaac812	-0.08338942
83	0xbc038202	-0.008026602
84	0x3dd4230d	0.10358248
85	0xbc944e39	-0.018103706
86	0xbc85c04d	-0.016327048
87	0xbd289119	-0.041154
88	0xbd887d43	-0.06664517
89	0x3d3931d9	0.045213554
90	0xbd477deb	-0.04870407
91	0xbd40ff5e	-0.047118537
92	0x3d319697	0.043356504
93	0xbd3ee77b	-0.046607476
94	0x3daf03cf	0.08545648
95	0x3d76e1c6	0.060273908
96	0x3d4e884b	0.050422948
97	0xbdeae1a2	-0.11468817
98	0x3b016bc6	0.0019748076
99	0x3dd56529	0.104196854
100	0x3d8adc8d	0.06780348
101	0xbc348721	-0.011018545
102	0xbc2be714	-0.010492105
103	0x3c845080	0.016151667
104	0xbd02b519	-0.03191099
105	0xbc959369	-0.018258767
106	0x3d124086	0.035706066
107	0xbd036cee	-0.032086305
108	0x3d9a3dfb	0.07531353
109	0xbb047d03	-0.0020216114
110	0xbd9566a5	-0.072949685
111	0x3d99d73e	0.07511757
112	0x3c80ad3a	0.0157076
113	0xbd7d0e9f	-0.061781522
114	0xbba4fe15	-0.0050351718
115	0xbca36673	-0.019946313
116	0x3d347e84	0.044065967
117	0xbc92e33a	-0.017930616
118	0xbd830d6e	-0.06399046
119	0x3cf86c72	0.030325148
120	0xbcfc11aa	-0.030770142
121	0xbd6b9936	-0.05751916
122	0xbd8cf6ac	-0.068829864
123	0x3db8fd96	0.09032743
124	0x3bc671c8	0.0060560443
125	0x3c324b82	0.01088226
126	0xbd832123	-0.06402805
127	0x3d5bafb2	0.053634353
128	0x3c55898b	0.013033281
129	0xba49c5ed	-0.0007697035
130	0x3c5b4118	0.013382219
131	0x3ce71553	0.02820841
132	0x3c713b5d	0.014723626
133	0x3d562309	0.052279506
134	0xbd9c0ba7	-0.0761941
135	0xbd911d45	-0.07085661
136	0x3d13360c	0.035940215
137	0x3cd6cc92	0.026220594
138	0x3d4c9671	0.04994816
139	0xbd454add	-0.0481671
140	0x3d647bc0	0.05578208
141	0xbd578623	-0.052618157
142	0x3d371e4c	0.044706628
143	0x3d2bbcbf	0.04192805
144	0xbd6aefd7	-0.057357635
145	0x3d23ff63	0.040038478
146	0xbce5c589	-0.028048294
147	0xbd3f747d	-0.04674195
148	0x3c43fcb2	0.011962103
149	0xbd105a06	-0.035242103
150	0xbd74fff3	-0.059814405
151	0xbdd94c91	-0.10610307
152	0x3c90f4a2	0.017694775
153	0x3d1f6652	0.03891594
154	0xbcf4673d	-0.029834384
155	0x3c87a335	0.016557315
156	0x3dc10d71	0.09426392
157	0xbd632bb7	-0.05546161
158	0xbc44d333	-0.012013244
159	0xbdae1e77	-0.085019045
160	0xbdaf5dc4	-0.08562806
161	0x3d75ae2c	0.059980556
162	0xbcfcdda2	-0.030867402
163	0xbdd20219	-0.10254306
164	0x3cae50e9	0.021278815
165	0x3b893d9f	0.004188254
166	0x3d9f680f	0.077835195
167	0xbc9be42b	-0.019029697
168	0x3ca1a7bc	0.019733302
169	0x3ce2a79f	0.027667819
170	0xbb4d3cdd	-0.0031316795
171	0xbb077f10	-0.00206751
172	0xbc09dfff	-0.008415221
173	0xbdc589ed	-0.09645448
174	0x3cf9871d	0.030459935
175	0xbc73215b	-0.0148394955
176	0xbd38f908	-0.04515937
177	0xbcd91b1d	-0.026502186
178	0xbe0ded1c	-0.13859981
179	0x3cd1b697	0.025599761
180	0x3d46468e	0.04840713
181	0x3bf09ee0	0.007343158
182	0xbd4cc570	-0.04999298
183	0x3d847b39	0.06468815
184	0x3b215d4c	0.002462226
185	0x3da990fb	0.08279606
186	0xbb7c4fc4	-0.0038499692
187	0x3bdd00e3	0.0067444905
188	0xbcf03b33	-0.029325103
189	0x3d4c86e8	0.049933344
190	0xbca9d82f	-0.020732967
191	0xbe019a45	-0.12656505
192	0xbdbb0429	-0.09131653
193	0x3d9308ea	0.071794346
194	0xbcc9ce1c	-0.024634413
195	0x3db4cb3a	0.08827825
196	0xbe141562	-0.14461282
197	0xbd1b612b	-0.037934463
198	0xbd1021df	-0.035188552
199	0xbc9447fc	-0.018100731
200	0x3d67f638	0.056631297
201	0xbcf8760b	-0.030329725
202	0xbc0c4b24	-0.008562837
203	0xbbb02e8c	-0.0053766426
204	0x3d3c6569	0.04599515
205	0xbcb7722b	-0.022393307
206	0xbd983b8b	-0.07433232
207	0xbd2e607b	-0.04257248
208	0x3d7f4583	0.06232215
209	0xbd14daea	-0.036341585
210	0x3ca0bf34	0.019622423
211	0x3c59743e	0.013272343
212	0x3d163e84	0.036680713
213	0x3c8118e9	0.015758948
214	0xbd3f331f	-0.046679612
215	0x3c88adfd	0.016684527
216	0x3d693fa5	0.05694546
217	0xbcb50646	-0.022097718
218	0xbb28c03a	-0.0025749342
219	0xbd7ded8e	-0.061994128
220	0x3c9584e6	0.018251847
221	0x3d0275d4	0.03185065
222	0x3d465c57	0.048427906
223	0xbc7c6a3a	-0.015406186
224	0xbd069a0c	-0.032861754
225	0xbde30976	-0.11085789
226	0xbd801ec2	-0.062558666
227	0xbb9ef09e	-0.004850461
228	0xbc0cc50a	-0.0085919
229	0xbd268714	-0.040656164
230	0xbd92412f	-0.07141339
231	0x3da020c2	0.07818748
232	0x3d1377e5	0.036003012
233	0xbd1cbe9e	-0.038267724
234	0xbbcb1ba0	-0.0061983615
235	0xbc0ae0a7	-0.008476413
236	0xbd734bfc	-0.059398636
237	0x3d22838b	0.03967623
238	0xbb62dafd	-0.003461539
239	0xbb2ff4f2	-0.002684888
240	0xbd229a1b	-0.039697748
241	0xbaea704c	-0.001788625
242	0x3b7a50d5	0.0038195152
243	0x3d467a5d	0.04845654
244	0xbe006568	-0.12538683
245	0x3c3ca24f	0.011513307
246	0xbd98686a	-0.074417904
247	0xbd873ed2	-0.06603779
248	0xbe2f0ea1	-0.17095424
249	0x3b9a5886	0.00471026
250	0x3d26673b	0.040625792
251	0x3d3f6be4	0.046733752
252	0xbd99cf57	-0.0751025
253	0xbde6ff97	-0.11279219
254	0xbcc2c32b	-0.023774704
255	0x3dd506c5	0.10401682

fc2.bias f4 [256]
0	0xbcceb9ac	-0.02523502
1	0xbddaacea	-0.10677512
2	0x3e2f8f2a	0.17144457
3	0xbda3b196	-0.07992856
4	0xbe2251d5	-0.15851529
5	0x3e835152	0.2564798
6	0xbd462c7d	-0.04838227
7	0x3e936b7d	0.28792945
8	0xbd5bd2bc	-0.05366777
9	0x3e16ef32	0.14739683
10	0xbd658a38	-0.05604002
11	0xbdf6c561	-0.12049366
12	0xbcd5236d	-0.026017869
13	0x3ddde420	0.10834527
14	0xbc01f006	-0.007930761
15	0x3da4c69d	0.08045695
16	0xbac07b1b	-0.0014685126
17	0x3d86eec2	0.06588508
18	0x3ca76cc4	0.020437606
19	0x3c78e6ed	0.015191776
20	0x3c13da3a	0.009024197
21	0x3e2693b0	0.16267276
22	0xbd3358df	-0.043785926
23	0x3b1919b8	0.0023361277
24	0xbe556b82	-0.20841792
25	0xbe128e83	-0.14312176
26	0xbe6b6c55	-0.22990544
27	0x3d3caa05	0.04606058
28	0x3e0029c9	0.1251594
29	0xbe3a17da	-0.18173161
30	0xbd524836	-0.051338397
31	0xbce39a5d	-0.027783567
32	0xbe3403ab	-0.17579524
33	0xbd9eaa1c	-0.077472895
34	0x3d3e6f25	0.046492714
35	0x3e357ad3	0.17722635
36	0xbe6bd525	-0.23030527
37	0x3cde4ed2	0.027137194
38	0xbd823ae0	-0.06358886
39	0x3e89dab7	0.2692468
40	0x3e065dad	0.13121672
41	0x3d1e2c69	0.03861657
42	0xbe440797	-0.1914352
43	0x3cc086ee	0.02350184
44	0x3d773cb3	0.06036062
45	0xbdcd9368	-0.10037881
46	0x3cbd1738	0.02308236
47	0xbe8ffa06	-0.2812044
48	0x3d9af8b7	0.0756697
49	0xbba606a7	-0.005066711
50	0xbcef891c	-0.029240184
51	0x3df91537	0.121622495
52	0xbe4b6f3d	-0.19866653
53	0xbdfafaa8	-0.1225484
54	0xbcfd7b00	-0.03094244
55	0x3cf2e1c4	0.029648669
56	0x3e313289	0.17304434
57	0x3e649065	0.22320707
58	0xbd88c2d9	-0.06677789
59	0x3dfc88da	0.1233079
60	0x3e4fc917	0.20291553
61	0x3d9b44b5	0.07581464
62	0x3d85b975	0.06529514
63	0x3e263ce0	0.1623416
64	0xbc8f48cc	-0.017490767
65	0xbe6a502f	-0.2288215
66	0xbe57be3f	-0.21068667
67	0x3ea82152	0.3283792
68	0x3c112b3c	0.008860406
69	0xbe50ec43	-0.20402627
70	0x3ca98037	0.02069102
71	0x3d070da4	0.032971993
72	0xbe34de2a	-0.17662874
73	0xbe0acf54	-0.13555652
74	0xbe0e19f8	-0.13877094
75	0x3e47aae6	0.19498786
76	0x3cfc1daa	0.030775864
77	0xbd787207	-0.06065562
78	0xbc423cd1	-0.01185532
79	0xbd447593	-0.04796369
80	0xbe270f0b	-0.16314332
81	0xbdbc7175	-0.09201328
82	0x3eaee0be	0.3415584
83	0xbe2b1e4f	-0.1671078
84	0xbb75d983	-0.003751368
85	0xbe3debee	-0.18547031
86	0x3d447ace	0.04796868
87	0xbe10e413	-0.14149503
88	0xbe3f4d9f	-0.18681954
89	0x3e1c7954	0.15280658
90	0xbd353304	-0.044238105
91	0xbd171082	-0.036880977
92	0x3de9729b	0.113988124
93	0x3df30117	0.11865442
94	0x3d0b33ed	0.033985067
95	0xbda4b611	-0.08042539
96	0xbd11bd16	-0.035580717
97	0xbdcba8ca	-0.09944303
98	0xbb26cf13	-0.0025453016
99	0x3e1fc7c3	0.15603547
100	0xbdaa829d	-0.08325694
101	0x3dcdca92	0.10048403
102	0x3e0e9a83	0.13926129
103	0x3ca54950	0.02017656
104	0x3de02aa6	0.109456345
105	0x3d3b0530	0.045659244
106	0x3e5edd0e	0.21764013
107	0x3d246f98	0.040145487
108	0x3ce14154	0.027496971
109	0xbc340457	-0.010987363
110	0xbe8166e5	-0.25273815
111	0xbe3b41b0	-0.18286777
112	0x3dc645b5	0.09681264
113	0xbd40259e	-0.046910875
114	0x3c713bed	0.01472376
115	0xbe082d10	-0.1329844
116	0x3c29c434	0.01036172
117	0xbdd9fa55	-0.1064345
118	0x3c20aefc	0.0098073445
119	0xbe02594c	-0.12729377
120	0xbd1ad34a	-0.037799157
121	0xbd0ea956	-0.03482946
122	0xbe7df6e9	-0.2480122
123	0x3cc91c02	0.024549488
124	0xbe120a37	-0.14261709
125	0xbd917006	-0.07101445
126	0x3e6add19	0.22935905
127	0x3e0dee53	0.13860445
128	0x3dfd40af	0.12365853
129	0x3dc5df60	0.09661746
130	0x3e1cb06b	0.15301673
131	0x3dad22b8	0.08453888
132	0x3d37ff97	0.044921484
133	0x3e345462	0.17610314
134	0x3da01e7a	0.07818313
135	0xbc977067	-0.018486215
136	0x3e1e326d	0.15448923
137	0x3d9977a2	0.07493521
138	0xbe2ebe48	-0.17064774
139	0xbda51026	-0.08059721
140	0x3dcc01dc	0.09961292
141	0xbbc7a336	-0.0060924543
142	0xbd867f99	-0.06567306
143	0xbe248c0d	-0.1606905
144	0xbd78a441	-0.06070352
145	0x3e1c43b3	0.152602
146	0x3e18ed50	0.14934278
147	0x3e06b01f	0.13153122
148	0xbcc9aeb8	-0.024619445
149	0xbdbe4e16	-0.092922375
150	0x3dedabdb	0.116050445
151	0x3e3153b6	0.1731709
152	0xbe95711f	-0.29187867
153	0x3d83478c	0.06410131
154	0xbe46d5ba	-0.19417468
155	0xbc959dd8	-0.018263742
156	0xbe6a5c8d	-0.22886868
157	0xbd2b7134	-0.041856006
158	0xbc87b052	-0.016563568
159	0xbcc80f41	-0.024421336
160	0x3e2902e1	0.16505004
161	0x3dff6c9c	0.124718875
162	0xbe34a532	-0.17641142
163	0x3c5505a6	0.013001835
164	0xbc56e60d	-0.013116372
165	0x3cf0d674	0.029399134
166	0x3d933952	0.07188667
167	0x3e473adb	0.19456045
168	0xbca124f0	-0.019670933
169	0x3dbfe9d3	0.0937077
170	0xbde4f8c9	-0.111802645
171	0x3e2c54e5	0.1682926
172	0x3d03e07f	0.032196518
173	0x3d87f727	0.066389374
174	0x3cac4242	0.021027688
175	0xbe06d6f7	-0.1316794
176	0xbce600bb	-0.02807652
177	0x3de26303	0.11054041
178	0x3e4f090a	0.20218292
179	0x3d22ba71	0.039728586
180	0xbe05360e	-0.13008901
181	0x3d90e02b	0.07074007
182	0xbdbd81d0	-0.092532754
183	0xbc763e3b	-0.015029485
184	0x3dbcbcdc	0.092157096
185	0xbd8e5b3c	-0.06950995
186	0x3de4872d	0.11158595
187	0x3cb4e32a	0.022080977
188	0xbcab129d	-0.020882899
189	0xbd3354e9	-0.04378215
190	0x3dffafae	0.1248468
191	0x3da4346a	0.0801781
192	0xbe0efb46	-0.1396304
193	0xbded4b2c	-0.115866035
194	0x3e47db60	0.19517279
195	0x3d9dbba1	0.07701803
196	0x3e26f40d	0.16304035
197	0x3db8bccb	0.090203844
198	0xbd3fc5ea	-0.046819605
199	0x3aea6930	0.0017884132
200	0x3dd85d7b	0.10564705
201	0x3da9699f	0.08272099
202	0xbe2d27ad	-0.16909666
203	0xbd8c2ee1	-0.06844879
204	0x3be8d0f6	0.007104988
205	0xbc243bff	-0.01002407
206	0x3dbe0465	0.09278182
207	0xbe0a0061	-0.13476707
208	0xbcbef809	-0.023311632
209	0xbbc8f3c4	-0.0061325748
210	0xbe049561	-0.12947609
211	0x3d62379d	0.05522882
212	0xbe440a1c	-0.19144481
213	0xbe74a000	-0.2388916
214	0xbde3521b	-0.11099645
215	0xbe5c1df2	-0.21495798
216	0x3d456650	0.048193276
217	0xbd9a787d	-0.075425126
218	0xbdd2b7c5	-0.102889575
219	0xbdfbcf3e	-0.12295388
220	0x3e48f4bf	0.19624613
221	0x3e0c097d	0.13675494
222	0xbe57672f	-0.21035455
223	0x3d6811af	0.05665749
224	0x3da9e93c	0.08296439
225	0x3df274c4	0.118386775
226	0xbdc59d4e	-0.09649144
227	0xbe9ee09d	-0.3103074
228	0x3df8b3cb	0.12143668
229	0xbe8491c3	-0.25892457
230	0xbe2f6a44	-0.17130381
231	0xbdaa7918	-0.08323878
232	0x3d8bb0de	0.06820844
233	0x3d8f80c4	0.07006982
234	0x3e51819a	0.20459595
235	0xbc891c0e	-0.01673701
236	0x3e30a674	0.17250997
237	0x3da77317	0.081762485
238	0x3df8283c	0.12117049
239	0xbe44ba6c	-0.1921174
240	0xbdd97cab	-0.10619482
241	0x3d548b05	0.05189039
242	0xbd6f80ea	-0.05847255
243	0xbe51d7e5	-0.20492513
244	0xbd9b24b5	-0.07575361
245	0xbd2e1caf	-0.042507824
246	0xbe64dbbf	-0.22349451
247	0xbdaea707	-0.08527952
248	0xbc904076	-0.017608862
249	0x3db41975	0.08793918
250	0xbd161cca	-0.03664855
251	0x3ab9abc0	0.0014165565
252	0xbd56f53c	-0.052479967
253	0xbe359dba	-0.17735949
254	0xbe897349	-0.26845768
255	0xbbf565d5	-0.007488946

fc3.weight f4 [6, 256]
0	0xbd748eba	-0.059706427
1	0x3e3cd7ba	0.18441668
2	0xbe186d2e	-0.14885399
3	0x3d396bd7	0.04526886
4	0x3daf67b4	0.08564702
5	0x3e2fe028	0.17175353
6	0xbcdc8668	-0.026919559
7	0xbcd395b1	-0.025828214
8	0xbd986e89	-0.07442958
9	0x3e2df1e4	0.16986805
10	0x3d87d4e8	0.066324055
11	0x3d5c6402	0.053806312
12	0x3dd0644d	0.10175381
13	0xbc5bbd55	-0.0134118395
14	0xbe0c2254	-0.1368497
15	0x3dc602d0	0.09668505
16	0x3cf847af	0.030307619
17	0xbe083677	-0.13302027
18	0xbd345b44	-0.04403235
19	0xbe050405	-0.12989815
20	0x3ba16ab6	0.004926051
21	0x3b2889f6	0.0025716997
22	0xbdba895c	-0.091082305
23	0xbe43e570	-0.19130492
24	0xbc121ed3	-0.008918482
25	0xbe2f1ca3	-0.17100768
26	0xbc96bd36	-0.01840077
27	0xbd42d5dc	-0.047567233
28	0x3bc33340	0.005957037
29	0x3e2fda4a	0.17173114
30	0x3d51682b	0.051124733
31	0xbe8611d4	-0.26185477
32	0x3c879ff1	0.016555758
33	0x3ddd2e18	0.10799807
34	0x3d31830b	0.043337863
35	0xbd3d3dd1	-0.04620153
36	0x3c269d5d	0.010169354
37	0xbccaa00c	-0.02473452
38	0x3d5d2bcb	0.053996842
39	0xbe9a1c19	-0.30099562
40	0x3be7931b	0.007067097
41	0x3d2d9704	0.042380348
42	0x3db270cd	0.08712921
43	0xbbc2ea31	-0.005948328
44	0x3e11ed9e	0.142508
45	0x3cbd63c5	0.023118863
46	0x3c8d1b87	0.01722504
47	0xbb7daddd	-0.0038708367
48	0x3d73c5a4	0.059514657
49	0xbd369d70	-0.044583738
50	0x3e4ae1ef	0.1981275
51	0x3e133831	0.14376904
52	0xbdd5e198	-0.10443419
53	0x3d19d511	0.03755671
54	0x3d3b58d9	0.04573903
55	0xbc66f1b3	-0.0140957115
56	0x3b096310	0.0020963587
57	0xbe9ec1bf	-0.31007192
58	0x3dde381d	0.108505465
59	0x3db80663	0.08985593
60	0xbccd4e0b	-0.025061628
61	0x3d7ebd2f	0.06219214
62	0xbeb6865d	-0.35649386
63	0xbc8a502e	-0.016883936
64	0x3cc78dbe	0.02435958
65	0xbd6115cb	-0.054952424
66	0x3dc37fe6	0.09545879
67	0xbe7f6d81	-0.24944116
68	0x3d75521b	0.059892755
69	0xbbcd3ca2	-0.0062633315
70	0x3c82cb86	0.015966188
71	0xbd429f44	-0.04751517
72	0x3e142b3b	0.14469616
73	0xbd9203a0	-0.07129598
74	0x3cddf0fb	0.027092448
75	0x3d17b77a	0.03704021
76	0x3b272f2a	0.002551029
77	0x3d803e0d	0.06261835
78	0xbdd868d5	-0.1056687
79	0x3d51b3bb	0.051196795
80	0x3d8a6840	0.06758165
81	0x3d2e9c31	0.042629424
82	0xbe7478e3	-0.2387424
83	0xbd323bce	-0.043514065
84	0xbd84bcdc	-0.064813346
85	0x3d1cb280	0.03825617
86	0x3c010e82	0.007876994
87	0xbcbfd1e1	-0.023415508
88	0x3d59a237	0.053133216
89	0xbc1ebde3	-0.009688827
90	0xbdbd2b47	-0.0923677
91	0x3c3e5c57	0.011618695
92	0x3b83c4ae	0.004021249
93	0x3dc5428a	0.09631832
94	0xbd29d095	-0.041458685
95	0x3d5a66a1	0.05332053
96	0x3e236395	0.15955956
97	0x3e2fd292	0.1717017
98	0x3e813277	0.25233814
99	0xbd30e39a	-0.043185808
100	0xbe8b5446	-0.27212733
101	0xbc08c483	-0.008347633
102	0x3d32e963	0.043679606
103	0xbd1bd0d8	-0.038040966
104	0xbc640624	-0.01391748
105	0xbd05304f	-0.032516774
106	0x3dd2c127	0.10290747
107	0x3c6060a0	0.013694912
108	0x398b911b	0.00026620258
109	0xbd30e80f	-0.04319006
110	0xbb835c83	-0.004008831
111	0xbcd0af83	-0.025474316
112	0xbdbf40d2	-0.09338535
113	0x3e3bb13b	0.18329327
114	0xbe2ff3ce	-0.17182848
115	0x3e868250	0.26271296
116	0xbe11fa79	-0.14255704
117	0xbc7d170d	-0.01544739
118	0x3d88f340	0.06687021
119	0x3e2f7cb1	0.1713741
120	0x3cccdb55	0.02500693
121	0xbc9317c7	-0.017955674
122	0xbbc4ca42	-0.0060055563
123	0xbdc490d2	-0.09597935
124	0xbe204d63	-0.1565452
125	0x3d7c30ee	0.0615701
126	0xbd841750	-0.06449759
127	0xbdf83add	-0.12120602
128	0xbd889e2b	-0.06670793
129	0x3d839f59	0.064268775
130	0xbd9e198c	-0.077197164
131	0xbf0205a9	-0.50789887
132	0x3d5d93a0	0.054095864
133	0x3da16943	0.07881405
134	0x3d856f75	0.06515399
135	0xbe5488ac	-0.20755261
136	0xbd6ad83f	-0.057335135
137	0x3dd2f30c	0.10300264
138	0x3e2956fe	0.16537091
139	0x3da73248	0.08163887
140	0xbc9435a1	-0.018091979
141	0x3ca837db	0.020534446
142	0xbcd8bfc9	-0.026458638
143	0x3bde1add	0.0067781047
144	0xbca0b4e2	-0.019617502
145	0x3df0b564	0.117533475
146	0x3f1d4b84	0.6144335
147	0xbddcbc68	-0.10778123
148	0x3c0867d5	0.008325537
149	0x3da10a68	0.07863313
150	0xbd6131a3	-0.054978978
151	0xbdbf1fe8	-0.093322575
152	0x3dcc70a3	0.09982421
153	0xbc82dd1a	-0.01597457
154	0xbe82d4e5	-0.2555305
155	0xbd63a505	-0.055577297
156	0x3dbe13fd	0.09281156
157	0x3e1d42ba	0.15357485
158	0x3d8bf4a1	0.06833769
159	0xbd318658	-0.04334101
160	0x3d82290a	0.06355484
161	0xbcb50dc1	-0.022101285
162	0x3d777444	0.060413614
163	0xbdd1e8ed	-0.10249505
164	0xbce3e1d8	-0.027817652
165	0xb95c1292	-0.00020987753
166	0xbd4e48cc	-0.050362393
167	0xbe323b34	-0.17405397
168	0x3ced3d78	0.028959975
169	0x3db25e70	0.08709419
170	0xbce8aeaf	-0.028403608
171	0xbda523c6	-0.08063464
172	0x3e4c8003	0.19970708
173	0x3e135488	0.14387715
174	0xbd4463d5	-0.04794677
175	0xbc760e07	-0.015017993
176	0xbe48827f	-0.1958103
177	0xbe52543d	-0.20539947
178	0xbbdc77a6	-0.0067281304
179	0xbdbf87b4	-0.09352055
180	0x3d7fc08f	0.062439498
181	0xbc120567	-0.008912421
182	0x3e87759d	0.2645692
183	0x3dc48b63	0.095968984
184	0x3cd2b3fc	0.025720589
185	0xbc886720	-0.016650736
186	0x3ccef4af	0.025263159
187	0xbd8ff846	-0.07029776
188	0x3c8992a7	0.016793562
189	0xbc8f7da5	-0.017515967
190	0x3da62804	0.08113101
191	0xbd32bd72	-0.0436377
192	0xbe19fe52	-0.15038422
193	0x3e035067	0.1282364
194	0xbdf5ce6b	-0.12002262
195	0xbd68bd43	-0.05682112
196	0xbd1b86fb	-0.037970524
197	0xbee4f645	-0.4471914
198	0x3d30e9a1	0.043191556
199	0xbe1e84dc	-0.1548037
200	0xbb436747	-0.0029816197
201	0x3ce22abc	0.027608268
202	0xbe7bc767	-0.24587785
203	0x3b3b26aa	0.002855698
204	0x3df8d8f0	0.121507525
205	0xbde76e8e	-0.113003835
206	0x3d0a14ac	0.03371112
207	0xbcfe9a3b	-0.031079402
208	0x3c91913e	0.017769452
209	0xbdc029e8	-0.09382993
210	0x3e2b439c	0.1672501
211	0x3dba5e38	0.09100002
212	0x3deb4903	0.11488535
213	0xbcae8994	-0.021305837
214	0x3d74c413	0.059757303
215	0xbdf7ca17	-0.120990925
216	0x3cd1a4eb	0.025591334
217	0x3da87942	0.08226253
218	0x3dc0a605	0.09406666
219	0xbd9dedca	-0.0771137
220	0x3cebd42d	0.028787697
221	0x3c6292f2	0.01382898
222	0xbeb41d2d	-0.3517851
223	0x3e0de80f	0.13858055
224	0x3e385dfe	0.18004605
225	0x3dcd4147	0.10022216
226	0xbe91bc7d	-0.28464118
227	0xbde2368d	-0.11045561
228	0xbcb204e5	-0.02173085
229	0x3c66d865	0.014089678
230	0x3ceec77b	0.029147854
231	0x3d84bf2b	0.06481775
232	0x3e0050d0	0.12530828
233	0xbdb0b78e	-0.0862876
234	0xbde2a300	-0.11066246
235	0x3d89801e	0.067138895
236	0xbc4c0b08	-0.012453802
237	0xbbe887ca	-0.0070962654
238	0xbd906e6f	-0.070523135
239	0x3da440ef	0.080201976
240	0x3da3d962	0.08000447
241	0xbd0bb260	-0.03410566
242	0x3e18d687	0.14925586
243	0xbe16b08f	-0.1471579
244	0x3c60c8e6	0.013719773
245	0x3d0d86b9	0.03455231
246	0x3d4489db	0.04798303
247	0xbd0b8bb4	-0.03406878
248	0x3b3988a6	0.0028310209
249	0x3d2767a5	0.040870328
250	0x3e8bf619	0.27336195
251	0xbdcd57f8	-0.10026544
252	0xbde3d945	-0.11125425
253	0xbc1cf7b1	-0.009580539
254	0xbdecc15f	-0.1156032
255	0x3d662474	0.05618711

fc3.bias f4 [6]
0	0xbd5bce3d	-0.05366348
1	0xbe30879f	-0.17239235
2	0x3de838d8	0.11338967
3	0x3ddd8289	0.10815913
4	0x3d80b77e	0.06284998
5	0x3d81fc5c	0.06346962
