model_save/bc/bc_policy25.pt (torch, 289751 bytes, 6 tensors)

fc1.weight f4 [256, 17]
00000000: 24b6 d53d 8fe0 843e 6d18 e33e fa8d 433f
00000010: 6d83 3e3e 7b5f 163d 5554 2cbf 9065 51be
00000020: 5c4e b2be fd80 ad3e 1b6f ab3e 474d 233e
00000030: 687f 543e 8de5 c53d 394e 27be 7a33 30be
00000040: ffa8 9d3d cacb 11c0 4416 18be bca6 203e
00000050: 9f9e 6a3e f5b5 08be ea1f 02be 02d9 513d
00000060: da6a fabe dff8 443c 5950 16bf 0ab9 883e
00000070: 9024 ae3d a09e d13d 046e b6bc 175e bc3d
00000080: eb79 2f3e 7457 053e ee95 edbf 0d23 58be
00000090: dd91 a4be 3eb9 27bf 3ef0 b6be c566 c2be
000000a0: c93e 9dbd 0407 00bf cf43 debd 8a81 79be
000000b0: ca80 f43c 8a3e 0d3d c793 0e3d 324f ad3d
000000c0: 7b65 27bd b58d 86bd 9e9e aa3d e75a 1fbf
000000d0: 641c 63bd 82d0 84bc 46ee 67be 18c4 09be
000000e0: 9ab0 fabd 7902 f83d 2909 df3d 4b30 4fbe
000000f0: cc83 20be ca15 833e 0434 6e3e e7b4 d73d
00000100: eb92 a1bd eabf 823e 2047 c6bd 82f8 e93b
00000110: 8b9a 0f3f fb33 2ac0 b9c5 8a3e 6478 8bbe
00000120: 7161 9b3e c32d 9f3e a81c 633e 6afb 7a3e
00000130: 74ee 39bc 8768 6fbd 2f13 4dbe 2691 27bc
00000140: 6081 0c3d b86c aabd 0671 323d d6fd 293c
00000150: 627c 803c be3b 90bf 0a33 e63e 6f38 f4be
00000160: a1f1 48bf 75f2 843f e451 263f f9d4 253e
00000170: 40bd 4abd a3c1 60be 9fed 02bf e91f 13be
00000180: a27a 563d ce8e 76bd 19b8 80bc d807 7bbd
00000190: c0ed 96bd ff4b 65bd ca38 493f c9f5 35be
000001a0: 0a79 a83e 4e12 893c 976b 7fbe 6e1a c73e
000001b0: fabd 14bf 6736 d43e 2130 bdbd f392 3d3f
000001c0: 515f e63e 5572 d139 5e99 cfbc 7e5f 1a3e
000001d0: b7ae 9dbd d937 3a3e 2eaf 08be 1809 7f3e
000001e0: 3441 f03e 3bde 7d3e ca13 183f da3a 113d
000001f0: 1c1e c1be 3a17 cfbe 12d2 0f3f b5bb f93c
00000200: 47f5 cbbd ad25 533e 85d9 8d3d 9eac a03b
00000210: 419f 6f3d 27f6 993d e66c 923d 2b64 edbc
00000220: 31c6 8bbf b6d1 1d3e 9d72 4f3e 6d97 9fbe
00000230: a62f 0fbe 1e67 5cbf e665 1cbf 9569 ea3e
00000240: 98be 1abe 30b0 f3be 56c2 493f 9ecb 2ebe
00000250: f095 afbd 80ff 633d fdb3 f6bc 0699 7d3d
00000260: 1137 b03d c439 30bf ed4f 27bf 252b 003c
00000270: 3355 ccbe 96b5 f2bd d315 5abf 6420 d13e
00000280: 8b0e d1be 7a44 e2bd 5dcc 38bf 99d2 8ebd
00000290: ba67 0f3c b3d1 75bd 56fe 313e 2b10 763d
000002a0: 3ab3 1b3d 56a1 c9bd 626f cbbe 7588 1f3e
000002b0: 5c13 f63b afeb 06be 6fc6 883e c529 00bf
000002c0: 0596 5a3e d1d1 99be 282a d2bd 2c95 26bf
000002d0: b689 a73e 267e 453d 431c efbd 1048 cd3d
000002e0: 63c2 2f3e ade1 99bd 41d0 c13c e4f4 44bf
000002f0: 67f8 8a3e c953 dabe baed f7be 48c7 6abe
00000300: 3bda ea3e 6ac4 86bf 1aff 84be 9baf 39be
00000310: e57b e7be 25b8 873e 9df9 493d af3b 2d3e
00000320: 3986 9dbd f5c1 903d 1d6f 88bd 51fc a03c
00000330: 5231 20c0 c6ba f8bf 4424 1ebf 77a4 97be
00000340: 3277 9fbe 4943 5cbe f1c5 d3bd f082 61be
00000350: dc02 b9bc 5a84 74be 467f abbd 1bfd 1e3e
00000360: 6266 77bd 93c9 473d 9690 003b 5686 bf3c
00000370: e1a9 36bd 8b17 a9bf d2c9 b2bd 1245 7abe
00000380: 4ee1 963d aef3 fa3e 0ef9 b6bc 3ff1 84be
00000390: a6da 4cbe 18f8 10bd 27ae 47be 39b0 4d3e
000003a0: 6bae 17bd f302 d23d acfb 96bc 5c78 ccbd
000003b0: 8869 bd3d 73ac 1bbe 2597 1c40 ffd4 723e
000003c0: b2c7 efbd a565 00be 8fe5 bd3e b404 b23d
000003d0: fb54 963e f719 9bbd d6c6 9d3d f722 ca3e
000003e0: 27b3 d8be cc87 ec3d 6b0d 55bd 1d44 74bd
000003f0: a192 0ebd 2021 8e3c 42cf c23c af6f d7bd
0.10435131 0.25952575 0.44354573 0.76388514 0.18604822 0.03671215 -0.6731618 -0.204489
-0.34825408 0.33887473 0.33483204 0.15947448 0.20751727 0.09662924 -0.16338433 -0.17207137
0.07698249 -2.2780633 -0.14852244 0.15688604 0.22912072 -0.13350661 -0.12707487 0.051232345
-0.48909646 0.012022226 -0.5871635 0.26703674 0.085030675 0.102353334 -0.022269256 0.09197634
0.17136352 0.13021642 -1.856138 -0.21107121 -0.32142535 -0.6551703 -0.35730165 -0.37969032
-0.07677991 -0.50010705 -0.10852777 -0.24365821 0.029846568 0.03448347 0.0348089 0.08462371
-0.040868264 -0.06569997 0.08331035 -0.6224808 -0.055446997 -0.016212706 -0.22649488 -0.1345371
-0.12240715 0.121098466 0.10890419 -0.20233266 -0.15675277 0.2560256 0.2326203 0.10532551
-0.078893505 0.25537044 -0.09681535 0.00714022 0.5609519 -2.6594226 0.27103975 -0.27240288
0.3034778 0.310896 0.221789 0.2450997 -0.011348356 -0.058449294 -0.20026849 -0.010227477
0.03430307 -0.08321518 0.04356482 0.010375461 0.01568431 -1.1268232 0.44960815 -0.47699305
-0.78493696 1.0386492 0.64968705 0.16194524 -0.04949689 -0.21948867 -0.5114383 -0.14367642
0.052363046 -0.060194783 -0.015712785 -0.061286777 -0.07369566 -0.05598068 0.7860228 -0.17769541
0.32904845 0.016732361 -0.24943386 0.38887352 -0.5810238 0.41447756 -0.092376955 0.7405235
0.44994596 0.0003994877 -0.025341686 0.1507549 -0.0769934 0.18185367 -0.13348076 0.24905813
0.46924746 0.24791805 0.59405196 0.035456516 -0.37718284 -0.40447408 0.56179917 0.030485013
-0.09958892 0.20619841 0.06926254 0.00490339 0.058501486 0.07517653 0.07149677 -0.028978428
-1.0919858 0.1541203 0.20258565 -0.31170216 -0.1398302 -0.86094844 -0.61092985 0.45783678
-0.15111768 -0.47595358 0.7881216 -0.17069861 -0.0857352 0.055663586 -0.030115122 0.061913513
0.08604253 -0.68838143 -0.6535633 0.007822786 -0.39908752 -0.11851041 -0.8518955 0.40845025
-0.40831408 -0.11048217 -0.72186834 -0.06973762 0.008752758 -0.060014438 0.17382178 0.060074013
0.03801272 -0.098452255 -0.39733416 0.15579398 0.007509632 -0.13175844 0.26713893 -0.50063735
0.2134629 -0.3004289 -0.10261947 -0.6507137 0.32722253 0.048216008 -0.11675312 0.100235105
0.17163996 -0.07513747 0.023658874 -0.76936173 0.2714264 -0.42642048 -0.48423558 -0.22927582
0.45869622 -1.0528691 -0.25975877 -0.18133394 -0.45211712 0.2650768 0.049310315 0.16917299
-0.076916166 0.07068244 -0.06661818 0.019651564 -2.5030103 -1.9431999 -0.61774087 -0.29617664
-0.31145626 -0.21510042 -0.10340489 -0.22022605 -0.022584371 -0.23878613 -0.08373885 0.1552624
-0.060400374 0.04877622 0.001961743 0.023379486 -0.044595603 -1.321031 -0.087299004 -0.2444041
0.07367192 0.49014038 -0.022335555 -0.25965306 -0.20005283 -0.03539285 -0.19500028 0.20086755
-0.037031572 0.10254469 -0.018430553 -0.09983894 0.09248644 -0.15202503 2.4467251 0.23714064
-0.11708011 -0.12538774 0.37089202 0.08692303 0.2936171 -0.07573312 0.077039406 0.394798
-0.42324182 0.11549339 -0.05201475 -0.05963527 -0.034807805 0.01734978 0.023780469 -0.10519349

fc1.bias f4 [256]
00000000: b87a a9bd 2783 4e3d 8464 cb3e cbc4 003c
00000010: a071 69be 5425 bc3e 51fc f3bb 03aa c63d
00000020: 8b45 95bd cca2 013f 5bb6 bbbe 83b8 32bd
00000030: 264c 2bbc e8d5 173e 7e48 9fbd 6587 a4bd
00000040: 3685 3e3e d9a2 cabc de79 9ebc b1bf 9ebd
00000050: 1dfb cabd c42c 113e 74b0 593e 4a8e 2d3e
00000060: 23e7 f03d cf53 473e 8b09 2bbe 45d8 863d
00000070: 87a7 3e3e 63da d0be 2bd3 42bc cf33 2c3e
00000080: adc7 dfbd a4cf d2bc 0075 45be 6a3d 4bbe
00000090: 1378 3dbe c9bc 4cbe aae4 a73d 94c1 aa3d
000000a0: 4626 fc3e 4381 46bd 2afd 243e a23f df3c
000000b0: 2997 67be c30a 23bd 3a3f 333e 5edf b93e
000000c0: 1abd 0f3e afbc cabe 5006 1fbe 9aae debe
000000d0: 5f3a 983e 15f4 5fbe f62e e0b9 ab56 93be
000000e0: 3308 2dbd 3d6b 543c d30e de3c b8c1 943e
000000f0: d75e dd3d 3f84 6ebe f8b7 19be 1a9b 423d
00000100: 3b51 b7bd 73e3 01bf d972 f4bd f069 adbe
00000110: eab8 4d3e 705a 353e 6329 09be a930 ecbd
00000120: 4990 a1be 4d6e 8d3e 625e 3d3e d212 16be
00000130: 9d10 89bd e909 ef3e 4755 663e 94a7 dbbd
00000140: 0093 90be cb87 373e 7e04 ba3d 173c 07be
00000150: 0d4e 1b3e a136 c8bd ea4e bcbd 38b1 0b3e
00000160: 59d8 bb3e 59db 733c 1649 5dbd ae44 c73e
00000170: 8b56 2fbe 8028 c5bd 35c3 553c 50fb 083e
00000180: 0291 b53e 165d 823d 5106 4cbe d25f 80be
00000190: 5eb1 973e d094 31be a8d5 563e 80a3 1dbe
000001a0: 5cc9 c13e 8b4a 9c3e 8b7e a4bd 5f25 2a3d
000001b0: 03a8 94be 0dfb 57bc 6988 3ebe b1b2 233d
000001c0: 4c14 d03d 32de f0bd 8e63 8abc 6bee 4f3c
000001d0: be17 ef3e 840a a13d 4df9 dfbc cdb8 103e
000001e0: 428d d7be 57ec 6cbe 9a70 a0be 2491 103e
000001f0: 7982 74be fa53 cd3d a2fd 6fbd c1fc 01bf
00000200: b7ea 55be 3722 603e 6509 b6bd 3d42 e93c
00000210: 256b 91be 6a9d 42bb 8a4d fd3e be10 9c3e
00000220: 0faa c03d 3965 f83c 0bf0 e8be bfdb 50be
00000230: c5b3 9d3e 5210 3a3d e7ea 1ebe bd53 beb9
00000240: abb9 9cbe 4850 04be 481c 6b3c 8535 cdbe
00000250: a190 ae3d 6fdf 58be 6824 b23e fe8a 31be
00000260: 24cf 1bbe 6c00 87be 9cbb a03d 1b67 85be
00000270: b91d acbe 51e5 41bd 1f9b dcbd cd2a d83e
00000280: cf4c 18be b33f ab3d c5c2 5dbe 5666 d03d
00000290: 9132 b63d 2624 213e 5d8b 90be 4ca7 5b3d
000002a0: 6a5b bd3e 3139 233d 2ab9 afbd 21ee f5bd
000002b0: 211d e6bd ed2f 95bc 7595 403e 3568 133e
000002c0: f6c1 87bd c1c2 563d f27f 06be dcfe 91be
000002d0: 1f83 ddbc ef98 b13e 3675 e2bd c84e c13e
000002e0: 7eff 8ebe 9af7 053e 3211 93be 33ba 3ebe
000002f0: 4473 103f 2ee4 6a3d 75ab a43d 010e cebd
00000300: 1b09 86be 4d96 a3be e35b 8dbd b921 d13c
00000310: 12b8 273c 0b56 56be 977f c93d ebeb bebc
00000320: 6d08 683d bbb0 72be cf92 ff3d 8c32 2dbd
00000330: 4ce8 8e3e 9823 89be fafe 113e f6c9 1ebe
00000340: c7db 73be 0936 103e 014d 20bd 67bb 953d
00000350: bddb 8bbe 84db 9f3d b511 3f3e 2a10 33be
00000360: cb65 7b3e 7d4f 9cbe 1a23 5abe a58d fc3e
00000370: bd60 0cbe 6539 ea3d a732 33be 7afc 39be
00000380: 3ec2 673d c92f 483e 2997 a3be bcdf 33be
00000390: 7265 ac3d 3ac1 34be bc27 1ebe c663 373f
000003a0: d9e4 e33e 18c1 51be ff9c 37be 6c8b 99bd
000003b0: ba7d 893d 6fa6 a1be f9b9 1a3c 702a ba3e
000003c0: 2110 b5be 529c a9bd 4dd5 1dbe 8260 683e
000003d0: 5e34 673e 1c37 8bbd 43b8 e4bb 96ef b03d
000003e0: abe4 7bbd b51b 083d 282b af3e 8231 3fbd
000003f0: 2235 423d 8df8 b63d 1fd7 39bc 5bdd b8bd
-0.0827536 0.050418045 0.39725125 0.007859419 -0.22797251 0.3674723 -0.00744585 0.09700396
-0.07288655 0.50639033 -0.36662564 -0.043632995 -0.010455167 0.14827693 -0.07777499 -0.08033637
0.18605503 -0.024735855 -0.01934522 -0.07751406 -0.09911177 0.14177233 0.21258718 0.1694881
0.11762836 0.19465564 -0.16702859 0.06584219 0.18618594 -0.40791616 -0.011891167 0.16816638
-0.10926757 -0.025733776 -0.19282913 -0.19847646 -0.18502836 -0.19993891 0.08197911 0.08337703
0.4924795 -0.048463117 0.161122 0.027252022 -0.22616257 -0.039805185 0.17504588 0.36303228
0.1403698 -0.3959708 -0.15529752 -0.43492585 0.29732034 -0.21870454 -0.00042759598 -0.2877706
-0.042244148 0.012965021 0.027106678 0.29054046 0.10809105 -0.23292635 -0.15011585 0.047511198
-0.0895104 -0.50737685 -0.11935968 -0.33869886 0.2009007 0.1771028 -0.13394694 -0.11532719
-0.31555393 0.27623215 0.18493035 -0.14655617 -0.06692622 0.46687248 0.22493468 -0.10725322
-0.28237152 0.17922895 0.09082888 -0.13206516 0.15166493 -0.09776045 -0.09194739 0.13641822
0.36688498 0.0148838395 -0.05402478 0.38919586 -0.17122857 -0.096268654 0.013047029 0.13377118
0.35462195 0.06365411 -0.19924285 -0.25073105 0.29627508 -0.17341924 0.20979941 -0.15394402
0.37848938 0.30525622 -0.08031949 0.041539546 -0.29034433 -0.013182414 -0.18606724 0.039965335
0.10160121 -0.117611304 -0.016893174 0.012691121 0.466978 0.07863334 -0.027340556 0.14132996
-0.4209996 -0.23137031 -0.31335908 0.14117867 -0.23877896 0.10025783 -0.058591492 -0.50776297
-0.20890318 0.21888052 -0.088885106 0.028473968 -0.28402057 -0.0029695877 0.4947322 0.30481523
0.09407436 0.030321704 -0.45495638 -0.20396326 0.30801216 0.04542572 -0.15519296 -0.00036302014
-0.30610403 -0.1292125 0.0143500045 -0.40079895 0.085236795 -0.21178983 0.347934 -0.17338178
-0.15215737 -0.2636751 0.07848284 -0.26055226 -0.33616427 -0.047337834 -0.107717745 0.42220154
-0.1487305 0.08361759 -0.2165633 0.10175769 0.088963635 0.15736446 -0.28231326 0.053626344
0.36983806 0.039849464 -0.08580239 -0.1200831 -0.11236025 -0.01821133 0.18807013 0.1439522
-0.06628792 0.052431826 -0.13134745 -0.28514755 -0.027040062 0.34686992 -0.110575125 0.37755418
-0.279293 0.13082734 -0.28724056 -0.18625717 0.5642588 0.057346515 0.08040515 -0.10061265
-0.26178822 -0.31950608 -0.069022916 0.025528776 0.010236757 -0.2093126 0.09838789 -0.023305854
0.05664866 -0.2370023 0.124791734 -0.042284533 0.27911603 -0.26784968 0.14257422 -0.1550673
-0.23814307 0.14083113 -0.039135937 0.07311135 -0.27316085 0.07805541 0.18659098 -0.17486635
0.2455055 -0.30529395 -0.21302453 0.49326816 -0.13708778 0.114367284 -0.17499791 -0.18162718
0.05658173 0.19549479 -0.31951264 -0.17565817 0.08417787 -0.17651835 -0.15444845 0.7163662
0.44510534 -0.20483816 -0.17930983 -0.07497296 0.067134336 -0.3157229 0.009443753 0.36360502
-0.35363868 -0.08281769 -0.15413399 0.22693065 0.2257857 -0.06797621 -0.0069799735 0.086394474
-0.06149737 0.03322955 0.34212613 -0.046678074 0.047413953 0.08934126 -0.011342793 -0.09026595

fc2.weight f4 [256, 256]
00000000: 45b7 913c 3f48 0dbd 2914 b5bc 56a9 50bd
00000010: 7da6 f03d 6f29 b13d cab4 21bc c6d8 88bd
00000020: 89b8 53bc b914 853a 9bef 0c3d e382 9fbd
00000030: b8ba 693d 2766 633c a06f 893d 5984 a9bc
00000040: 2041 1dbd 54c7 a439 903f fe3c d8ff acbb
00000050: 852d 113c 22fb ebba f16e 293d a0b7 6fbc
00000060: bc9a 2bbd a18a e0bc 0967 763b aa99 60bd
00000070: 2d16 8cbd fe10 b23c 2df6 d6bd 69d4 963b
00000080: 7a1f dc3b f858 a0bb 8e7b cdbd efd5 7b3c
00000090: 32dc bf3c 2b78 b8b9 8237 7dbd d453 04bd
000000a0: 498b 52bd f55d c5bb 9382 dbbc a134 d53b
000000b0: d545 d73c 9496 b53c 5b2b 0b3d 4ec9 e4bc
000000c0: 57e9 3c3c 9629 6c3d 0c76 923b ea92 e53c
000000d0: d0f2 e3bc 14db f1bc ba36 13bd a040 92bb
000000e0: 3303 dabc be88 753d 3415 54bd 955f 94bc
000000f0: 650f 35bc cf71 a33c 8dc5 90bd 1fde b9bc
00000100: b543 bcbd 41c9 1fbd 18ac 5f3b 6ff7 d1bc
00000110: a8f8 233d 74ac 79bd dd1f 96bd 8c52 9fbd
00000120: e6f6 e53c 8849 3b3d ebcf 113c 9c38 86bd
00000130: dd58 933d 26b8 bdbb 1cf2 07bd db97 7b3d
00000140: 6933 2c3d 9535 d0bb 0ba6 83bc 9d47 efbc
00000150: 7651 823d 0abd b3b8 41a5 563d 22cc 363c
00000160: 4470 4fbc 3b06 603d 8611 49bd c38c b5bc
00000170: 9b51 1b3d 0b26 80bc 5dcf 5c3d 1d26 833d
00000180: 8ff3 2b3d 0ee6 81bd a091 f63b 4709 943d
00000190: 2131 963d 78fa d63b 0605 0bbc 3a0f 7f3c
000001a0: 0597 5dbc fe62 adbb 5ed9 9a3c dbc3 a4bc
000001b0: 7713 1e3d 4429 b73c 7379 27bc aff2 833d
000001c0: 849e 003d 9767 48bd fb4b a83b 7ddb de3c
000001d0: 74cd 0c3d 120b cebc db26 55bd b41e cb3b
000001e0: 4e86 0ebc 6d47 18bd 7e95 4ebd 0ea0 813d
000001f0: 7967 a03c c53b 3e3d 1bbe e3bb 55e4 153d
00000200: 1b3a 563d a470 b83c 9c4a c43a 3d0c 2d3d
00000210: 96e1 3bbc d718 d53c ba35 debc 7e81 81bd
00000220: e97a be3c 05af 373c 996f 853d 3aca d3bb
00000230: b811 e53c 2271 1bbd 6a04 3b3d a83a 8c3d
00000240: 947f 10bd 9439 c73c 87d1 70bd 6fb5 89bd
00000250: 56a0 533d fc3f 04bd f55d 05bd 72aa 73bd
00000260: 4a59 043d fdd5 453d ac41 53bc e058 f53c
00000270: adcf d03d 46fb a4bb 32e5 d939 91dc 22bd
00000280: 5599 94bd caba 0f3c a657 85bc 9538 06bd
00000290: d375 e9bb 5ab5 6bbb a4a9 383d 437b a2bc
000002a0: 9391 233c 6c38 983c 0469 babc 3977 87bb
000002b0: 49ff 6dbb 3140 b9bd d844 0a3d caf7 2f3b
000002c0: e523 53bd f4fc 003d 220b c4bd b85a 653c
000002d0: 14d2 573d 10f1 fd3c 2833 2cbd 77a2 683d
000002e0: 4937 26bb 7632 573d 49af 7d3c b940 a03c
000002f0: 99b9 da3b eff8 273d 466a 1ebb 75a1 a2bd
00000300: bcb3 05bd 7293 673c 4131 b93c 3975 983d
00000310: c908 9dbd 79cd 49bd d284 ab3c dd6e c83b
00000320: a909 853d 3534 b93a 3844 b9bc 15f7 273d
00000330: 3574 913d 6e10 d2bc b4d4 73bd ef4f c1bc
00000340: 3587 8b3d a006 e8bc ee7b ae3c 99d0 063d
00000350: 9c13 5a3d b4ef 4c3d 2d97 35bd 5ef0 113d
00000360: 9ad5 5d3d cf6f bcbc 8cc1 19bc 1f20 213b
00000370: 1de9 3c3d cb88 a23c 48d4 953d fec5 213c
00000380: 9574 01bd 11af 72bd eaf0 14bd 729f 22bc
00000390: 8ec0 4ebb 7438 21bd baca e3bc 56fe be3d
000003a0: ffdc 353d fa42 2dbd 648f 04bd e710 0b3c
000003b0: ddd1 1bbd 9bcd 543d 611a e03c 443f d73c
000003c0: b1e8 f5bc 9db5 ef3c ffff bd3b c895 3d3d
000003d0: 3fd6 eebd 7c57 033c cae7 36bd 2ce7 60bc
000003e0: fa13 d5bd ce5a a63c fc50 493d 7238 1b3d
000003f0: b436 01bd a508 23bd b1f5 163c b9bb 9d3d
0.017787585 -0.034492727 -0.02210434 -0.05094274 0.11750505 0.08650481 -0.009869764 -0.06681971
-0.012922415 0.001015327 0.034408193 -0.077886365 0.057062835 0.0138793355 0.06710744 -0.020692991
-0.038392186 0.0003142903 0.031036168 -0.0052795224 0.00886095 -0.001800392 0.041365568 -0.014631182
-0.041895613 -0.027409853 0.0037598035 -0.054834045 -0.06840167 0.021736618 -0.10496173 0.004602958
0.0067176195 -0.0048934184 -0.10033332 0.01537083 0.023420427 -0.00035184747 -0.061820515 -0.032306507
-0.051402364 -0.0060231634 -0.026795661 0.006506518 0.026278416 0.022166528 0.033976894 -0.02792802
0.011530242 0.057656847 0.0044696387 0.028024156 -0.027825743 -0.02952341 -0.035940863 -0.0044632703
-0.026612854 0.05994486 -0.051778033 -0.018111983 -0.011051034 0.01995173 -0.0706893 -0.022688923
-0.091926016 -0.03901029 0.0034129675 -0.02563068 0.04003206 -0.06095548 -0.07330296 -0.077794164
0.028071832 0.04572442 0.008899669 -0.06553766 0.07194684 -0.0057897745 -0.033189878 0.061424118
0.042041216 -0.0063540437 -0.016070386 -0.029208953 0.06363194 -8.5705964e-05 0.052403692 0.0111570675
-0.012661044 0.05469344 -0.049088977 -0.022161847 0.037919622 -0.01564314 0.053908695 0.06403754
0.041980322 -0.063427076 0.007524684 0.07228332 0.07333589 0.00656062 -0.008485084 0.015567595
-0.013524775 -0.005291342 0.018902477 -0.020112922 0.038592782 0.022358544 -0.010221827 0.064427726
0.031401172 -0.048926916 0.0051360107 0.02720427 0.034375623 -0.025151763 -0.05203901 0.0061987285
-0.008699013 -0.037177492 -0.050435536 0.06329356 0.01958059 0.04644372 -0.0069501526 0.036594708
0.052301507 0.022514649 0.0014975849 0.042248 -0.011467358 0.026012821 -0.027125228 -0.06323527
0.023251968 0.0112111615 0.06515426 -0.0064633163 0.02796255 -0.03794969 0.045658506 0.06847125
-0.035277918 0.024319448 -0.05879357 -0.06724059 0.05166658 -0.032287583 -0.032560308 -0.05948872
0.032311715 0.04829978 -0.012894075 0.029949605 0.10195861 -0.005034837 0.0004156023 -0.03976113
-0.07255808 0.008772561 -0.016277146 -0.032768805 -0.0071246414 -0.0035966248 0.045083657 -0.019834166
0.009983438 0.018581592 -0.022755153 -0.0041340855 -0.0036315492 -0.09045447 0.03375706 0.0026850575
-0.051547904 0.031491235 -0.09572436 0.01399868 0.05269058 0.030998737 -0.042040974 0.056795564
-0.0025362542 0.052538358 0.015483686 0.019562112 0.006674957 0.041008886 -0.002417223 -0.07940952
-0.03264211 0.014134275 0.022606494 0.074442334 -0.07667691 -0.04926822 0.020937357 0.0061167316
0.06495983 0.0014129939 -0.022615537 0.04100712 0.07102243 -0.0256426 -0.05952902 -0.023597686
0.06812898 -0.028323472 0.021299329 0.032913778 0.053241357 0.050033286 -0.044333626 0.035629623
0.054158784 -0.023002533 -0.009384524 0.0024585796 0.04612075 0.019840619 0.0731588 0.009873865
-0.031605322 -0.059248988 -0.036362566 -0.00992571 -0.0031547877 -0.03936048 -0.027806628 0.093258545
0.04440021 -0.042300202 -0.03236331 0.008487917 -0.038041938 0.051953893 0.027356328 0.026275285
-0.030018182 0.029261405 0.0057983394 0.04628542 -0.11661958 0.008016463 -0.044654645 -0.013726991
-0.10404201 0.02030697 0.0491495 0.037895627 -0.03154631 -0.039803166 0.009213851 0.07701821

fc2.bias f4 [256]
00000000: 6182 363c 5cec b5bd eee5 e83d 2697 1fbd
00000010: b96f 0dbe 0917 823e b374 7dbd b513 943e
00000020: d823 85bd 22a0 f53d 6361 93bd d923 d5bd
00000030: f949 2b3c 5e5f 9b3d 833b 68bc 1f27 4f3d
00000040: 91f9 153c a1f2 553d f5b8 77bc 6f01 2d3c
00000050: 8350 843c c779 073e 95b1 24bd f642 f83c
00000060: af0c 36be 7294 dfbd 4740 17be 55bb 833d
00000070: 6a64 c73d 67a1 e1bd 825d e1bc c9ab 083c
00000080: 055f 23be 26bd 9cbd e56a 983c c6f3 073e
00000090: 474f 4abe 9619 f13a a796 63bd 410e 413e
000000a0: 7a25 c43d 1a2e 8e3c 66a4 14be 1741 1c3d
000000b0: 4850 583d a858 24bd d8b6 77bc 7f78 74be
000000c0: 5890 763d d618 a8bc f704 d8bb 8834 c03d
000000d0: c199 28be 4963 debd 007b fdbc b64d 593b
000000e0: f0d7 1c3e aa3a 393e 548b 75bd 4316 c53d
000000f0: cb7e 413e 7573 3d3d 2894 003d bad7 123e
00000100: 9e95 a7bc ade0 3cbe 7572 3abe ed4b 993e
00000110: 6093 383c b14c 15be bf26 f93c cd4c 423d
00000120: 7573 29be 9e9e 0fbe e2c5 fabd 742b 043e
00000130: 81af 883c b042 68bd 50fc 0cbc 3fbe 8bbd
00000140: 8e16 04be 6599 a4bd 1265 8a3e 645e 0ebe
00000150: 9b91 163c 861d 22be acc0 973d 6333 f2bd
00000160: 7db9 10be 7f15 e93d 7779 03bd 261d b0bb
00000170: 00c3 a43d 739e 893d 0cc5 ab3c 3f64 68bd
00000180: 7349 72bb d808 8ebd 17b9 89bb 2505 f23d
00000190: 84ea d6bd 4571 8d3d af34 2f3e aaff 493d
000001a0: fd92 cf3d 3005 3b3d ebb7 2b3e 85e4 5a3c
000001b0: dda1 793c 3bfa 183b 4a5a 4fbe 1341 19be
000001c0: 5496 b93d a79c 6cbd 4f0e bd3c 1041 05be
000001d0: 4b54 69ba 7185 b5bd 9305 a5bc a080 b8bd
000001e0: fba0 cfbc 56a9 0ebd cdd5 3dbe bc8a 903c
000001f0: 11de bebd 646f 76bc 912e 3a3e a0d5 fb3d
00000200: 6350 063e 7541 ab3d d54e d73d d481 b83d
00000210: acd2 153d b116 0e3e b1be e13c c1f1 28bc
00000220: 1778 113e 99a1 153d 140c 02be 6be1 a5bd
00000230: b54a a03d 79d1 b9bc 5f15 6dbd fbfb 0dbe
00000240: 026f 11bd bfe9 2c3e 408e 0c3e 1c36 ae3d
00000250: 418e a3bc 5f0d e5bd 95b4 bc3d 4c8c 253e
00000260: 73cc 81be 8c45 8e3d 424e 2fbe 9893 b5bc
00000270: fcf2 49be 6970 18bd 07e8 d6bc 410f c8bc
00000280: e185 073e 9d18 933d 18c7 0dbe 6e0f 1b3c
00000290: 70c8 c3bc e67e b63c 0a7e 553d 7adc ee3d
000002a0: aa01 043c b9c7 6d3d c1a6 b1bd a102 d23d
000002b0: d355 cb3c 82d6 f83c f0d6 7b3d d0bd c3bd
000002c0: b6ab 78bd 6cd9 aa3d d04e 273e 673a 363c
000002d0: 715a d3bd 681f 4b3d fe70 c0bd 668c 0bbc
000002e0: e709 893d c5ab bebc ac6d c53d 56d3 2b3d
000002f0: 49b3 47bc 7a82 32bc 21e6 9c3d 6e01 9d3d
00000300: c6f1 ddbd ccbe a7bd 5e3d 1c3e 04fd f83c
00000310: 8a48 073e d18c ab3d 472f 33bd be01 84bc
00000320: b83b a53d 46fe 843d f927 e9bd 1b36 37bd
00000330: 8f23 35bc 7d46 92bb dfe9 4f3d a038 f0bd
00000340: 09f8 bebc a520 2bbc 96c0 f0bd c585 7e3d
00000350: e82e 0ebe e73d 37be 9d36 92bd 7f08 36be
00000360: 9a21 fc3c 2356 08bd ec1e 82bd 33be a5bd
00000370: 1f18 213e 5937 e83d 70e3 30be a668 733d
00000380: 129b 913d a859 213e 6c61 66bd d884 6cbe
00000390: a8ea ca3d 2df9 56be e3af 0cbe 89e3 75bd
000003a0: a8fc 6c3d 39b4 393d 9467 233e e0bc 97bc
000003b0: efd6 1a3e 6b16 873d 5805 ce3d 911e 19be
000003c0: f33b 9bbd b293 183d 4914 3bbd edee 11be
000003d0: 1458 77bd 72ea 12bd 9103 50be 06fb 47bd
000003e0: a890 28bc 98d8 563d c2cc 2dbd 635a 553b
000003f0: ae69 e5bc 23c8 16be 8937 5dbe c0f5 bebc
0.011139483 -0.088829726 0.113719806 -0.038962506 -0.1381215 0.254082 -0.06187887 0.28921285
-0.06500977 0.119934335 -0.071963094 -0.10407228 0.010454648 0.07586549 -0.014174345 0.05057442
0.00915374 0.052233342 -0.015119781 0.010559424 0.016151672 0.13230048 -0.040208418 0.030305367
-0.17778276 -0.109169856 -0.14770614 0.06432215 0.09735949 -0.11017113 -0.027510408 0.008341738
-0.15954216 -0.07653265 0.018605659 0.13276586 -0.19756804 0.0018394466 -0.055563595 0.18853094
0.095774606 0.017355967 -0.14515838 0.038148012 0.052810937 -0.04012361 -0.015119277 -0.2387409
0.06019625 -0.020519655 -0.0065923887 0.093850195 -0.16464902 -0.10858781 -0.03094244 0.0033157892
0.15316749 0.18088785 -0.059947327 0.09623387 0.18896024 0.046252687 0.031391293 0.14340106
-0.020457085 -0.18445082 -0.18207724 0.2994074 0.011265606 -0.14580037 0.030413983 0.047436524
-0.1654795 -0.14025351 -0.122447744 0.12907201 0.01668525 -0.056704223 -0.008605078 -0.06823396
-0.12899229 -0.0803707 0.27030236 -0.13903195 0.0091899885 -0.15831575 0.07409796 -0.118262075
-0.14133258 0.11381053 -0.03209826 -0.0053745685 0.08045006 0.06719675 0.020967983 -0.056736227
-0.0036970049 -0.069352806 -0.0042029726 0.118173875 -0.10493949 0.0690637 0.17109941 0.049316086
0.10135458 0.045659244 0.16769378 0.013360147 0.015236345 0.0023342508 -0.20249286 -0.1496623
0.09061876 -0.057766583 0.023078112 -0.130131 -0.0008900805 -0.088633426 -0.02014426 -0.09008908
-0.025345316 -0.03482946 -0.1853859 0.017644279 -0.093196996 -0.015041206 0.18181826 0.12296605
0.13116603 0.08362094 0.10513083 0.09009138 0.036577865 0.13875844 0.027556749 -0.010311545
0.14205967 0.036531065 -0.1269992 -0.08099636 0.07826749 -0.022682892 -0.05788171 -0.13865654
-0.035506256 0.16886042 0.13726139 0.08506414 -0.019965293 -0.11184191 0.09214131 0.161668
-0.25351295 0.06946859 -0.17119697 -0.022165105 -0.19721597 -0.037216578 -0.026233686 -0.024421336
0.13234664 0.07182429 -0.1384548 0.009464128 -0.023899287 0.022277307 0.052122153 0.11663146
0.008057037 0.0580518 -0.08674384 0.10254408 0.024821198 0.030375723 0.061484277 -0.09557688
-0.06071063 0.08342251 0.16338658 0.011122323 -0.10319985 0.0495905 -0.093965515 -0.00851736
0.06691342 -0.023275265 0.09640059 0.041949593 -0.012188741 -0.010895366 0.07661081 0.07666288
-0.1083713 -0.081906885 0.15257785 0.030394085 0.13211265 0.08376468 -0.04374626 -0.016114112
0.08068031 0.06493811 -0.11384577 -0.044729333 -0.011055841 -0.0044639693 0.050760146 -0.1172955
-0.023311632 -0.010444795 -0.11755483 0.06213929 -0.13885081 -0.17894708 -0.07139323 -0.17776679
0.030777741 -0.03328527 -0.06353554 -0.08092918 0.15731858 0.11338682 -0.1727426 0.059425972
0.071096554 0.15756857 -0.056245252 -0.23097551 0.099080384 -0.2099349 -0.1373897 -0.060031448
0.05785814 0.04533789 0.1595748 -0.01852268 0.15121053 0.06596073 0.10059613 -0.14953066
-0.07579794 0.03725023 -0.045673642 -0.14251299 -0.060386732 -0.035868116 -0.2031386 -0.04882338
-0.010288395 0.052452654 -0.0424316 0.0032555095 -0.028004494 -0.14724784 -0.21603216 -0.023310542

fc3.weight f4 [6, 256]
00000000: a126 e8bc ed89 0a3e 9bb7 1abe 6e4f 5e3d
00000010: 842c cd3d ca07 0d3e 52ae 6cbd 8bfd acbc
00000020: 7d41 90bd 69ad aa3d d861 c53d 887b e53c
00000030: 02ec 9e3d 0e32 09bc f1df cebd 4c79 9f3d
00000040: 53a3 0fbc afd7 f2bd 9ce9 45bd 8495 a3bd
00000050: 32cd ea3c d9d7 263b 9488 8bbd b4f9 f2bd
00000060: ac92 833c 24df 27be f63d 453c 2dfc 47bd
00000070: 8885 8cba 9f60 f73d b530 7abb 2737 72be
00000080: 763b cabc a732 f53d 1cae 063d b0b5 87bd
00000090: 0b67 563d 282d d4bc e382 853d b604 9fbe
000000a0: 9b4b 863c cf02 b83c af74 9e3d c51d c9bb
000000b0: 022f 113e a659 853b 7b2f d73c 1384 ffbb
000000c0: a4f4 9d3d cfd2 0fbd ab26 273e 628c d13d
000000d0: dc3e 84bd 9d04 303d d958 3b3d deca 4dbd
000000e0: 9b9b d33c feb6 9ebe dce3 bb3d 399e 9a3d
000000f0: a073 aebc 4925 9e3d 7797 a4be b13e 49bb
00000100: a1a6 89b9 011c 24bd 4904 953d c66f 84be
00000110: f4f5 483d 0997 01bd 70a0 0b3d 8988 44bd
00000120: 46f7 073e ddee b1bd 25f2 963c 952f 083d
00000130: ec7a 3dbc 9a85 973d 3a95 cabd 90a3 4c3d
00000140: 9a6f 703d d6d4 ea3c 8bea 8ebe 4fc1 25bd
00000150: 7d60 87bd 355f 273d 845e 113a ae18 7cbd
00000160: 3287 9a3d 56b6 2cbc 7eb9 a4bd 02ff 0a3c
00000170: 161a a3bc 4a19 813d f130 59bc 37fd 0e3d
00000180: 0616 d33d 4c7b 103e ce28 543e c5fa 0abd
00000190: d410 8abe a2ef d4bc 1b05 ae3d e8e0 22bc
000001a0: abb9 45bd 4f30 05bd 5a44 c43d 0d8f eb3c
000001b0: 65e6 433c df2b 91bd 5bab 46bd 9d94 2c3c
000001c0: 2990 babd c9b6 593e ed7b d7bd 8565 1e3e
000001d0: b0f2 94bd 5e96 b2bc f87c 983d ecbb 243e
000001e0: d647 5ebc c717 93bc 570d 0cbb 81e3 babd
000001f0: 8ebe dbbd d22d 3f3d 9b55 95bd c5fb dfbd
00000200: 15e8 73bd 4f9e 5b3d 3cbb e3bc 991e bfbe
00000210: c54a 0a3d 1c3c 7f3d 67d1 543d c5ed 50be
00000220: bdb3 9eba 2879 023e 67a1 073e 3d21 6a3d
00000230: dd77 d4bc 765f 3b3c 9855 1fbd 40e6 063a
00000240: 54ae dabc 3209 f13d 8aba 023f 38e1 d2bd
00000250: ba13 903c 38e3 a83c 8081 90bd b9ff b2bd
00000260: b484 8d3d 0993 0bbd 1539 b0be 5e3a 29bd
00000270: 218c b03d 2dbf 153e fe6f 3d3d 5886 31bd
00000280: d214 4e3d 2527 6f3b fa80 673d e41f 9fbd
00000290: fbc5 7ebc 03a3 043c ca8e 98bd 8944 10be
000002a0: 4b5f d73c affa bf3d 722c 21bd e061 8ebd
000002b0: bef5 463e 691a 193e 6910 40bd 3e4e cebc
000002c0: 12f3 16be 4a28 66be 5090 6cbc 81be e3bd
000002d0: 2122 123d 4cbf 61bc f33f 5f3e 73fd 9c3d
000002e0: 127d 153d 5a90 77bc b3dc 113c 79e9 bcbc
000002f0: 8d16 54ba 5361 05b8 0266 1f3d 4edf 3abd
00000300: 6e1c 92bd b5fe 0d3e c2cc e4bd 3954 5fbc
00000310: da61 513a dd61 b3be cced 913d 648f 0cbe
00000320: 5de1 523a 0b7b 4a3c a326 53be 30a6 2a3b
00000330: dabf cf3d f175 0ebe fd4f 3b3d c6b2 d3bc
00000340: 3e91 913c 71b5 c9bd 4c3c 2f3e df80 d53d
00000350: bfe6 be3d 5a0d 25bc 908a 9b3d 12d5 84bd
00000360: 8c65 0c3d 7496 563d d5f8 983d 52d2 75bd
00000370: 38e9 603d ad51 8d3c 5f7b a7be 9057 703d
00000380: a1ca 663e 09c9 ff3d 0d0e 9bbe 4518 86bd
00000390: dc33 a2bc e6b3 07bb 6b70 3b3d 93ac 4a3d
000003a0: 9662 de3d 7ce0 94bd 90e3 efbd 120b 333d
000003b0: fc2b 2dbd 6bac 22bc 278a 99bd bf52 d43d
000003c0: 6b1a 873d 3dfd cdbc e281 ce3d f338 dcbd
000003d0: 466d 053d 3d16 303d 0748 0d3d 795a 2fbc
000003e0: 9627 403c ec6d 463d c72c 6e3e 39f6 cfbd
000003f0: 25dd c1bd 86bf b4bc e8dc e8bd ad46 513c
-0.028338732 0.13529177 -0.15109102 0.05427497 0.10018256 0.13772503 -0.057783432 -0.021116992
-0.07043741 0.083338566 0.09637803 0.028013006 0.07759859 -0.00837375 -0.10101307 0.077868074
-0.008766967 -0.11857545 -0.04831849 -0.07987502 0.028662298 0.0025458245 -0.068131596 -0.11864033
0.01606115 -0.16393715 0.012038698 -0.048824478 -0.0010720948 0.12078976 -0.0038176004 -0.23653851
-0.024686556 0.11972552 0.032880887 -0.06626451 0.052344363 -0.025900438 0.06519105 -0.31058282
0.016393473 0.022462277 0.077370994 -0.006137582 0.14178088 0.004069525 0.026267758 -0.007797727
0.07712677 -0.035113152 0.16323344 0.10231854 -0.06457302 0.04297315 0.04573903 -0.050242297
0.025831034 -0.30998987 0.0917432 0.0754971 -0.021295369 0.07721955 -0.32146809 -0.0030707533
-0.00026254824 -0.04006577 0.07276208 -0.25866526 0.049062684 -0.03163818 0.034088552 -0.047981773
0.13277921 -0.08688138 0.01842601 0.033248503 -0.011564951 0.07398529 -0.09891744 0.049960673
0.05870018 0.028665941 -0.27913317 -0.040467557 -0.066102006 0.04086228 0.0005545395 -0.061546974
0.07545318 -0.010541519 -0.08043192 0.00848365 -0.0199099 0.06303652 -0.013256297 0.034909453
0.10306935 0.14109534 0.20718691 -0.03393056 -0.26965964 -0.025993172 0.084970675 -0.009941317
-0.04827277 -0.032516774 0.095833495 0.028754735 0.011956786 -0.07088446 -0.04850326 0.010533479
-0.091095276 0.21261133 -0.10521684 0.15468414 -0.072728515 -0.021800216 0.07445711 0.16087312
-0.013566932 -0.017955674 -0.0021370256 -0.09125424 -0.10729705 0.046674557 -0.072917186 -0.10936693
-0.059547503 0.05361777 -0.027799241 -0.37328032 0.033762712 0.062313184 0.051957514 -0.20403202
-0.001210801 0.1274153 0.13245164 0.057160605 -0.025936062 0.011436334 -0.038899988 0.0005146004
-0.026694454 0.11769332 0.51065886 -0.10296863 0.017587531 0.020616159 -0.0705595 -0.087401815
0.06910077 -0.03407577 -0.3441855 -0.04131543 0.086204775 0.14623709 0.046249382 -0.04334101
0.050312825 0.0036491838 0.056519486 -0.077697545 -0.015550132 0.008095506 -0.0744911 -0.14088644
0.026290556 0.09373986 -0.039349027 -0.06952262 0.1942968 0.14951481 -0.04689065 -0.025183793
-0.14741161 -0.22476307 -0.014438704 -0.1112032 0.03567708 -0.013778519 0.21801738 0.07665529
0.03649623 -0.0151101 0.008902716 -0.023060547 -0.00080905185 -3.180031e-05 0.03891564 -0.045623116
-0.07134329 0.13866694 -0.11171867 -0.01363092 0.00079872983 -0.350356 0.07125434 -0.13726574
0.0008044446 0.012358437 -0.20620207 0.0026038997 0.10144015 -0.13912179 0.04573058 -0.025842082
0.017769452 -0.0984906 0.17112845 0.10424971 0.09321355 -0.010073984 0.07594788 -0.064859524
0.03427653 0.052389577 0.07469336 -0.06001503 0.054909915 0.01725086 -0.32711312 0.058677256
0.22538234 0.12489516 -0.30284157 -0.06547598 -0.01980012 -0.0020706593 0.045761507 0.049480986
0.108586475 -0.072693795 -0.11713326 0.04371173 -0.042278275 -0.009928803 -0.074970536 0.10367345
0.06596836 -0.025145167 0.10083367 -0.1075305 0.032574914 0.042989958 0.03449252 -0.010702723
0.011728188 0.048444673 0.23259269 -0.10154385 -0.09466008 -0.022063982 -0.113702595 0.012773198

fc3.bias f4 [6]
00000000: 9571 22bd 8e60 0abe 0374 c53d 7843 b23d
00000010: 566d 193d be85 6a3d
-0.0396591 -0.13513395 0.09641268 0.08704275 0.037457787 0.057256453
