model_save/bc_q/bc_q20000.pt (torch, 581121 bytes, 10 tensors)

fc1.weight f4 [256, 23]
000000 c3 fb 9e be 17 58 e0 3e f8 c6 f9 bc 6d 01 18 3e
       -0.31051454 0.43817207 -0.030490384 0.14844294
000010 38 f6 9b bd 75 65 4f 3e 06 34 90 be 70 d1 81 3d
       -0.07615322 0.20253547 -0.2816469 0.06338775
000020 65 92 1f be 27 75 d4 3d f1 34 de 3e fb 75 fe 3c
       -0.15583189 0.103739075 0.43399766 0.031062117
000030 2e f4 ae 3d f3 5c 1a be 76 3f b0 3d 66 3d 19 be
       0.08542667 -0.1507452 0.08605854 -0.14964828
000040 74 c1 85 3d a1 35 e9 3d 52 a5 27 bd 3e c1 95 bd
       0.06531039 0.11387182 -0.040929146 -0.07312249
000050 f9 7c 8c 3e 5f 01 84 be 68 20 f5 3d 59 97 56 3e
       0.27439097 -0.25782296 0.119690716 0.20956172
000060 46 11 e5 bd ed 71 be 3e 4c c6 95 3d b6 71 6d 3e
       -0.11184935 0.37196293 0.07313213 0.23187909
000070 3d 11 35 be 60 74 6f be c0 89 5b be 19 32 62 3e
       -0.17682357 -0.23384237 -0.21439266 0.22089423
000080 2b 68 0a 3e 3a 7f 9b bd e3 41 6f bd ff 55 0f 3e
       0.135163 -0.07592626 -0.058412444 0.13997649
000090 4a 53 09 3d f0 9c 21 be 85 b9 4a 3e 03 2e fc bd
       0.033526696 -0.15782523 0.19797333 -0.123134635
0000a0 2e a7 92 bd 51 76 88 be aa 3d 34 be 42 50 27 bd
       -0.07160793 -0.26652768 -0.17601648 -0.040848024
0000b0 19 c8 d6 3d ef a0 00 be 61 b7 99 3e c1 14 ba bd
       0.10487384 -0.12561391 0.3002272 -0.0908599
0000c0 a3 4b 81 bd 93 b8 1d 3d 89 cc 60 3e cb 8e a8 3e
       -0.06313255 0.0385061 0.21953024 0.32921442
0000d0 d6 88 06 bd e9 d8 8e bd eb 48 17 3e 01 6b d6 bd
       -0.03284534 -0.06974966 0.1477391 -0.10469628
0000e0 3b 31 05 3e 20 2e b1 bd 9c ce 0c be 3c 89 f0 bd
       0.13007061 -0.08651376 -0.1375069 -0.117449254
0000f0 5e e5 b8 3b 77 30 39 be 29 dc 13 be c2 f5 9c be
       0.005642577 -0.18084894 -0.14439453 -0.30656248
000100 fa 23 99 3d 75 cc 9b be dc 35 c2 3e ee 47 8a 3e
       0.07477565 -0.30429426 0.37931716 0.27008003
000110 2e 3e 72 3c 64 ea 88 be 99 19 2e be 89 f2 a1 bd
       0.014785333 -0.26741326 -0.17001952 -0.07907588
000120 67 c3 e3 be 2b 16 be bd 2f 00 c9 3c 92 64 07 be
       -0.44485018 -0.09281572 0.02453622 -0.13221958
000130 90 12 87 3e 65 77 59 3e 9b 7e 23 be a8 d7 37 be
       0.2638135 0.21236952 -0.15966265 -0.1795336
000140 d2 b3 32 3e ce e7 82 bd ab 7e 0d 3e 9c fc 39 bb
       0.17451409 -0.063918695 0.13817851 -0.0028379327
000150 07 41 0e 3e fb 69 2f bd 8f b6 5b bc 92 d6 30 3e
       0.13891993 -0.04282568 -0.013410225 0.17269352
000160 ae 7b 96 bd 2d cc 8c 3e 0c 55 0c 3d 69 3e 97 3d
       -0.07347809 0.27499524 0.034260795 0.07384951
000170 5d 68 99 be a6 22 8d 3d 26 9c ad 3e 3c d5 5a 3e
       -0.29962435 0.06891374 0.33908194 0.21370405
000180 44 29 3f be 5e 8c 46 be de e4 7a bf a0 02 04 bf
       -0.18668085 -0.19389483 -0.98005474 -0.51566505
000190 d5 b4 76 3d 7a bc 09 3e 2c f0 6c 3e 1c 3e 08 3e
       0.06023105 0.13450804 0.23138493 0.13304943
0001a0 a1 40 93 bc 62 9d ac 3d ed 19 13 be 46 d2 52 be
       -0.017975153 0.08428456 -0.14365359 -0.20588025
0001b0 6f 9a 0c 3e c8 21 89 3e 53 6f 65 3f 48 be 12 3e
       0.13730787 0.26783586 0.8962299 0.14330399
0001c0 93 48 75 bd 4f e6 e8 be f7 7c fa 3d b6 e5 f7 bc
       -0.059883665 -0.45488212 0.122308664 -0.030260902
0001d0 70 25 95 be 9c 30 17 3e 22 a1 3a be 30 0c dc 3a
       -0.29130125 0.14764637 -0.1822553 0.00167883
0001e0 b4 9d 81 bd a8 0e 4c be ba a2 14 3e 8c 15 91 3e
       -0.063289076 -0.19927466 0.145152 0.2833675
0001f0 5c 85 2b 3e 2c 05 dc 3c bb 3d 07 3e d7 5c 98 bb
       0.16750091 0.026857935 0.13207142 -0.0046497392
000200 32 79 11 be 24 b5 93 3d 09 f5 e3 bb 77 c2 61 bd
       -0.14206389 0.07212284 -0.0069567007 -0.055117097
000210 25 40 6d 3e 9a 34 05 bd 27 79 37 be 03 d7 e4 bd
       0.23169 -0.032520868 -0.1791731 -0.11173823
000220 8a 2b 3e 3e b9 9e 20 be bb 26 45 3e 63 02 8d be
       0.18571296 -0.15685548 0.19253056 -0.27540883
000230 2a 66 ab be 14 3f 81 be 64 8c b7 3d 8f a7 b5 3e
       -0.33476382 -0.25243437 0.08962324 0.354794
000240 dc 33 0f be 67 e0 55 bd a4 fd 5a 3e eb 54 88 bd
       -0.13984627 -0.05221596 0.21385819 -0.06656822
000250 70 85 18 be 25 53 d0 bd e5 ca 47 bd ad ed f8 3d
       -0.14894652 -0.101721086 -0.04877748 0.12154708
000260 83 3d 04 be f6 97 02 be 2e 52 a5 3c f0 01 2c 3e
       -0.1291409 -0.12753281 0.020180788 0.16797614
000270 ee 7f 1f bc ac de b6 3c 5f e8 8a be cb 07 8e bb
       -0.009735091 0.022322975 -0.2713041 -0.004334425
000280 cc 37 b5 3d 0b d4 ea 3d 2d 43 7d be 5e 54 0c be
       0.08848533 0.11466225 -0.24732657 -0.13704059
000290 f5 ea 3e be d6 63 eb be 3a 8b b2 be f7 af 26 bf
       -0.18644316 -0.45974606 -0.34871846 -0.6511225
0002a0 65 af 21 bf 24 9b 23 be 93 54 a7 3d 89 a6 83 bd
       -0.63158256 -0.1597715 0.08170428 -0.064282484
0002b0 5f 2e ca 3d d6 66 dc bc 3c d5 61 be 53 f5 4b be
       0.09872126 -0.026904505 -0.22053999 -0.19917803
0002c0 7a 06 a1 bd 79 10 a0 3c 39 d9 1d 3e f1 14 9e 3e
       -0.078625634 0.019539105 0.15414895 0.30875352
0002d0 66 8d fd 3e b9 14 24 be 1c 55 9b be 27 68 3d be
       0.4952194 -0.1602353 -0.3033837 -0.18496762
0002e0 3f d3 1a 3e 21 c8 e9 3e d7 bb 95 3c 94 d0 1b 3e
       0.15119646 0.456605 0.018278046 0.15216285
0002f0 11 c8 a9 be b8 d3 82 3e 4c 0a 14 bd 79 b2 97 3e
       -0.3316045 0.25552154 -0.036142632 0.2962835
000300 c6 10 18 be 59 79 2c 3d 26 a4 77 3e 86 67 e6 3d
       -0.14850149 0.042107914 0.24183711 0.11250214
000310 e7 30 63 be 17 93 17 be 70 33 40 be ce ba d0 3d
       -0.22186624 -0.14802204 -0.18769622 0.1019188
000320 b4 ff 5e 3e 3d 82 95 bb fd a2 34 be 14 49 45 be
       0.2177723 -0.0045626448 -0.176403 -0.19266158
000330 30 96 02 3e 4b 07 33 be df b3 4f 3e 57 1e 61 3e
       0.12752604 -0.17483251 0.20283459 0.2198423
000340 21 6d 07 be fc 48 7a 3e 87 79 9f 3d f2 53 4e 3e
       -0.13225223 0.24441904 0.077868514 0.2014921
000350 87 e9 b8 bd 46 51 71 3d cb 9c 9f ba a4 b1 4e 3e
       -0.09028917 0.0589154 -0.0012177465 0.20184952
000360 c4 74 f3 3d ce 17 61 be 0d 32 0b bc b0 d1 20 bc
       0.11887506 -0.21981737 -0.00849582 -0.009815618
000370 4f 5c 04 3e 49 19 ac 3d 46 4a dc bb 02 88 fe bd
       0.12925838 0.0840326 -0.0067227213 -0.12428285
000380 9f c7 de 3d 36 d4 bc 3d b1 13 09 3e b9 47 69 be
       0.108779185 0.092201635 0.13386418 -0.22781266
000390 2b 9c 30 3e 1e 28 22 be 57 22 eb be 4f 1b 2d 3f
       0.17247073 -0.15835616 -0.45924637 0.67619795
0003a0 79 27 4f 3d 2f 52 fe bc 95 33 c0 3c 28 03 9a 3d
       0.050574753 -0.031045048 0.023462096 0.07520133
0003b0 e1 b6 bb be b4 b5 94 3d 7d 6a 34 be 10 ab d3 bc
       -0.36662963 0.072612196 -0.17618747 -0.025838405
0003c0 96 6a 91 3c 3f 07 08 bb 95 58 e7 3d c5 a3 f7 3b
       0.01775102 -0.0020756272 0.112961926 0.0075573646
0003d0 01 42 48 3e 6c 60 19 3d 77 b7 23 3e b0 9c 14 bd
       0.19556428 0.03744547 0.15987955 -0.03628224
0003e0 b9 0f 6f bd 31 1c 65 3e 77 59 df 3d 57 72 41 3e
       -0.058364604 0.22374035 0.10905736 0.18891273
0003f0 bb 8c f8 bd 9d 1f fd 3e 1b 3f 8e be 53 82 89 3e
       -0.12136217 0.49438182 -0.2778252 0.26857242

fc1.bias f4 [256]
000000 13 18 d8 bd 34 42 06 3f a2 0e b7 3e 00 64 ad 3e
       -0.10551467 0.5244477 0.3575335 0.33865356
000010 5a 4f 12 3e 06 87 a8 3e e9 c9 50 3e 7e 25 5b 3e
       0.14288083 0.32915515 0.20389523 0.21401021
000020 5a 03 ad be 08 32 e8 3e 78 74 ea bd 3a 12 c6 3e
       -0.3379162 0.4535067 -0.11447996 0.3868578
000030 e2 3a 54 3e 7e ba 4b 3e 1b 44 28 3f d3 ea 1e 3f
       0.20725587 0.1989536 0.6572892 0.62077063
000040 fc e5 00 bf b8 78 14 3f 48 ba d7 be ad f9 2f 3e
       -0.5035093 0.579967 -0.4213431 0.17185088
000050 fa 14 ad 3e 9b 1f cc 3e 15 1f f1 3e c7 dd 86 3e
       0.33805066 0.39867863 0.47094026 0.26341078
000060 cc cf 62 be da 14 d1 3e 3c 31 fa 3e 96 0b 1b be
       -0.2214958 0.4083622 0.48865688 -0.15141138
000070 02 ef c7 be ac be b1 be 64 2b 88 be d5 1c e8 3d
       -0.39049536 -0.34715784 -0.26595604 0.11333624
000080 47 09 a3 3e fe 0a 18 be bb 0d 45 3f d5 2e aa be
       0.31843016 -0.14847943 0.76974076 -0.33238855
000090 75 a6 bc be a6 e5 0f be d7 9d ad 3e 29 49 a7 be
       -0.36845747 -0.14052448 0.33909485 -0.32673004
0000a0 2c 57 13 3f 63 82 d1 3e 8e b2 06 3f 29 bf c1 be
       0.5755489 0.4091979 0.526162 -0.37841156
0000b0 2e f5 16 3f 63 c8 2b 3f 02 ef 0d be c3 33 0f 3f
       0.58967865 0.6710264 -0.13860705 0.5593836
0000c0 50 b3 e9 3e 9c 72 2b 3f da d4 88 be 2a 36 96 3e
       0.45644617 0.66971755 -0.26724893 0.293382
0000d0 61 11 9a 3e c7 77 c0 be 87 dd 12 bd 05 b8 d0 bd
       0.30091384 -0.37591383 -0.035855796 -0.10191349
0000e0 56 7b 6c be b0 19 7a be c0 7a 1f 3f 6a d8 bd be
       -0.23093924 -0.24423862 0.62296677 -0.37079173
0000f0 1a 3d dd 3e 48 9a c2 3e fb d4 f5 3e d8 23 a1 3e
       0.4321068 0.38008332 0.48014054 0.3147266
000100 b9 81 30 be ec 06 17 3f b3 14 10 be ef 96 8c 3e
       -0.17236985 0.58994937 -0.14070396 0.27458903
000110 48 b7 26 3f 70 1e 0f 3f b8 85 af be 8f d0 0a 3f
       0.65123415 0.5590582 -0.34281707 0.54224485
000120 cf 2b a8 be 53 81 c0 be 30 ba 9d be ff f8 46 3e
       -0.32845923 -0.37598667 -0.30806112 0.19430922
000130 c7 ea 9e 3e 3b 08 9f bd 55 79 f6 be 34 d0 7c 3e
       0.31038496 -0.07765242 -0.48139444 0.24688798
000140 16 28 4a bb 37 64 c3 3e 03 42 04 3f b5 bb d6 3e
       -0.0030846647 0.38162395 0.51663226 0.41940084
000150 e8 f3 f5 3e dd 04 23 be c0 72 09 3f 21 60 d4 bd
       0.48037648 -0.15919824 0.5369072 -0.10369898
000160 de 48 d7 3e f2 cf bd bd 03 06 05 3f 18 3b 91 bd
       0.4204778 -0.09268178 0.519623 -0.07091349
000170 06 c6 f6 3e 8f ed 37 3f 63 29 a3 be 52 3a 96 be
       0.48197955 0.7184686 -0.31867513 -0.2934137
000180 3b 7e de 3e 47 a3 9c 3e 9e 6a 3b 3f 64 b6 ec 3e
       0.4345568 0.3059332 0.7320956 0.46232903
000190 ed 71 17 3f 44 ab d4 be 86 2d 72 be 17 82 c3 be
       0.5915821 -0.41536915 -0.23650178 -0.38185188
0001a0 4e 2e a2 3e e9 9d d3 be 41 8a cf 3e e0 36 a4 3e
       0.31675953 -0.41331413 0.40535167 0.32073116
0001b0 08 51 e5 3e a5 9d 21 3e b9 b7 5b 3e 0b fc 38 be
       0.44788384 0.15782793 0.21456803 -0.18064897
0001c0 54 cf 03 3f ec b4 eb 3e 2a c5 ec be 4e 8f 47 3e
       0.5148823 0.4603647 -0.46244174 0.1948826
0001d0 ea 4d 96 3e 51 b1 bc 3e f6 dc 13 3f fa 4f 85 be
       0.2935632 0.36854032 0.57759035 -0.2603758
0001e0 85 9a dd be 03 6d 9f 3e b9 10 fc 3e 89 25 f4 3e
       -0.43281952 0.31137857 0.49231508 0.47684887
0001f0 d3 5a 1c 3f f1 6a bb be 55 bb 9e 3e a0 7a c7 3d
       0.61076087 -0.36605027 0.31002298 0.09740186
000200 6a 4e 87 3e 3d 63 ca 3e 52 52 11 3f 05 cb b6 be
       0.26427013 0.39528838 0.56766236 -0.35701767
000210 51 c6 7e 3e 79 cf dc 3e b8 8d be 3e 72 91 81 3e
       0.24880339 0.4312704 0.37217498 0.25306278
000220 21 49 7b 3e 83 6d 23 3e d8 53 17 3f 0c 65 c8 3e
       0.24539615 0.15959744 0.5911231 0.39139593
000230 f7 db f0 3e a4 c0 90 be 15 0c be be 11 7b 1a 3f
       0.4704282 -0.28271973 -0.37118593 0.60344034
000240 00 c6 9d be f6 6c 95 be ed b9 a2 be 54 79 b8 3e
       -0.30815125 -0.29184693 -0.31782475 0.36030066
000250 cf ca 19 3f fa 78 e1 be f6 3c ac be f9 cb ba be
       0.60075086 -0.4403761 -0.3364026 -0.36483744
000260 80 c3 54 be 77 6b 2e 3f ee 32 1a 3f 2b d7 0e 3f
       -0.20777702 0.6813273 0.6023396 0.5579707
000270 8e 68 41 3e 76 77 64 be a2 9a ef 3e 3d 85 53 3e
       0.1888754 -0.22311196 0.46797663 0.20656295
000280 15 39 29 3f d6 36 04 3f 7b e9 aa be a7 98 0b be
       0.66102725 0.51646173 -0.33381256 -0.13632451
000290 69 c3 1e 3f 59 e5 a1 be 8c f4 12 3f 8e af ff bd
       0.6201692 -0.3162029 0.574044 -0.12484656
0002a0 6a 7d 97 3e 7a 77 d9 be b8 b3 b0 3e ed 92 20 3f
       0.2958787 -0.42473966 0.34512115 0.6272419
0002b0 9d 78 ef 3d 1c 11 33 3f 4c 53 e2 be d0 e5 91 be
       0.11692927 0.6994798 -0.44204175 -0.28495646
0002c0 d4 15 a6 be a3 e4 8d 3e 23 74 8c be 77 49 8c 3e
       -0.3243853 0.27713498 -0.27432355 0.273998
0002d0 51 9e f4 bd 2c 7c ba 3e 3b 0b 92 3e f8 20 dc 3e
       -0.11944259 0.3642286 0.28524193 0.42993903
0002e0 31 4b c5 be cd f2 8b 3e b6 f9 44 be 40 fb d7 3e
       -0.3853393 0.2733368 -0.19235882 0.42183876
0002f0 e5 47 55 be eb 7e c5 be 6e c9 fc 3e 6d 0f 21 be
       -0.20828207 -0.38573393 0.4937243 -0.1572854
000300 80 0c b8 be 2f 24 ba be 8a af b7 be 6a da 0f be
       -0.35947037 -0.3635573 -0.35876113 -0.14048162
000310 cf ed b7 3e c0 68 d8 3e 4f a1 00 3f fd cf 79 3e
       0.3592362 0.42267418 0.5024614 0.24395747
000320 37 db ee be 28 e4 91 3e a6 46 0f 3f 18 9b d0 be
       -0.46651623 0.28494382 0.55967176 -0.40743327
000330 2c 10 f6 3e c6 77 c3 3e 1f b7 c2 be cf c0 99 be
       0.48059213 0.38177317 -0.38030335 -0.30029914
000340 56 33 32 3f 04 3f 3b be 3f 6c da 3e f8 4c 1f 3f
       0.6960958 -0.18285757 0.4266071 0.6222682
000350 1c 2e 6f 3e fb 96 22 3f d4 d4 b7 be f7 1d f0 3e
       0.23357433 0.6351163 -0.35904562 0.4689786
000360 b8 6d 4c be c7 e1 e5 3e 02 ca 0d 3f b6 17 2b 3f
       -0.1996373 0.44898817 0.55386364 0.66833055
000370 bf 46 5c 3e c3 78 62 3d a7 12 22 3f 4a 10 11 3f
       0.21511362 0.05529095 0.6330971 0.5666548
000380 ab e9 f2 be bf e1 13 b9 56 f3 ad 3e 65 c2 2f 3f
       -0.474439 -0.0001410311 0.33974713 0.68656
000390 e1 ee b6 3e df b7 d6 3d 02 99 e1 be b6 32 fe be
       0.35729125 0.104842894 -0.44062048 -0.49648064
0003a0 1b a9 15 3e 6e 1c e1 be ce 6b c2 be 5d cb 83 3e
       0.1461529 -0.43967003 -0.37972873 0.2574109
0003b0 48 a9 b8 be 74 46 08 3f 48 55 b9 be 5a fd 16 3f
       -0.3606665 0.532325 -0.36197877 0.58980334
0003c0 d4 c4 9f bd 76 63 4a 3e 19 1f 11 3f 80 c6 1b 3f
       -0.07801214 0.19764504 0.56688076 0.6084976
0003d0 c7 11 11 3f cf b4 1c 3f ba 1a 86 be 87 9a df be
       0.5666775 0.6121339 -0.26192266 -0.43672583
0003e0 6c c8 29 3e 33 74 ff 3e 8f 26 ca 3e fe 22 22 3f
       0.16580361 0.4989334 0.39482543 0.63334644
0003f0 25 cd 29 3f e9 d6 30 3f 87 58 89 be ed cf a1 3e
       0.6632865 0.69077927 -0.26825354 0.31603947

fc2.weight f4 [256, 256]
000000 6b d2 91 bd b5 3b 48 3d e2 a4 0a 3d 2c c7 7d 3d
       -0.07120212 0.048885066 0.03384865 0.061957523
000010 fa e1 e6 3d 21 14 3a 3c 22 02 14 3d c4 21 26 3e
       0.1127357 0.011357338 0.036134847 0.16223818
000020 e2 d0 56 bd c8 5c b3 3d a1 65 62 bc 38 da 98 3d
       -0.0524453 0.08757931 -0.0138181755 0.07463497
000030 42 66 af 3d 2b a7 95 3d b0 c7 ac 3d c5 e2 b5 3c
       0.08564426 0.073072754 0.08436525 0.022202859
000040 af 7b be bc 36 4c b6 3d 5a 31 98 bd ed 7f c0 3c
       -0.023252336 0.08901255 -0.07431288 0.0234985
000050 36 f0 ea 3d 68 d5 0b 3d 87 e3 ad 3d e0 5e 0f bb
       0.11471598 0.034139067 0.08490663 -0.0021876618
000060 f2 2f 25 bd b5 a7 3c 3d 26 74 f2 3d fe 57 8e bd
       -0.040328927 0.046058375 0.1183856 -0.06950377
000070 e6 0d 07 3d 68 d1 62 3c 7f e6 26 bd 0a 24 3e bc
       0.03297224 0.013843872 -0.040747162 -0.011605272
000080 47 27 4f 3d c9 15 0e 3d b4 9f 8e 3d 47 78 18 bd
       0.050574567 0.034688745 0.06964055 -0.03722408
000090 2c 96 64 bd 0f ca d4 38 52 d6 69 3d b3 e5 2f 3c
       -0.055807278 0.00010146584 0.057089157 0.010735917
0000a0 d1 91 1e 3e fe 56 f9 3d 80 37 46 bb ed c6 81 bc
       0.15485312 0.121747956 -0.0030245483 -0.015841926
0000b0 d0 1d 0d 3d ba e5 9d 3d df 17 47 bd 6b e1 cf 3d
       0.03445226 0.077098325 -0.04860675 0.10150417
0000c0 94 d9 f4 3d e5 c0 ea 3d e4 0f 15 3c c5 82 c8 3d
       0.11955562 0.11462573 0.009098027 0.09790567
0000d0 63 65 ad 3d 6c 89 5c bd 50 fe 6d bc 52 8a b2 3b
       0.084666036 -0.053841993 -0.014525965 0.005448618
0000e0 ba 76 8b bd 8f d7 fa 3c 7a 45 e2 3d d5 8c 7f 3c
       -0.06809755 0.030620364 0.11048408 0.015597542
0000f0 e2 af bd 3d 09 e3 7f bb e4 b8 cb 3d 62 e7 5d bc
       0.092620626 -0.0039045236 0.099473745 -0.0135439355
000100 96 0d 6b bd 12 1f 38 3d 67 b2 59 3d ac 54 cb 3d
       -0.057386003 0.044951506 0.053148653 0.09928259
000110 dd e1 19 3d 32 16 ce 3d 49 00 bd bb 32 a1 58 3d
       0.037568916 0.10062827 -0.0057678563 0.052888103
000120 f7 8d 86 bd 58 7f b8 bd 0c fb 2f ba f8 62 21 3d
       -0.065700464 -0.09008664 -0.0006713129 0.039401025
000130 5d f7 c9 3d de 57 72 bb 36 f3 5c 3d df 76 b6 3d
       0.09861634 -0.0036978642 0.05394288 0.089093916
000140 81 4c 18 bd ff 6b cf 3d ed d7 0b 3e ba 92 75 3d
       -0.037182335 0.101280205 0.13656588 0.059954382
000150 59 b2 0b 3d 7b 32 e1 bb 34 9e f4 3d f2 6a ea 3c
       0.034105632 -0.006872473 0.11944237 0.028615449
000160 71 e8 de 3c 98 25 f7 3c a4 fb a2 3d 5a c7 5d 3c
       0.027210446 0.030169293 0.07958153 0.013536299
000170 9f db e2 3d 74 07 06 3e 78 07 be bc 5b 0f fd 3c
       0.11077046 0.1308878 -0.02319692 0.030891111
000180 d4 c0 c8 3d cd 97 ab 3d 30 25 bf 3d a8 88 27 3c
       0.09802404 0.08378563 0.09333265 0.0102254525
000190 dc e9 a2 3d e9 8c 85 bd 1f 30 0a bd 42 70 45 bc
       0.079547614 -0.06521017 -0.033737298 -0.01205069
0001a0 ea 18 38 3d 49 74 22 3c 37 66 e0 3d 92 05 22 3d
       0.044945635 0.00991542 0.10956996 0.039556094
0001b0 ee e5 f2 3d 10 40 25 3d 8d 90 33 3d 9e 12 5d bc
       0.11860262 0.040344298 0.043839026 -0.013493208
0001c0 27 90 1f 3d 91 5c cf 3d 66 dd 17 3d be a9 f3 3d
       0.038955834 0.101250775 0.037076376 0.1189761
0001d0 d6 dc e1 3c b1 fa c4 3d 09 24 22 3d be e2 a6 bb
       0.027571123 0.09618128 0.039585147 -0.0050929477
0001e0 a4 c8 85 bc 5c 1e 2e 3d e7 e2 07 3e 0a c3 c5 3d
       -0.016331024 0.04250942 0.1327015 0.096563414
0001f0 f3 1d d4 3c 4e db 44 bd 06 31 e4 3c 52 f9 ba 3d
       0.025893187 -0.048060708 0.027855407 0.09129585
000200 30 b1 af 3d 92 c6 57 3d c3 73 1f 3e df 62 ea bc
       0.08578718 0.052679606 0.15571503 -0.028611599
000210 f0 b5 bd bc bb 16 ed 3c 4b 0f 22 3d 74 0b 2b 3d
       -0.023158044 0.028941503 0.039565366 0.04175897
000220 29 0d a4 ba 11 99 e5 3c 91 67 ea 3d 38 0e b7 3d
       -0.0012516129 0.02802709 0.11445535 0.08938259
000230 09 e4 99 3d a9 cb f4 bc 38 92 f5 3c b3 94 7f 3d
       0.075141974 -0.029882269 0.02997695 0.06239767
000240 e9 94 80 3c f5 98 04 3d 1d d0 d4 bc c7 c6 2a 3c
       0.015696006 0.032372434 -0.025978142 0.010423369
000250 d7 8d 06 3e 17 77 28 bd 6f 36 88 bc 97 55 96 bd
       0.13140045 -0.041129198 -0.016627518 -0.07340544
000260 fa 8b a2 3d 2c b6 06 3e 6d 23 02 3e cf d4 db 3d
       0.07936855 0.1315543 0.12708826 0.107339494
000270 0f 4a 8c 39 08 b6 b2 3d b4 0b 0e 3d 02 62 8d 3d
       0.0002675806 0.08726126 0.03467913 0.06903459
000280 28 9e 47 3c 5e cd 99 3d c0 fb 1c 3d 3f 6b 43 3d
       0.0121837035 0.07509874 0.038326025 0.0477097
000290 59 2f af 3d 8b 31 01 3d b5 34 9b 3d e7 e5 38 bb
       0.08553953 0.03154139 0.075784124 -0.0028213204
0002a0 19 36 f3 3d ea 15 33 bd 05 cb 5c 3d bd b7 ce bb
       0.11875553 -0.04372207 0.053904552 -0.0063085244
0002b0 ee e4 9a 3d 00 c1 da 3d d0 08 7a bc f9 3e df 3c
       0.07563196 0.10681343 -0.01526089 0.027251707
0002c0 ff 3d 0f bd 18 17 ba 3d 8b 0c cb bc 67 be a7 3d
       -0.034971233 0.09086436 -0.024786254 0.08190613
0002d0 b5 5a af 3c d7 4b 94 3d b4 1a b8 3d ca a1 39 3d
       0.021405557 0.07241028 0.08989468 0.04532031
0002e0 ee f0 ac bd a6 98 ba 3d bb 30 04 3d d7 9e 96 b9
       -0.08444391 0.09111147 0.032273035 -0.00028728574
0002f0 f9 c7 88 bc 92 f7 05 3d 72 7c e6 3c 1b 5b 8c bc
       -0.016696917 0.032706805 0.028135512 -0.017133286
000300 5e 26 4c bd 5d 36 ff bc 8e 39 fc 3c 2b e8 c0 bc
       -0.049841277 -0.031153852 0.030789163 -0.023548206
000310 26 b4 a5 ba a4 0e 0a 3e fa f5 d5 3d 37 11 3a 3d
       -0.0012642189 0.13482147 0.10447307 0.045426574
000320 8d af 4f bd 48 f4 40 3c 1f 53 a3 3d 5c 00 c8 3c
       -0.050704528 0.011776991 0.079748385 0.024414234
000330 be 12 dc 3d c4 8b 0e 3e 88 91 e8 3c b3 6d 92 bd
       0.10745762 0.13920504 0.028389707 -0.0714983
000340 54 d0 ad 3e b0 4b 54 bd 37 5c 8f 3d c2 1f ff 3d
       0.33948004 -0.051829994 0.070000105 0.12457229
000350 22 e0 8e 3d b6 44 eb 3c 7a aa 9e bc 94 e3 dd 3d
       0.06976344 0.028719287 -0.019368399 0.10834423
000360 7a e5 8e 3c e8 84 df 3d 26 a7 ef 3d 4c 8c 02 3d
       0.017443407 0.10914022 0.11701803 0.03187208
000370 dc 63 67 3d 13 a0 ed 3d c6 3a d5 3d 55 ca a5 3d
       0.056491718 0.11602797 0.10411601 0.080952324
000380 0c 4b 4f be 97 7d 37 3d aa 2f ae 3d 44 1a 0f 3e
       -0.20243472 0.044797506 0.08505185 0.13974863
000390 5a 21 b6 3d c9 a2 c7 bc 25 aa b3 bb dc b1 6e be
       0.0889308 -0.024369614 -0.0054829293 -0.23310035
0003a0 d7 4b fb 3d f5 a8 80 bc 3a 91 e6 bb 8d 48 ff 3d
       0.12270325 -0.015705565 -0.0070363553 0.1246501
0003b0 fe 17 ad bb 9a 8c 37 3d 90 88 9a bd de 73 9a 3d
       -0.005282401 0.044811822 -0.075455785 0.07541631
0003c0 36 29 fb 3c f9 f1 30 3d b6 85 c1 3d 25 3e f7 3d
       0.0306593 0.043199513 0.094493315 0.120724
0003d0 12 1f 7d 3c 6c e2 17 3d 69 34 08 3d 26 84 47 be
       0.015449302 0.037081167 0.033253107 -0.19484004
0003e0 cd f1 76 3d 6f 51 a6 3d 36 21 f7 3d c1 ab c0 3d
       0.060289193 0.08121001 0.12066881 0.094077595
0003f0 28 29 8f 3d 11 23 c7 3d 63 9c 94 3d 7f 13 82 3b
       0.06990272 0.09723485 0.07256391 0.0039696093

fc2.bias f4 [256]
000000 d7 2a c7 3e 33 a8 bd 3e d6 9d dc 3e 47 df a9 be
       0.38899872 0.37042388 0.4308917 -0.3317816
000010 6a 13 47 bd 52 e1 b8 3e 8c 06 dc 3e dd 74 bd 3e
       -0.0486025 0.36109406 0.42973745 0.37003222
000020 f2 e8 dd 3e a2 4d fc 3e 9d 45 cf 3e 99 27 d0 3e
       0.43341786 0.4927798 0.40482798 0.4065521
000030 a9 f1 f6 3e 0b 9f 50 bd 4f 01 90 be 60 4b 94 be
       0.48231247 -0.050932925 -0.28125998 -0.28963757
000040 7c 8c dc bc 5e a2 5e bd ff 25 b4 be 28 0e 4a be
       -0.026922457 -0.054354064 -0.3518524 -0.19731963
000050 ee 4b de 3e 65 51 bf 3e 49 68 d6 3e bc 50 d3 3e
       0.43417305 0.37366787 0.41876438 0.41272533
000060 bc 5c 15 be cb 7d 03 be 62 92 e7 3e 11 6f ea 3e
       -0.14586157 -0.12840955 0.4522887 0.45787862
000070 4f 94 8b be 69 5e 70 bb 95 a2 b9 3e f2 00 8d bc
       -0.27261588 -0.0036677367 0.36256853 -0.017212365
000080 5a 77 a8 be 98 f7 48 bd 4d bc 95 be 0d 37 36 3b
       -0.32903558 -0.04906425 -0.29245225 0.002780381
000090 bc cd 06 be 1a 97 5b be 78 56 1a 3d ac a9 eb bd
       -0.13164419 -0.2144436 0.03768012 -0.11506972
0000a0 74 55 c6 3e ce d5 85 be 81 cc 0d bc f6 ab c8 3e
       0.3873707 -0.26139683 -0.008654715 0.39193696
0000b0 9a 59 b8 3e 07 ca d5 3e 9b 0e a4 be a9 3f c9 3e
       0.3600586 0.41755697 -0.32042393 0.3930638
0000c0 f9 7d b2 3e dd 6a d9 3e 94 8c d8 3e d9 31 da 3e
       0.34861735 0.42464343 0.42294753 0.42616156
0000d0 af 04 2f be 80 67 e6 3e af 88 ed 3e a8 c9 ae 3e
       -0.1709163 0.4500084 0.46393344 0.34138227
0000e0 f8 43 73 bd d8 a9 be 3e 73 80 68 be d5 fa a3 bd
       -0.059390992 0.37238955 -0.2270525 -0.08006827
0000f0 09 18 35 bc 72 c6 98 be 86 7d 6f bd 57 4d b2 be
       -0.011053094 -0.29838902 -0.058469318 -0.3482463
000100 3a c8 e5 3e 41 7e 6d be a6 bc e6 3e 06 17 f3 3e
       0.44879323 -0.23192693 0.45065802 0.47478503
000110 ce 1f db 3e c2 4a b8 3e 3a 2b bf 3e 69 d8 e9 3e
       0.42797703 0.35994536 0.37337667 0.4567292
000120 35 c9 47 be 8a 8a bb 3e 0f 6f 7f be ab b7 32 be
       -0.19510348 0.36629134 -0.24944709 -0.17452876
000130 01 79 8b be ec 0e e6 3e cc e9 7b be ef 89 b1 be
       -0.27240756 0.4493326 -0.24600905 -0.34675547
000140 33 af 9b be 55 4c 63 be 33 1b d0 3e c6 38 f2 3e
       -0.30407104 -0.22197087 0.4064575 0.4730894
000150 97 35 86 bd 33 a3 c5 3e 2b dc 53 be d6 c4 cc 3e
       -0.0655319 0.38601074 -0.20689456 0.39993924
000160 70 c9 84 be 3c 71 39 bd 57 3a b1 3e 75 e5 e7 3e
       -0.25934935 -0.045274004 0.34614822 0.4529225
000170 2b 0d e8 3e 06 ca c7 3e 3d ca 8a bc 56 3d 20 be
       0.45322546 0.3902132 -0.016942138 -0.15648398
000180 03 ce cf bd 8a cb c8 bd d6 0f 97 be 1d ca d8 3e
       -0.101467155 -0.09804447 -0.2950427 0.423417
000190 ad 4b ee 3e a3 dd c8 3e 4e 37 c1 3e dc c1 81 be
       0.4654211 0.39231595 0.37737507 -0.25343215
0001a0 2b 51 bb be 43 61 31 be 8c 0e f9 bd 50 34 c1 3e
       -0.36585364 -0.17322259 -0.12160978 0.37735224
0001b0 f7 2f 18 3d 58 ae 8c bc 47 d8 33 be b0 6d cb 3e
       0.037155118 -0.017172977 -0.17562972 0.39732122
0001c0 c5 38 c7 be 61 9e fb bd 59 be d7 3e 70 dd 64 be
       -0.389105 -0.12286068 0.4213741 -0.22350097
0001d0 5a dd 1f 3f ff 20 cf 3e 9b c0 e3 3e a1 26 0c be
       0.6244713 0.40454862 0.44482884 -0.13686611
0001e0 39 e5 b5 3e a8 51 b5 3e ed d8 f5 3e 68 4c 8b be
       0.35526446 0.3541386 0.48017064 -0.2720673
0001f0 84 e3 c0 3e 50 a5 47 be f7 7f a9 be 48 ea 91 be
       0.3767358 -0.19496655 -0.33105442 -0.28499055
000200 cf 6f c6 3e ec 05 d0 3e 43 b1 d6 3e 5c a8 d1 3e
       0.38757178 0.40629518 0.41932115 0.4094876
000210 22 a0 36 3d ac e1 ef 3e bc 79 e2 bd 9b 56 01 3f
       0.04458631 0.4685186 -0.11058375 0.50522774
000220 08 32 b2 be c4 04 ce 3e dc 8f 47 be bc fb c6 3e
       -0.34803796 0.4023801 -0.19488472 0.38863933
000230 59 6a ca 3e 60 57 eb 3e f5 92 c1 3e 57 e6 2f be
       0.39534262 0.459651 0.37807432 -0.17177711
000240 6a 27 bd 3e cd d1 91 be 78 36 98 3f eb 4f d3 3e
       0.36944133 -0.28480378 1.1891623 0.4127191
000250 9c a2 65 be c9 99 ae 3e 35 52 8b be c1 62 99 bd
       -0.22425312 0.34101704 -0.27211156 -0.07489539
000260 07 8f b4 3e c8 f5 de 3e 80 0c cf 3e c8 40 f0 3e
       0.3526537 0.4354689 0.40439224 0.46924424
000270 23 3a 38 be 66 5c d5 3e 82 3b f1 3e 29 9c ce 3e
       -0.17990927 0.41672057 0.47115713 0.40353516
000280 e9 6d c9 3e ba ec b5 3e 16 f1 ce 3e 68 3b f6 3e
       0.39341667 0.3553217 0.4041831 0.48092198
000290 3c 04 e0 3e bd af c5 3e bc 86 f8 3e 16 d4 d8 3e
       0.4375323 0.3861064 0.48540294 0.4234931
0002a0 8b b2 d4 3c 6e b5 71 be 8d d7 c4 3e 12 da 44 be
       0.025964042 -0.23604366 0.38445702 -0.19223812
0002b0 84 0c 06 be 17 73 73 be 61 f2 36 be 61 8a b6 3e
       -0.13090712 -0.23774372 -0.17865898 0.3565245
0002c0 ea 86 d3 3e 05 9f d0 3e 0f e4 fb 3e 66 47 a0 be
       0.4131387 0.40746322 0.49197432 -0.31304473
0002d0 ca e1 cc 3e 47 54 a1 bd 5e 55 eb 3e e1 91 e1 bd
       0.40016013 -0.07877403 0.45963567 -0.11014152
0002e0 fa 7d 1c 3d 60 d0 21 be 65 f7 ce 3e 20 13 74 be
       0.038206078 -0.15802145 0.40423122 -0.2383542
0002f0 a9 31 e8 3e 08 ac 99 be 88 e8 ee 3e f5 81 8d bd
       0.45350388 -0.30014062 0.46661782 -0.06909553
000300 b1 61 ca 3e 70 49 dd 3e b9 23 e3 3e 1a 5b 39 be
       0.39527658 0.4322009 0.44363192 -0.18101159
000310 b3 8c bc 3e ff 33 c1 3e 6d c9 e4 3e 65 6b b0 3e
       0.36826095 0.37734982 0.44684926 0.34456936
000320 9f d2 62 be 81 8c 51 be e2 b7 c5 3e 12 72 dd 3e
       -0.22150658 -0.20463754 0.38616854 0.4325109
000330 f8 08 c1 3e 11 01 24 bc bf 1a f1 3e 75 da bd 3e
       0.37702155 -0.01001002 0.47090718 0.37080732
000340 1b 2f 5a be 79 7c c5 3e 23 04 ca 3e 90 d5 d8 3e
       -0.21307032 0.38571528 0.3945628 0.42350435
000350 45 b2 2c 3d bc 15 eb 3e be 96 59 bd 92 65 df 3e
       0.0421622 0.4591502 -0.053122275 0.4363218
000360 8e 6d a4 be d3 62 bc 3e 84 49 89 3f 9a 12 dc 3e
       -0.32114834 0.36794147 1.072556 0.42982942
000370 f3 6f ac 3e dd 3c 44 be 9f f8 5f be 90 22 99 be
       0.3367916 -0.19163842 -0.21872185 -0.29909182
000380 3c a9 f2 3e 3a a2 b7 be f5 90 b9 be 1c e1 0c be
       0.4739474 -0.35865957 -0.36243406 -0.13757747
000390 5a bd de 3e 31 20 f4 3e e1 b7 c3 bc 54 c7 cf 3e
       0.4350384 0.4768081 -0.023891391 0.40581763
0003a0 41 2e bb 3e d4 d6 c0 3e 9b 22 30 bd af d5 41 be
       0.36558726 0.376639 -0.043001752 -0.1892917
0003b0 12 9f e0 3e 90 f6 40 bd 2c 99 d8 3e cc 17 a8 be
       0.4387136 -0.04711014 0.4230436 -0.32830656
0003c0 7a c0 d7 3e 32 06 4a be 33 43 be 3e 74 5f c4 3e
       0.42139035 -0.19728926 0.37160644 0.38354075
0003d0 4e bb ac 3e d5 a6 ed 3e 18 4c fd bd 63 a5 c1 3e
       0.33736652 0.46416345 -0.12368029 0.37821493
0003e0 a3 d9 e0 3e f9 07 ce 3e 0a 48 cb 3e a8 3e e3 3e
       0.43916044 0.40240458 0.397034 0.4438374
0003f0 f2 93 f2 3e b7 e0 78 bd 59 6a 49 be 3b 11 d7 3e
       0.47378498 -0.06076118 -0.19669475 0.42005333

fc3.weight f4 [1, 256]
000000 11 dd 1f 3e e9 e2 48 3e 76 fa 03 3e b0 2a 09 bf
       0.15611674 0.1961781 0.12888512 -0.5358076
000010 0e eb 60 bd b5 c3 f0 3d 35 1c ff 3d 74 76 db 3d
       -0.054911666 0.11756078 0.12456552 0.107159525
000020 33 0d 0e 3e e7 59 ce 3d 09 a7 3e 3e 72 55 17 3e
       0.13872223 0.10075741 0.18618406 0.14778689
000030 77 dc 28 3e 73 3a 9d bc 84 5e aa be 16 22 82 be
       0.1649035 -0.01919291 -0.33275235 -0.2541663
000040 55 7b 34 bd 90 a2 ab be b9 b0 bc be 1b c2 3e be
       -0.04406293 -0.33522463 -0.3685358 -0.18628733
000050 d6 07 ee 3d ba 62 3a 3e 8e 22 0e 3e ac c1 35 3e
       0.11622588 0.18201724 0.13880369 0.17749661
000060 4a d0 cc bd 67 d4 eb bd e0 b1 08 3e 9f b6 f0 3d
       -0.100006655 -0.11515122 0.13349104 0.11753582
000070 e3 16 c8 be b7 df 2f bd 15 b9 2b 3e 9f 4c 06 bc
       -0.3907996 -0.04293796 0.16769822 -0.008196979
000080 60 58 a1 be a7 b4 08 bf f2 37 21 be 07 7e 07 be
       -0.31512737 -0.53400654 -0.15743998 -0.1323167
000090 c3 47 6a be 1d bf a5 bd 58 39 ee 3c a2 3d d7 be
       -0.22878937 -0.080930926 0.029080078 -0.4203921
0000a0 fc 0d 21 3e a1 0e db be b2 11 c3 bd 0f 04 1c 3e
       0.15727991 -0.42784598 -0.095248595 0.15235923
0000b0 92 26 2a 3e 85 30 f6 3d 45 5b a2 be cc cb 18 3e
       0.16616276 0.12020973 -0.31710258 0.14921492
0000c0 7c d9 14 3e 40 6f f9 3d a9 3f fe 3d 6e 27 22 3e
       0.14536089 0.121794224 0.12414486 0.15835354
0000d0 e7 98 8c be 67 53 ee 3d dd 48 1c 3e 54 88 06 3e
       -0.27460405 0.116370015 0.1526217 0.13137943
0000e0 d3 ca ac bd ba 99 27 3e f2 89 77 be 4a fa ce be
       -0.08437123 0.16367236 -0.24173716 -0.4042533
0000f0 35 93 30 bd 3f 36 2d be b7 9c a0 be 14 0c f0 bd
       -0.043109138 -0.16915224 -0.31369564 -0.11721054
000100 39 4d 17 3e aa 4b 18 be 37 5a 00 3e fa 7b c8 3d
       0.14775552 -0.14872614 0.12534414 0.09789272
000110 1d e3 13 3e dd 38 19 3e 8e 7c 0a 3e 12 db 18 3e
       0.14442106 0.14963098 0.13524076 0.14927319
000120 f4 73 e3 be f2 d7 20 3e d5 2c f4 be d5 32 af be
       -0.44424403 0.15707377 -0.47690454 -0.3421847
000130 f0 c7 4d be a8 21 2d 3e 67 95 90 be 93 8f 40 be
       -0.20095801 0.1690737 -0.28238985 -0.18804769
000140 95 19 a2 be af 4d 4b be 95 c5 2e 3e 9b 02 0b 3e
       -0.31660143 -0.19853853 0.17067559 0.13575213
000150 59 52 f3 bc 1b 29 22 3e b8 7b 84 be 2a 21 36 3e
       -0.029702352 0.15835993 -0.2587564 0.17786089
000160 3e 9b 5c be 36 fe 1b 3b a6 8c 17 3e f6 73 12 3e
       -0.21543595 0.0023802645 0.14799747 0.14302048
000170 ce b0 55 3e e3 df 13 3e 7c ac 6e bb 4b 5d 06 be
       0.20868227 0.14440875 -0.0036418727 -0.13121526
000180 6a a3 59 be 63 a0 a3 be 5f 5a 7f be dc 6e 1a 3e
       -0.21253744 -0.31958303 -0.24936818 0.15081352
000190 d8 74 2f 3e 95 fd 1a 3e 13 06 08 3e a3 60 ad be
       0.17134416 0.15135796 0.13283567 -0.3386279
0001a0 54 a0 65 be 37 2c 98 be 20 60 21 be e5 1f 05 3e
       -0.22424442 -0.29721233 -0.15759325 0.13000448
0001b0 a1 cc 09 bd ab 90 8d bc a9 33 c4 be a5 7d 25 3e
       -0.033642415 -0.017280897 -0.38320664 0.16161211
0001c0 91 7a 58 be dc 97 7a be 38 e8 1e 3e 62 52 dc bd
       -0.21140505 -0.24471992 0.15518272 -0.10757901
0001d0 4f 4d 5d 3f f8 98 0f 3e 7d 1d 18 3e dc b9 82 be
       0.8644609 0.14023197 0.14854999 -0.25532424
0001e0 1f ab 0b 3e 83 a3 09 3e d4 17 db 3d 3d 49 89 be
       0.13639496 0.13441281 0.10697904 -0.2681369
0001f0 1a ea 2a 3e 31 c8 5f be 9e 8f 44 be 57 69 01 bf
       0.16690865 -0.2185371 -0.1919541 -0.5055136
000200 32 7a 9d 3e a8 5e 11 3e 61 36 f4 3d 60 95 d5 3d
       0.3075729 0.14196265 0.119244345 0.10428882
000210 8d 13 fc bc 7a 35 43 3e 87 68 d5 be 93 71 0b 3e
       -0.030771041 0.19063368 -0.4168131 0.13617544
000220 a1 38 ff be 89 32 25 3e 14 46 80 be cb 3c 1c 3e
       -0.49847892 0.16132559 -0.25053465 0.15257566
000230 43 5d 36 3e 22 5b 4d 3e db 43 3d 3e 3f 5a 71 be
       0.17809014 0.20054296 0.18482916 -0.23569582
000240 6b 82 33 3e 3f c2 23 be 94 df a9 3f e9 80 f1 3d
       0.1753022 -0.15992068 1.3271356 0.11792166
000250 bb 2e 0e bf 4b 2e ee 3d 9a fb 11 be f1 c6 16 bf
       -0.55540055 0.116299234 -0.14256135 -0.5889731
000260 92 70 36 3e 76 1c cf 3d e0 0b e5 3d 18 98 cc 3d
       0.1781638 0.1011285 0.111839056 0.09989947
000270 0c 03 7f be 2c 9c f5 3d 1d a6 0d 3e 3c 19 23 3e
       -0.24903506 0.11992678 0.13832898 0.15927595
000280 c2 c3 39 3e 29 03 10 3e 21 87 0e 3e b7 a1 08 3e
       0.18141082 0.14063706 0.13918735 0.1334294
000290 c7 c8 09 3e 27 81 45 3e 57 f1 33 3e 63 af 33 3e
       0.13455497 0.19287549 0.17572533 0.17547373
0002a0 43 df 98 bc d6 92 d2 bd 28 cb 4a 3e c6 a3 8a be
       -0.018661147 -0.10281913 0.1980406 -0.27078074
0002b0 56 e7 a9 be 22 a8 4b bd 8b 5c 6c be 48 bc 2c 3e
       -0.33184308 -0.04972089 -0.23082177 0.16868699
0002c0 32 ea 22 3e 3b ec 0b 3e 5f 4e 82 3e 63 60 c3 be
       0.15909651 0.13664334 0.25450417 -0.38159475
0002d0 cd 67 17 3e 54 8c 80 be ca 29 0c 3e d2 e9 c5 be
       0.1478569 -0.25107062 0.13687816 -0.38654953
0002e0 f2 22 48 bd 10 85 b5 be 49 f1 18 3e 2b 21 03 bf
       -0.04886145 -0.3545308 0.14935793 -0.51222485
0002f0 3f 26 14 3e 44 af 5f be b5 9e 78 3e 1c 58 65 bc
       0.14467715 -0.21844202 0.24279292 -0.013998058
000300 2d ee 0b 3e d1 30 36 3e 25 01 30 3e 25 db 59 be
       0.13665076 0.1779206 0.17187937 -0.21275003
000310 e6 3d 3b 3e 48 84 07 3e f7 bf f6 3d a4 0a 06 3e
       0.18285331 0.13234055 0.12048333 0.13089997
000320 f2 4f 2b be bb a6 6b be b2 f9 08 3e 40 da d5 3d
       -0.16729715 -0.23012821 0.13376501 0.104420185
000330 1e 38 ed 3d 89 31 fe bc 1b 8f 78 3e 40 1f d0 3d
       0.11582969 -0.03102948 0.2427334 0.101622105
000340 c0 8a 3f bd af 30 16 3e 08 e3 33 3e 4b 61 08 3e
       -0.04676318 0.14667009 0.17567074 0.13318364
000350 07 b5 98 bc d2 d5 09 3e d2 a5 fd be 42 50 3e 3e
       -0.018641008 0.13460472 -0.49540573 0.18585303
000360 cc 3a 60 be 8e 63 1a 3e e0 1b 9d 3f fc 65 25 3e
       -0.21897429 0.1507704 1.2274132 0.16152185
000370 fc f9 fb 3d 47 de 85 bf ae 30 f0 be 96 04 b3 be
       0.1230354 -1.0458459 -0.4691214 -0.34964436
000380 d4 b1 ed 3d a5 0b ad be bf 4a c8 be b8 f5 8e be
       0.11606184 -0.33797947 -0.39119527 -0.27921844
000390 77 03 6c 3e 00 23 d4 3d 69 bb 20 39 b9 db 11 3e
       0.23048197 0.10358238 0.00015328605 0.14243974
0003a0 9f b5 22 3e 53 1f 2f 3e 8b 3c b1 be f5 3b 90 3e
       0.15889595 0.17101793 -0.34616503 0.28170744
0003b0 7a 16 1a 3e 99 14 29 bd d0 94 4d 3e 80 00 10 be
       0.15047637 -0.04127941 0.20076299 -0.1406269
0003c0 5b 67 d2 3d b1 96 bd be 7e 27 0f 3e ea e9 48 3e
       0.1027362 -0.3702903 0.13979909 0.19620481
0003d0 a9 86 1a 3e 3e cd 1c 3f 98 f7 93 be 37 06 14 3e
       0.15090431 0.61250675 -0.28899837 0.14455496
0003e0 d1 d4 1d 3e f4 51 d5 3d dd 86 01 3e 97 3c 60 3e
       0.15413214 0.10416022 0.12649103 0.21898113
0003f0 f1 0b 2a 3e 4e 66 66 bd 94 8f e9 bd 0a 5f e0 3d
       0.16606118 -0.05624991 -0.114043385 0.10955627

fc1.weight f4 [256, 23]
000000 90 eb 1c 3f 67 65 9e be 54 db e9 3c 68 47 b7 3c
       0.6129694 -0.3093674 0.028546967 0.022372916
000010 31 71 99 3c 77 ed bf 3c 3f 4a 99 3d 8e fd 19 be
       0.018730732 0.023428662 0.074848644 -0.1503813
000020 77 c8 9b 3e 53 2b 45 3e ae b3 e5 bd f7 ba 41 be
       0.3042638 0.19254808 -0.11215912 -0.18918978
000030 1b 79 26 3e 38 3a 9c 3d 4a 95 ea bd 0e 69 fa 3d
       0.16257136 0.07628292 -0.11454256 0.12227069
000040 6b ef 31 bd d2 6b 5a 3e 95 52 6a 3d 18 09 51 3d
       -0.043441217 0.21330193 0.057207663 0.051034063
000050 82 00 9c 3d c7 5f c6 bd 00 6b 1c 3d d5 e6 95 3e
       0.07617284 -0.09686237 0.03818798 0.29277673
000060 69 1f 81 be 38 8b 76 3e 5d 4f 20 be 2d 33 f8 3c
       -0.25219277 0.24076545 -0.15655275 0.03029784
000070 9f 64 20 3e f9 46 29 3d 71 e4 01 3e 13 37 72 3e
       0.15663384 0.04132745 0.126848 0.23653822
000080 7e a5 75 3e 4a 4b b3 3d f1 76 f3 3d e5 24 82 3d
       0.23988912 0.087545946 0.11887921 0.06354693
000090 6c 61 a5 3c 0d 45 d4 3b 29 91 b8 3c 2b 81 82 bd
       0.020188056 0.006477958 0.022530155 -0.06372293
0000a0 21 6d 1e 3c 6b 9f 06 bd 01 0f 9c bd a8 5a 8c be
       0.009669573 -0.032866877 -0.07620049 -0.27412915
0000b0 5d 72 41 be 52 7d ac bc f4 72 32 be c2 44 55 be
       -0.18891282 -0.021055851 -0.17426664 -0.2082701
0000c0 24 03 9a 3e a2 60 71 be 7c 1d 55 be 67 57 6a 3d
       0.3008052 -0.23572019 -0.20812029 0.05721226
0000d0 a8 73 b1 bd cb 73 f6 3d 9d 74 48 3e f5 07 46 3e
       -0.08664638 0.120338045 0.19575734 0.19338973
0000e0 c1 46 14 3d 99 f7 58 3e 1c a5 83 bb cd f1 e2 bd
       0.03620029 0.21188201 -0.0040174853 -0.11081276
0000f0 ab c0 0f 3d d5 b5 98 bc 94 62 90 bd 91 61 88 bd
       0.035095852 -0.018641392 -0.07050052 -0.06659234
000100 98 9d 8f 3e 26 7a 6e bd 64 e3 3e bb 44 0e 64 be
       0.28049922 -0.05822196 -0.0029127235 -0.22271067
000110 ed af 05 be 08 be 71 3e 08 5d 5e bc f6 d3 b0 3e
       -0.13055392 0.23607647 -0.013571985 0.34536713
000120 ef 0e 33 3f 59 1f 76 3e 9f 89 fe be 11 17 f3 bd
       0.6994466 0.24035396 -0.49714372 -0.11869634
000130 66 c4 f6 bc 3e 54 e4 bc 08 e7 88 3d 12 85 08 3e
       -0.030122947 -0.027872201 0.06684691 0.13332012
000140 82 1f 44 bd 39 32 0b 3e 05 14 00 be 6c 9b ed bd
       -0.04788161 0.13593377 -0.12507637 -0.1160191
000150 c3 eb d8 bd ba 3e 10 be a9 37 23 be e5 89 c2 bb
       -0.10591843 -0.14086428 -0.15939201 -0.0059368485
000160 32 e9 0d 3d 53 61 cd bd 28 94 28 bc 05 6f cd 3d
       0.03464622 -0.10028329 -0.010289229 0.10030941
000170 41 df b6 be 2c c9 72 3d 86 2d 09 3f b1 33 d2 3c
       -0.35717204 0.059273884 0.5358509 0.025659414
000180 52 6e e1 3d 32 62 76 3d 37 c7 00 bd bc 98 b8 3c
       0.1100737 0.06015224 -0.031439986 0.022533767
000190 67 9c 31 3e f7 02 29 3e 15 41 80 3e e8 c9 00 3d
       0.17344819 0.16505037 0.25049654 0.031442553
0001a0 b9 be 42 bd 73 d3 cf 3c 34 ac e7 3d 29 ca 40 3e
       -0.04754517 0.025369382 0.11312142 0.18827118
0001b0 c3 d0 da 3d 13 12 2c be 52 84 4d be f0 20 18 3e
       0.106843494 -0.1680377 -0.20070007 0.14856315
0001c0 49 90 15 3f 41 b2 89 3e 8a 68 e5 3d c1 cd d0 3e
       0.58423287 0.2689381 0.1120158 0.40781978
0001d0 3a d4 fe bd 04 6e 1d bf 1f a9 a6 be 17 d0 cf be
       -0.12442823 -0.61495996 -0.32550904 -0.40588447
0001e0 07 57 42 3f 8f 41 a8 3e 24 ad dc bd 70 e1 25 3d
       0.75914043 0.32862517 -0.107752115 0.040498197
0001f0 a4 2f 2f 3e 17 78 6d be e1 8e 89 bd 8f 77 f5 bc
       0.17108017 -0.23190342 -0.06716705 -0.029964237
000200 a9 b0 b2 3d d5 8a 1d bd 74 de be bc 2e 96 74 bc
       0.087251015 -0.03846248 -0.023299433 -0.014928384
000210 42 66 38 3f b8 8f b3 be f4 f5 64 3e 8b 6f 94 be
       0.72031033 -0.35070586 0.22359449 -0.2899135
000220 5f 3f ff be b9 d8 84 be a4 10 b1 3d 17 3e 05 3f
       -0.49853036 -0.25946596 0.08645752 0.52047867
000230 b3 0a 63 3e c5 76 8c 3e b8 c9 56 bd ec 47 e2 3d
       0.2217205 0.27434364 -0.052438468 0.11048874
000240 f7 a1 87 be df 2a 0c be cb 98 62 be 07 14 f6 bd
       -0.26490757 -0.13688229 -0.22128598 -0.12015539
000250 5c 43 11 3e ea 58 39 bc d9 c4 52 be 5f 56 4b 3d
       0.14185852 -0.011312703 -0.20582904 0.049642917
000260 4a 91 15 be 95 19 9b 3c e1 c6 04 be 12 ae 0d 3d
       -0.14606205 0.018933097 -0.12966491 0.034589835
000270 b4 83 e6 3d 9a c5 6e 3d d1 7b 63 bd 29 9c e9 3d
       0.11255589 0.058293916 -0.055538002 0.11406738
000280 2b 7d 61 3e 4e 38 82 3d ce 45 e9 3d 4b 1c 40 bc
       0.22020404 0.063583955 0.11390267 -0.011725496
000290 58 6f 3c 3e b2 8e 09 be ae 46 78 be 60 a2 98 3e
       0.1840185 -0.1343334 -0.24245712 0.29811382
0002a0 b9 70 75 bc 9d a0 0b be c8 50 cf 3e 5b a1 05 3c
       -0.014980488 -0.13635488 0.4049132 0.008156146
0002b0 7f 32 e2 3d 90 8d 91 bd 0f 53 58 3d d4 ea eb 3d
       0.110447876 -0.07107079 0.052813586 0.11519399
0002c0 9a 01 29 3e b4 6a 14 be 28 0a bf 3b 74 e4 92 3d
       0.16504517 -0.14493829 0.005830068 0.0717248
0002d0 a9 66 20 3e 54 0d c4 bd 03 5a 41 be e8 94 f3 bd
       0.15664162 -0.09572855 -0.18881993 -0.11893636
0002e0 2c cd d1 3e ed 59 71 be 74 a8 5c 3e 5b c1 c1 3d
       0.40976846 -0.2356946 0.21548635 0.09460708
0002f0 62 84 aa 3d ea 3e a0 3b 8d be 2a be 3b 5c d9 3d
       0.08326031 0.0048903124 -0.16674252 0.10613295
000300 38 33 9e 3e 81 02 d9 3d 09 ce d5 bd a8 fe e6 bb
       0.30898452 0.10596181 -0.10439689 -0.0070494004
000310 80 32 fe bc ae da e4 3d 57 3f 87 3d 38 82 01 3e
       -0.03102994 0.11174522 0.06603878 0.12647331
000320 dc eb 0c be c7 93 1e be 0b a6 16 3e 9c dc f6 ba
       -0.13761848 -0.1548606 0.14711778 -0.0018834057
000330 a5 c1 d2 3b 34 c8 84 3e 6b b5 86 bd c0 64 54 be
       0.0064317756 0.25933993 -0.065775715 -0.20741558
000340 99 77 46 bd 01 0f f6 3d a4 0e c2 bd af a0 89 3e
       -0.0484539 0.120145805 -0.09475449 0.26880404
000350 29 87 ea be af bd 42 3d 3c 97 51 3e db d0 7a 3e
       -0.45806244 0.047544178 0.20467848 0.24493735
000360 63 ea 88 bd c3 1c d7 3c 05 5a 0c 3b d3 a4 2f be
       -0.06685331 0.026258832 0.002141596 -0.17152719
000370 b6 c4 86 bd cf 08 47 be 1b d3 c7 3d 2f 5c cf 3d
       -0.065804884 -0.19436954 0.09757062 0.101250045
000380 b2 d6 6c be 5c be 7e 3d 4b f5 4a be f4 ac 59 3e
       -0.23128775 0.06219326 -0.19820134 0.21257383
000390 62 7f 2d 3e 9a d3 6b 3e 66 8c bc 3e cb fb 5e be
       0.16943124 0.23029938 0.36825866 -0.21775739
0003a0 77 1f d0 bd 7d 42 98 3d b6 80 cf 3d 86 0c 49 be
       -0.101622514 0.07434557 0.101319715 -0.19633684
0003b0 f1 85 bf 3d 4d d9 88 ba f6 a6 95 3e 55 b5 32 3e
       0.09351719 -0.0010440737 0.29228944 0.17451985
0003c0 87 93 26 be 91 cd b6 bd dd 00 c1 bb af 12 96 3d
       -0.16267215 -0.089259274 -0.0058899955 0.07327782
0003d0 46 cd 39 bc 75 72 2f bd 07 2a 05 3e 33 c0 0e 3e
       -0.011340445 -0.042833764 0.13004313 0.13940506
0003e0 19 cd 7b 3e 23 62 40 3e 10 b5 e1 bd 84 76 05 bd
       0.24589957 0.18787436 -0.11020863 -0.03258373
0003f0 a4 c7 e1 3d 09 ea e3 3e 87 a4 b9 be bd f6 a2 3e
       0.110244066 0.44514492 -0.36258337 0.3182887

fc1.bias f4 [256]
000000 23 69 62 3e 76 f4 22 3f 22 fd df 3e af 5c 17 3f
       0.22110419 0.6365427 0.43747813 0.591258
000010 5e 04 13 3f 11 66 a0 3e 1a 7c f1 bd 62 bd 1b bc
       0.5742854 0.3132787 -0.117912486 -0.009505602
000020 ca e0 81 3e 46 6c c7 3e f1 58 bd 3e f9 8c dc 3d
       0.25366813 0.38949794 0.3698192 0.10769076
000030 82 87 90 be 64 54 61 3e 4b ca df be 94 33 cb 3e
       -0.28228384 0.22004849 -0.43709025 0.39687788
000040 9e ae 07 3e 06 b2 14 3f 64 fa a6 3e 2b a4 0d 3f
       0.13250205 0.5808414 0.32612908 0.55328625
000050 5e 3b d2 be 06 63 af 3e ce 1a e8 3e 95 2d 15 3f
       -0.4106092 0.34255236 0.4533295 0.5827268
000060 63 e1 a6 3e 77 33 15 3f ce f1 f8 3e 6e 0a 12 3f
       0.3259383 0.58281654 0.48621982 0.57047164
000070 3d e1 18 be 37 d5 8f be e5 a3 3c 3f b0 1f 06 3f
       -0.14929672 -0.28092358 0.73687583 0.523921
000080 79 92 ef 3e f2 5e fe 3e 6a dd 1c 3f 76 63 ba 3e
       0.46791437 0.49681813 0.6127535 0.36404008
000090 e0 5d aa be bc 00 f8 be c8 a2 32 be 70 f1 76 3e
       -0.33274746 -0.4843806 -0.17444909 0.24115539
0000a0 2d f9 01 3f 15 76 97 be 98 5a d8 3e 3c 38 f0 be
       0.5077084 -0.29582277 0.42256618 -0.46917903
0000b0 e2 5a aa be a0 09 b7 3e 9d 4e 89 be f3 82 dd 3e
       -0.33272463 0.3574953 -0.2681779 0.4326397
0000c0 e8 5c 15 3f f7 4c 47 be f6 91 ef 3e 37 51 13 3f
       0.5834489 -0.19462954 0.46791047 0.575458
0000d0 e9 2d fe 3e 41 31 a3 be ab a1 25 3f 70 cb 17 3e
       0.49644402 -0.31873515 0.6469981 0.14823699
0000e0 58 1e 57 be 40 a2 b2 be 6f c6 82 be 4c f1 98 be
       -0.21007669 -0.34889412 -0.25542018 -0.29871595
0000f0 81 46 60 3f fb 99 b6 be 7d af 1a 3f ee c0 ee 3e
       0.8760758 -0.35664353 0.60424024 0.4663157
000100 e0 e9 cc be 49 c3 ae be e6 f7 9a 3e 43 e6 b6 be
       -0.40022182 -0.34133366 0.30267256 -0.3572255
000110 c3 91 db 3e c1 30 8d be 21 30 1a 3f ae 26 65 be
       0.42884645 -0.2757626 0.6022969 -0.22378036
000120 65 09 09 3c 0f 31 a0 be 9e ff c5 be c3 b2 2d 3f
       0.008364056 -0.3128743 -0.38671583 0.67850894
000130 d1 cc bf 3d 18 00 03 3f 65 4d c8 3e cc 78 a2 be
       0.093652375 0.5117202 0.39121547 -0.31732786
000140 6d 29 e1 3e 3a d9 00 3f eb 6b fd 3e 95 27 6b be
       0.43976918 0.5033146 0.49496397 -0.22964318
000150 79 81 cb 3d 18 83 95 bd 6a 36 01 3f af 83 28 3f
       0.09936804 -0.07300395 0.50473654 0.65825933
000160 d6 94 6a be 38 24 10 3f f9 52 2c 3f 60 1b 8f be
       -0.22908339 0.56305265 0.67314106 -0.27950573
000170 90 77 0f 3f c1 6e fc 3e 0f 79 09 3f ae b7 49 be
       0.5604181 0.4930325 0.53700346 -0.19698974
000180 e3 a7 9c be cc 3b 05 3f 2c 9e a1 be 8e b5 0d 3f
       -0.30596837 0.5204437 -0.31565988 0.55355155
000190 59 55 02 3e d6 50 dc 3e ca cd a9 be 44 77 ce be
       0.1272787 0.43030423 -0.33164817 -0.40325367
0001a0 c3 7d ba be 4e 86 98 3e df 9f 79 3e 19 16 26 3e
       -0.36424074 0.29789966 0.24377392 0.16219367
0001b0 22 2a f6 bc d5 62 e9 3e 1a 3d 32 3f d5 96 a3 be
       -0.030049387 0.45583215 0.69624484 -0.31951013
0001c0 67 3f 9d be 09 21 e5 be 3b e1 0f 3f 75 49 f0 3e
       -0.30712435 -0.44751766 0.5620305 0.46931043
0001d0 d1 47 4d be ff 69 88 be 2b 55 eb 3e 58 ef 6c be
       -0.20046927 -0.2664337 0.45963416 -0.23138177
0001e0 9d 40 a8 be db b2 e2 3e b7 dd bc 3e 2e ab b5 be
       -0.32861796 0.4427708 0.36887905 -0.35482162
0001f0 76 e5 fe 3e 21 ea a5 be 49 21 9d bd f3 21 e7 3e
       0.4978444 -0.3240519 -0.07672364 0.4514309
000200 c8 2c fd 3e 83 ca 22 3f f7 4d e8 3e 0a 28 f4 3e
       0.49448228 0.6359026 0.45371982 0.47686797
000210 1e b8 b4 be db 57 2f 3f 7e 15 9d be 27 3d 52 3e
       -0.3529672 0.6849343 -0.3068046 0.2053114
000220 29 38 11 3f 98 41 18 3f 0e 45 ab be d8 fb b1 be
       0.5672632 0.5947509 -0.33451122 -0.34762454
000230 03 4c 2a 3f 4c 62 d9 3e 6a 4a 4c 3e 0f ea db be
       0.66522235 0.42457807 0.19950262 -0.4295201
000240 e6 13 c4 3e 1b 1f 6b be 96 6a f5 be 63 95 b8 3e
       0.3829643 -0.22961085 -0.4793288 0.36051473
000250 e6 84 35 3f 6b c8 00 3f 42 44 94 be d3 ff 78 be
       0.7090591 0.50305814 -0.28958327 -0.24316339
000260 99 0b cf be bc 25 fe 3e 11 eb a1 be 48 88 a5 3e
       -0.40438536 0.49638164 -0.31624654 0.32330537
000270 a0 49 a6 be 27 ee 1f 3f 78 04 75 be 1e c2 e9 3e
       -0.32478046 0.62472767 -0.23927486 0.45655912
000280 31 ea 87 3e d3 4c 04 3f 94 bd 11 3f 37 94 e0 be
       0.2654586 0.51679724 0.569299 -0.4386308
000290 5e 0e dd bd 1d 07 4f be eb 32 f8 3e 01 9f a0 be
       -0.10793756 -0.20217557 0.48476347 -0.3137131
0002a0 a6 96 84 be 4d ba 1f 3e ba ae 96 3e 8f 4b c0 be
       -0.25896186 0.15598412 0.2943018 -0.37557647
0002b0 2f 39 04 3f 27 6b 17 3f 84 ab ae be 45 87 26 be
       0.51649755 0.59147877 -0.3411523 -0.16262539
0002c0 23 83 b4 be 31 64 e6 be 6b 24 7c be bc 44 05 3f
       -0.352563 -0.44998315 -0.24623267 0.52058005
0002d0 21 cf 17 3f b6 37 0e 3f c2 15 8a be 7f 16 6d be
       0.5930043 0.5555376 -0.26969725 -0.23153113
0002e0 d6 82 08 3e cf a6 e6 3e e3 f3 b7 3e 1e 48 c4 3e
       0.1333116 0.4504914 0.35928258 0.3833627
0002f0 da 33 3f 3e 82 7d e1 be d5 a1 7c be cc d7 11 3f
       0.18672124 -0.44041067 -0.24671109 0.56969905
000300 37 ca ba 3e a6 7d c5 be 58 77 97 3e fc b3 43 3e
       0.36482403 -0.38572425 0.2958324 0.19111627
000310 45 c3 98 3e 9f 95 0f 3f 6a b7 a8 be 75 57 de 3e
       0.2983648 0.5608768 -0.32952434 0.434261
000320 57 67 07 3f 76 1a ab 3e 38 64 1d 3e 9e 90 b4 3e
       0.5289206 0.33418626 0.15370262 0.35266584
000330 a5 cf 9f be 15 59 95 be 7f 40 a8 3e e4 51 92 be
       -0.31213108 -0.29169527 0.32861707 -0.28578103
000340 81 2b 43 3e fa e5 fc be 4c 13 e8 3e 3d 4d ae be
       0.19059564 -0.49394208 0.45327222 -0.34043303
000350 08 e1 05 3e a8 3c 54 3e e1 b6 0c 3e 44 c0 e5 be
       0.13074124 0.20726264 0.13741638 -0.4487325
000360 f4 29 45 be 3c aa a4 3e c5 3d e6 3e f3 a7 a5 3e
       -0.19254285 0.3216113 0.44969 0.32354698
000370 ca 42 07 3f 26 4a 95 be 4e c6 61 be cf a2 56 3e
       0.5283629 -0.29158133 -0.22048303 0.20960544
000380 43 f1 14 3f 43 2e 3f 3f 51 9d 67 be aa 2e a2 bd
       0.58180636 0.74679965 -0.22618605 -0.07919057
000390 a2 9d 63 bb 51 c0 ab be ca bb 92 3e d0 6a 2c 3f
       -0.0034731408 -0.33545163 0.28658897 0.6735048
0003a0 0a dc d5 be 9a 6f 71 3d 0d cb 19 3f fb 9c 2a 3f
       -0.4176944 0.058944322 0.60075456 0.66645783
0003b0 9b 79 e8 bd 4d d8 11 be 89 71 03 be 42 c8 5e 3e
       -0.113513194 -0.14242668 -0.12836279 0.2175608
0003c0 2e a4 89 bd 50 03 89 3e 4e 8e d2 3d 48 76 64 3e
       -0.06720768 0.2676034 0.10281049 0.22310746
0003d0 af 57 0a be 7f 3a 69 3e e6 d0 d2 be c1 0b 34 be
       -0.13510011 0.2277622 -0.41175002 -0.17582609
0003e0 b4 f6 86 3e 06 a4 5f be b2 0d 74 3e 72 99 0d 3f
       0.26360095 -0.21839914 0.2383335 0.55312264
0003f0 b9 79 0d 3f e5 24 07 3f 16 f9 da 3e 4b 1d e2 be
       0.5526386 0.5279067 0.42768162 -0.44162974
