model_save/bc_q/bc_q100000.pt (torch, 581121 bytes, 10 tensors)

fc1.weight f4 [256, 23]
0	0xbf0163a4	-0.50542665
1	0x3fcd1044	1.6020589
2	0x3e3b261d	0.18276258
3	0x3df2f28b	0.11862668
4	0xbd6383ab	-0.05554549
5	0x3eb1acee	0.34702247
6	0xbf09468f	-0.5362329
7	0xbdbe595d	-0.092943884
8	0xbd4665f5	-0.048437078
9	0x3e2a2036	0.1661385
10	0x3f06fd26	0.52730024
11	0x3d82f04b	0.063934885
12	0x3d82ce76	0.063870355
13	0xbd8ac236	-0.06775324
14	0x3d99dbdb	0.07512637
15	0x3b72a3e6	0.003702396
16	0x3bc6ebaf	0.006070576
17	0xbc882c67	-0.016622735
18	0xbe18a983	-0.14908414
19	0x3ca5cf57	0.020240469
20	0xbdcf1a97	-0.101124935
21	0xbe15d1b6	-0.1463078
22	0x3e0ffb01	0.14060594
23	0x3e057ef5	0.13036712
24	0x3e2991cb	0.16559522
25	0x3ed39cd8	0.413306
26	0x3d1d6023	0.03842176
27	0x3e6466f3	0.22304897
28	0xbe2247b5	-0.15847667
29	0xbe0e0538	-0.13869178
30	0xbd77fd1e	-0.060544126
31	0x3e2509d7	0.16117035
32	0x3db9024b	0.090336405
33	0x3c17c177	0.009262434
34	0xbd76f5cc	-0.060293004
35	0x3e02cb31	0.12772824
36	0xbb8fe2fa	-0.0043910714
37	0xbe149d4c	-0.14513129
38	0x3e40adb4	0.18816262
39	0xbda8d216	-0.08243196
40	0xbde8885a	-0.11354132
41	0xbe26e528	-0.16298354
42	0xbe327839	-0.17428674
43	0xbdc39bd7	-0.095512085
44	0x3db823d1	0.089912064
45	0xbe27d49b	-0.16389696
46	0xbf08af9e	-0.5339297
47	0x3f29cf72	0.6633216
48	0xbd4d3904	-0.050103202
49	0x3e367791	0.17819048
50	0x3ebe4c01	0.3716736
51	0x3edf7644	0.43644917
52	0xbda35883	-0.07975867
53	0xbbed1cbb	-0.007236091
54	0x3e0acfd0	0.13555837
55	0xbea72e9e	-0.32652754
56	0x3e0b7bd6	0.13621458
57	0xbd966ee9	-0.07345373
58	0xbd536c09	-0.051616702
59	0x3b3fd56b	0.0029271494
60	0xbd50682b	-0.050880592
61	0xbe207431	-0.15669324
62	0xbd349370	-0.04408592
63	0xbebe0872	-0.37115818
64	0x3da2bcb3	0.07946148
65	0xbebd8e74	-0.37022746
66	0x3e3952b5	0.18097956
67	0x3e75c176	0.2399958
68	0x3c8ec205	0.0174265
69	0xbf9ac2ce	-1.20907
70	0x3ddbd631	0.10734213
71	0x3c54a0a9	0.0129777575
72	0xbeb6abb8	-0.35677886
73	0x3d2180af	0.039429363
74	0xbd9e5a0b	-0.07732018
75	0x3d8deae7	0.0692957
76	0x3e1cd399	0.15315093
77	0x3e24ed93	0.16106252
78	0xbeebd1b1	-0.4605842
79	0xbe72ae8f	-0.23699401
80	0x3e12f370	0.14350677
81	0xbd618417	-0.05505761
82	0x3ddded1b	0.1083624
83	0x3bd3fff6	0.006469722
84	0x3df7b852	0.12095703
85	0x3cd71e8d	0.026259685
86	0xbdb98239	-0.09058041
87	0x3e75b331	0.23994137
88	0xbe3a7157	-0.18207298
89	0x3eacf9a1	0.33784202
90	0x3d56b4d2	0.052418537
91	0x3e71addc	0.23601478
92	0xbf014345	-0.5049327
93	0x3ec8a71a	0.39189988
94	0x3f28ea22	0.6598226
95	0x3ba33bad	0.004981479
96	0xbee24de7	-0.4420006
97	0xbe4b9943	-0.19882683
98	0xbfd48e51	-1.6605932
99	0xbeff947f	-0.4991798
100	0x3cd23a29	0.025662499
101	0x3e59a721	0.21255161
102	0x3edbd000	0.4293213
103	0x3de8e58a	0.11371906
104	0xbd14394f	-0.036187466
105	0x3b981cb3	0.004642093
106	0xbd7c7c68	-0.06164208
107	0xbdcc2978	-0.09968847
108	0x3b24baf9	0.0025135858
109	0x3ea3531e	0.3189935
110	0x3f1fb7e8	0.62389994
111	0x3daeb6c6	0.08530955
112	0xbe89cf0c	-0.26915777
113	0xbeb7ac4a	-0.35873634
114	0x3e873f97	0.26415703
115	0xbd27caae	-0.040964775
116	0xbe906212	-0.28199822
117	0x3e77432e	0.24146721
118	0xbde083f9	-0.10962672
119	0x3d24f147	0.040269163
120	0xbdb093fd	-0.086219765
121	0xbe736e41	-0.23772527
122	0x3ddb3be4	0.107047826
123	0x3e717901	0.23581316
124	0x3ea67df3	0.32517967
125	0x3d20c2f3	0.039248418
126	0x3e11e525	0.14247568
127	0xbc7b634b	-0.0153434975
128	0xbe08ea0c	-0.13370532
129	0x3d836768	0.064162076
130	0x3b810c8a	0.0039382624
131	0xbd44e0fb	-0.04806612
132	0x3e8d8e77	0.27647755
133	0xbd9e15eb	-0.07719024
134	0xbe359c51	-0.17735411
135	0xbde8eb83	-0.11373045
136	0x3e57e042	0.21081641
137	0xbe439c28	-0.19102538
138	0xbebe127a	-0.37123471
139	0xbf36e2bc	-0.7143972
140	0xbea20ca9	-0.31650284
141	0xbe77c1d6	-0.24195036
142	0x3e9347d2	0.28765732
143	0x3f111cda	0.5668465
144	0x3ddbed8e	0.10738669
145	0xbea4d91d	-0.32196894
146	0x3e4a1dfc	0.19738
147	0x3df1d7f7	0.1180877
148	0xbe59cac2	-0.21268752
149	0xbd8c8d34	-0.0686287
150	0xbd8428a5	-0.06453065
151	0x3d4dca7e	0.05024194
152	0xbe222c72	-0.15837267
153	0xbd9d5832	-0.076828375
154	0x3ce83335	0.02834473
155	0x3c479a65	0.012182807
156	0x3dac691c	0.084184855
157	0xbd5d881e	-0.05408489
158	0xbeabe0b8	-0.33569884
159	0xbe382f98	-0.17986906
160	0x3db60049	0.08886773
161	0x3eff1781	0.4982262
162	0x3dcf9772	0.10136308
163	0xbe9afd3a	-0.30271322
164	0xbf0e981d	-0.55700856
165	0xbf50c9bf	-0.8155784
166	0xbec1f266	-0.37880248
167	0xbf67ce76	-0.9054941
168	0xbf4951d2	-0.7864047
169	0xbe448cec	-0.19194382
170	0x3eb8d9f7	0.36103794
171	0xbe1fd172	-0.15607241
172	0x3d7e26ef	0.06204885
173	0xbbb62aec	-0.005559316
174	0xbe42ffc1	-0.19042875
175	0xbe2e8fce	-0.17047045
176	0xbd260b55	-0.04053815
177	0xbd429023	-0.04750074
178	0x3e066247	0.13123427
179	0x3ed35186	0.41273135
180	0x3ee897c4	0.45428288
181	0xbdd77fe2	-0.105224386
182	0xbe5b4ba0	-0.21415567
183	0xbe09ec13	-0.13468961
184	0x3f9102e6	1.132901
185	0x3f4f7929	0.8104425
186	0xbea424f7	-0.32059452
187	0x3db2ac16	0.08724229
188	0xbf03c718	-0.5147567
189	0xbd92c010	-0.07165539
190	0x3caba616	0.02095322
191	0x3ea75946	0.32685298
192	0xbdd63fba	-0.104613736
193	0xbd6f380e	-0.058403067
194	0x3eab96c3	0.3351346
195	0x3db438b9	0.087998815
196	0xbe50bfd7	-0.20385681
197	0xbe02ea55	-0.12784703
198	0xbe3c57fc	-0.18392938
199	0x3e027cd8	0.12742937
200	0x3e08f38b	0.13374154
201	0xbc88064f	-0.01660457
202	0xbe1902b3	-0.14942436
203	0xbe37b504	-0.17940146
204	0xbdc0c5f7	-0.09412759
205	0x3d3a4d69	0.04548398
206	0x3e171c7e	0.14756963
207	0xbd757559	-0.059926365
208	0x3d6afe93	0.057371687
209	0x3eb54932	0.35407406
210	0x3e0e0196	0.13867792
211	0x3e623636	0.22090992
212	0xbdfd67a1	-0.12373281
213	0x3d965244	0.0733991
214	0xbcf862d1	-0.030320557
215	0x3e22a7b3	0.15884285
216	0x3e54f56a	0.20796743
217	0xbe4d22df	-0.20032834
218	0x3c430831	0.011903808
219	0xbbc24847	-0.0059290263
220	0x3dc724ef	0.097238414
221	0x3d76ab31	0.060221855
222	0xbb4d3062	-0.0031309356
223	0xbd944214	-0.07239166
224	0x3dde4eb9	0.10854859
225	0x3dc5e905	0.096635856
226	0x3df7e3be	0.12103985
227	0xbe46e021	-0.19421436
228	0x3e170f4a	0.14751926
229	0xbe3c22a6	-0.18372592
230	0xbf7b501a	-0.981691
231	0x3fd18bdb	1.6370806
232	0x3e7f87fe	0.2495422
233	0xbe05b715	-0.13058122
234	0x3e3f7d02	0.1870003
235	0x3e5c2bb3	0.21501045
236	0xbed0e895	-0.40802446
237	0x3eae6373	0.3406025
238	0xbe06983c	-0.1314401
239	0x3e2277ae	0.15865967
240	0x3dacd45f	0.08438944
241	0x3cb61d5a	0.022230793
242	0x3dc3ee3e	0.095669255
243	0x3cdb933d	0.026803607
244	0x3e2efabd	0.17087837
245	0x3d01a169	0.031648073
246	0x3e0024ee	0.12514088
247	0xbdfa5a3b	-0.12224241
248	0xbde9d46a	-0.11417468
249	0x3dd956bf	0.10612249
250	0x3dd7476c	0.105116695
251	0x3ebff6b9	0.37492922
252	0xbd6e4d8d	-0.058179427
253	0x3f412b2e	0.7545651
254	0xbe8ad8cc	-0.27118528
255	0x3eb38047	0.35058805

fc1.bias f4 [256]
0	0xbe5f7a41	-0.2182398
1	0x3f703988	0.93837786
2	0x3f56d2f1	0.8391562
3	0x3f33d993	0.70253867
4	0x3edf585a	0.43622094
5	0x3f29cf44	0.6633189
6	0x3ec79e0a	0.38987762
7	0x3f1431d7	0.5788855
8	0xbf17cf76	-0.59300935
9	0x3f5d1289	0.8635641
10	0xbea10889	-0.31451824
11	0x3f2df8fd	0.6795805
12	0x3f11b702	0.5691987
13	0x3f0f635b	0.5601098
14	0x3f8ae90c	1.085237
15	0x3f88775e	1.0661428
16	0xbf4a4c30	-0.790225
17	0x3f8d2471	1.1026746
18	0xbf2ff3d6	-0.6873144
19	0x3f05bc96	0.52240884
20	0x3f237049	0.6384321
21	0x3f423522	0.75862324
22	0x3f4b7f7f	0.7949142
23	0x3f203031	0.62573534
24	0xbf194217	-0.5986647
25	0x3f53e53e	0.8277167
26	0x3f83979e	1.0280645
27	0xbe8c7e0b	-0.27439913
28	0xbf3978a6	-0.7244972
29	0xbefd9fa8	-0.4953587
30	0xbf02d995	-0.51113254
31	0x3eb30e2a	0.34971744
32	0x3f2597db	0.6468484
33	0xbf00a81d	-0.5025652
34	0x3faab8c7	1.333764
35	0xbedbe38c	-0.42947042
36	0xbefbd684	-0.491871
37	0x3ef4e7bc	0.4783305
38	0x3f2fb217	0.6863112
39	0xbf245d72	-0.64205086
40	0x3f87cd2c	1.0609488
41	0x3f44b873	0.7684395
42	0x3f76ae99	0.96360165
43	0xbf3accd8	-0.72968817
44	0x3f71b46e	0.9441594
45	0x3fa8d7b9	1.3190833
46	0xbeceb979	-0.4037588
47	0x3f7eb22e	0.9949063
48	0x3f411942	0.75429165
49	0x3f809e3b	1.0048288
50	0xbe73495b	-0.23758452
51	0x3f4b5ec2	0.79441464
52	0x3f24d510	0.6438761
53	0xbf181625	-0.5940879
54	0xbea9bd6a	-0.33152324
55	0xbe84a803	-0.25909433
56	0xbf086d6d	-0.5329197
57	0xbef745f2	-0.48295552
58	0x3f8b2b02	1.08725
59	0xbf13dace	-0.57755744
60	0x3f470628	0.7774377
61	0x3f455e29	0.770968
62	0x3f5f5273	0.8723518
63	0x3f1fae0c	0.6237495
64	0xbec6787f	-0.38763806
65	0x3f728823	0.9473898
66	0xbebe2f29	-0.37145355
67	0x3f197dae	0.59957397
68	0x3f8c4052	1.0957129
69	0x3f73e665	0.9527343
70	0xbf1f55d8	-0.6224036
71	0x3f72de3d	0.9487036
72	0xbf13c050	-0.5771532
73	0xbf07b4f3	-0.5301048
74	0xbec9c825	-0.3941051
75	0x3f0e576f	0.55602163
76	0x3f24540f	0.64190763
77	0xbc6f8ec3	-0.014621439
78	0xbf376992	-0.7164546
79	0x3f2cd1d9	0.675077
80	0x3dc36e67	0.09542542
81	0x3f618509	0.8809362
82	0x3f59a953	0.85023993
83	0x3f3cf749	0.7381483
84	0x3f6f3cda	0.9345223
85	0xbf05d2f0	-0.5227499
86	0x3f6c3985	0.9227527
87	0xbd830e16	-0.06399171
88	0x3f4aab0b	0.7916724
89	0xbef51779	-0.4786947
90	0x3f63fbcf	0.89056104
91	0xbe9cf6f1	-0.3065715
92	0x3f4b4286	0.7939838
93	0x3f989d9c	1.1923099
94	0xbf318a53	-0.6935169
95	0xbf19a724	-0.6002066
96	0x3f5dbcc8	0.8661618
97	0x3f2cfc2e	0.67572296
98	0x3faddb70	1.3582592
99	0x3f4dda89	0.80411583
100	0x3f772b31	0.9655028
101	0xbf38743a	-0.7205235
102	0xbef4099f	-0.4766359
103	0xbeefac56	-0.4681117
104	0x3f28f658	0.6600089
105	0xbf26d652	-0.65170777
106	0x3f4e6c05	0.80633575
107	0x3f4362f8	0.7632289
108	0x3f4f8435	0.81061107
109	0x3ec333ac	0.3812536
110	0x3f140656	0.5782217
111	0xbed43a0d	-0.4145054
112	0x3f68c261	0.909216
113	0x3f5d2e7b	0.8639905
114	0xbf3bdb66	-0.7338165
115	0x3ef6b067	0.4818146
116	0x3f208b06	0.6271213
117	0x3f2eb91e	0.68251216
118	0x3f7a09e2	0.9767133
119	0xbedc415b	-0.43018612
120	0xbf32bf26	-0.6982292
121	0x3f236868	0.63831186
122	0x3f658c0b	0.89666814
123	0x3f67db06	0.9056858
124	0x3f81994a	1.0124905
125	0xbf234942	-0.6378366
126	0x3f12ae02	0.57296765
127	0x3ece7aa7	0.4032795
128	0x3f1e82ca	0.6191832
129	0x3f3f9bf8	0.74847364
130	0x3f82a587	1.0206765
131	0xbf31790f	-0.69325346
132	0x3f0fd68c	0.5618675
133	0x3f45125c	0.7698114
134	0x3f432c67	0.7623963
135	0x3edb94df	0.42887017
136	0x3f06e9b2	0.5270034
137	0x3eb05d30	0.34446096
138	0x3f829e9f	1.0204657
139	0x3f2811a9	0.6565195
140	0x3f557e7e	0.83396137
141	0xbf10147f	-0.56281275
142	0xbf2a9419	-0.6663223
143	0x3faec7fe	1.3654783
144	0xbf07b6fa	-0.53013575
145	0xbf15e63d	-0.5855444
146	0xbf25d2b7	-0.6477465
147	0x3f2f1b56	0.68401086
148	0x3f796059	0.9741264
149	0xbf2b44e8	-0.6690202
150	0xbf24a1dd	-0.64309484
151	0xbf2e4b7d	-0.68083936
152	0xbe116940	-0.14200306
153	0x3f8d0574	1.1017289
154	0x3f7d1a5f	0.98868364
155	0x3f827cee	1.0194376
156	0x3f027b9d	0.5096987
157	0xbf1ae99b	-0.60512704
158	0x3f58371f	0.8445911
159	0x3ee49ebf	0.44652364
160	0x3f8fdefc	1.1239924
161	0x3f607101	0.8767243
162	0xbecff227	-0.40614435
163	0xbf1d10a9	-0.61353546
164	0x3f830fc2	1.0239184
165	0xbf02c208	-0.5107732
166	0x3f711347	0.9417004
167	0xbed25852	-0.41083008
168	0x3f31c519	0.6944137
169	0xbf34a92f	-0.70570654
170	0x3f33ad0b	0.7018592
171	0x3f72116f	0.9455785
172	0x3e80de4f	0.25169608
173	0x3f9381a0	1.1523933
174	0xbf2ee7b1	-0.68322283
175	0xbef90dc1	-0.48643306
176	0xbf1bb91f	-0.6082935
177	0x3f1504d7	0.5821051
178	0xbefc3dfe	-0.49266046
179	0x3f16e48d	0.5894249
180	0xbed452e0	-0.4146948
181	0x3f5cd6cb	0.8626525
182	0x3f23eff0	0.6403799
183	0x3f478a84	0.77945733
184	0xbf1f2136	-0.6216005
185	0x3f3202fd	0.6953581
186	0xbebd5178	-0.36976218
187	0x3f4a0f72	0.7892982
188	0xbecbae57	-0.39781448
189	0xbf1bb373	-0.6082069
190	0x3f6c57b5	0.9232133
191	0xbee468a2	-0.44611079
192	0xbf01aee2	-0.50657475
193	0xbf26436d	-0.64946634
194	0xbf2ae281	-0.6675187
195	0xbf07b89e	-0.5301608
196	0x3f350cc2	0.7072259
197	0x3f47bceb	0.7802264
198	0x3f67d269	0.90555435
199	0x3f054767	0.52062076
200	0xbf305f41	-0.68895346
201	0x3f0f5a2e	0.5599698
202	0x3f73d8cd	0.95252687
203	0xbf175a4b	-0.5912215
204	0x3f40149f	0.75031465
205	0x3f40f798	0.753778
206	0xbf1bd156	-0.60866296
207	0xbf2e94c3	-0.6819574
208	0x3f97780c	1.183351
209	0xbf05100a	-0.519776
210	0x3f6e8af3	0.9318077
211	0x3f83bcba	1.029197
212	0x3f05ff50	0.523427
213	0x3f897f68	1.0742006
214	0xbf2eb21c	-0.68240523
215	0x3f5b38da	0.85633624
216	0xbef531a8	-0.47889447
217	0x3f59bdae	0.85055053
218	0x3f7bf0cf	0.9841432
219	0x3f89d2d2	1.0767462
220	0x3f0afd0c	0.5429237
221	0x3eb9e8e8	0.36310506
222	0x3f928c4e	1.1449068
223	0x3f7f6992	0.9977046
224	0xbf134d78	-0.5754008
225	0xbdfc6311	-0.12323583
226	0x3f248bc3	0.6427576
227	0x3f92061b	1.1408113
228	0x3f444f7c	0.76683784
229	0x3eb4b7ae	0.35296386
230	0xbf358eeb	-0.709212
231	0xbf4422dc	-0.7661569
232	0x3eedaad3	0.4641939
233	0xbf4320ae	-0.7622174
234	0xbf341519	-0.7034469
235	0x3ef67010	0.48132372
236	0xbf17132b	-0.59013623
237	0x3f6e1190	0.9299555
238	0xbf21ee1d	-0.6325396
239	0x3f6dc7b9	0.9288288
240	0xbee3e49f	-0.44510362
241	0x3f024e2a	0.5090052
242	0x3f78d504	0.97200036
243	0x3f79a88a	0.97522795
244	0x3f815772	1.0104811
245	0x3f77201e	0.9653338
246	0xbed05697	-0.40691063
247	0xbf0c3ee6	-0.54783475
248	0xbe2ef455	-0.17085393
249	0x3f6310ac	0.88697314
250	0x3f3cf106	0.7380527
251	0x3f869369	1.0513736
252	0x3f91e835	1.1398989
253	0x3f96b7eb	1.1774877
254	0xbed45a36	-0.41475075
255	0x3f2eb7c5	0.6824916

fc2.weight f4 [256, 256]
0	0xbc02f9b3	-0.007994103
1	0x3d9e94f7	0.077432565
2	0x3d80d437	0.06290477
3	0x3dbf453e	0.09339379
4	0x3dd4f8b7	0.10399001
5	0x3ccd3656	0.025050323
6	0x3d10e84e	0.035377793
7	0x3e186ba1	0.14884807
8	0xbcbcff99	-0.023071097
9	0x3df64e7b	0.12026688
10	0x3c022bc1	0.007945002
11	0x3dde73b9	0.10861916
12	0x3de609d0	0.1123234
13	0x3df300e6	0.11865406
14	0x3de56334	0.11200562
15	0x3d897efa	0.06713672
16	0x3ba549d4	0.0050442014
17	0x3e2ae280	0.16687965
18	0xbd1bebc8	-0.038066655
19	0x3d264889	0.04059652
20	0x3df16614	0.11787048
21	0x3d54d8b2	0.05196447
22	0x3dc0ad2c	0.0940803
23	0x3ce35532	0.027750585
24	0xbcc7d5e6	-0.024393987
25	0x3da21bf7	0.0791549
26	0x3e2fb20c	0.17157763
27	0xbc43924d	-0.011936736
28	0x3c677561	0.014127106
29	0x3e3d2d52	0.1847432
30	0xbd83ea69	-0.064411946
31	0xbbe7a37e	-0.0070690503
32	0x3d53b738	0.051688403
33	0x3d8c3ea1	0.06847883
34	0x3e07bde4	0.13256031
35	0x3bf54ff3	0.0074863373
36	0xbc890d60	-0.01673001
37	0x3d57c0e8	0.052674204
38	0x3d84f491	0.0649196
39	0xbbea8433	-0.0071568727
40	0x3e6a6795	0.22891076
41	0x3e095ecf	0.13415073
42	0x3cbc3498	0.022974297
43	0x3d2fc629	0.04291359
44	0x3d711eb6	0.05886718
45	0x3e17ab06	0.14811334
46	0xbe95e873	-0.29278907
47	0x3e0402b4	0.12891656
48	0x3e0d1b86	0.1378003
49	0x3e002aed	0.12516375
50	0x3d1895b4	0.037252143
51	0x3e2f1b40	0.17100239
52	0x3ded46c2	0.115857616
53	0xbc7cb212	-0.015423315
54	0x3d905873	0.0704812
55	0x3ca8071c	0.020511203
56	0xbd98d5e9	-0.07462675
57	0x3d2eb79a	0.042655565
58	0x3e2ba71a	0.16762963
59	0x3da366ab	0.07978567
60	0x3debcbc6	0.11513476
61	0x3c49fa41	0.012327732
62	0x3dfab2cf	0.12241136
63	0x3ac395b7	0.0014921938
64	0x3cbf223f	0.02333176
65	0x3d94c813	0.07264724
66	0x3e027570	0.12740111
67	0x3e13f880	0.14450264
68	0x3dd36519	0.10322017
69	0x3df35add	0.11882565
70	0x3c3c1c7c	0.011481401
71	0x3dc489d1	0.09596599
72	0xbd5cc76e	-0.05390113
73	0xbdbb4f83	-0.09146025
74	0x3d04309d	0.032272924
75	0x3d3dcb3b	0.046336394
76	0x3dcacf3d	0.09902809
77	0x3d5d0263	0.053957354
78	0x3ded7822	0.11595179
79	0x3dcb5aac	0.09929404
80	0xbae2c17c	-0.0017300094
81	0x3e2f9277	0.17145716
82	0x3e166cd2	0.14689949
83	0x3df3b81b	0.1190035
84	0x3d8b9ad5	0.06816641
85	0x3c07a59b	0.0082792295
86	0x3e0b2553	0.13588457
87	0x3d04d2a9	0.032427464
88	0x3c0ecdfc	0.008716103
89	0x3df2ad89	0.118495055
90	0x3e16f329	0.14741196
91	0x3db1e016	0.08685319
92	0x3e012e82	0.12615398
93	0x3e5517f1	0.20809914
94	0xbc828266	-0.01593132
95	0x3d65b849	0.05608395
96	0x3e1cb4fc	0.15303415
97	0x3df49531	0.119425185
98	0x3e29c147	0.16577636
99	0x3c9919a6	0.018688988
100	0x3e0cb9af	0.13742708
101	0xbe11dae6	-0.1424366
102	0x3db27890	0.08714402
103	0x3d5b2837	0.05350515
104	0x3d5d967a	0.054098584
105	0x3dfeca8b	0.12440976
106	0x3e152f71	0.14568879
107	0x3dbe13d9	0.092811294
108	0x3df16e8e	0.11788665
109	0x3d0d50f1	0.03450102
110	0x3d7397aa	0.05947081
111	0xbc8b952d	-0.017038906
112	0x3d543acd	0.05181389
113	0x3dedd8eb	0.116136394
114	0x3cfd96cb	0.030955693
115	0x3e04824b	0.12940328
116	0x3d2448f7	0.040108647
117	0x3dbc0e85	0.09182457
118	0x3d30a016	0.04312142
119	0x3d75642b	0.05990998
120	0x3cb6c2dd	0.022309715
121	0x3cf5bd50	0.029997498
122	0x3e1ae74c	0.15127295
123	0x3e01d2a3	0.12678008
124	0x3d51aee1	0.05119217
125	0xbcd25fdc	-0.025680475
126	0x3d5fc9ab	0.054635685
127	0x3de9d865	0.11418227
128	0x3dc38cd6	0.09548347
129	0x3d8252e7	0.063634686
130	0x3e8da6c6	0.276663
131	0xbd368b25	-0.044566292
132	0xbbb8d070	-0.005640082
133	0x3d61b5db	0.05510507
134	0x3d6ed8a2	0.058312066
135	0x3d4d6c66	0.050152205
136	0x3ba869fe	0.0051395884
137	0x3c3ecfdd	0.011646238
138	0x3e14a7ea	0.14517179
139	0x3d97fedd	0.07421658
140	0x3dc1f4c9	0.09470517
141	0xbd17092d	-0.036873985
142	0x3d513f8f	0.051086005
143	0x3ea7ee81	0.32799152
144	0xbb9eae6a	-0.004842569
145	0x3d7537ac	0.059867546
146	0xbcb42a31	-0.021992775
147	0x3cc45450	0.023965985
148	0x3e2ede99	0.17077102
149	0xbd8f28a6	-0.06990175
150	0xbd194a5e	-0.037424438
151	0xb95a482b	-0.00020816985
152	0x3e1bd455	0.15217717
153	0x3e3027f6	0.17202744
154	0x3e18e63e	0.1493158
155	0x3e07df03	0.13268666
156	0x3cd9b9e8	0.026577905
157	0x3b5ecae5	0.0033995446
158	0x3d8aad69	0.067713566
159	0x3d8cfd17	0.068842106
160	0x3dc893a1	0.09793783
161	0x3db9047d	0.09034059
162	0x3dd64fb1	0.10464419
163	0x3e18112d	0.14850302
164	0x3e090cd9	0.13383807
165	0x3d9673c0	0.07346296
166	0x3ddd6afb	0.108114205
167	0xbd0d5dd9	-0.03451333
168	0x3e1d975d	0.15389772
169	0xbd29c8b0	-0.041451156
170	0x3d67d59c	0.0566002
171	0x3c2850be	0.010273157
172	0x3d509639	0.050924513
173	0x3e2a3cc5	0.16624744
174	0x3d0fcd6c	0.035108015
175	0x3dbd740b	0.09250649
176	0x3c6b6f12	0.014369743
177	0x3dd5b403	0.10434725
178	0x3b6ef238	0.0036460292
179	0x3dcc04c9	0.0996185
180	0x3cdbe057	0.026840372
181	0x3dc66b58	0.09688443
182	0x3dc1f765	0.09471015
183	0x3d80c41d	0.06287406
184	0xbd9fd311	-0.078039296
185	0x3dfb751d	0.12278197
186	0x3d9dcfff	0.07705688
187	0x3c086573	0.008324969
188	0x3bc5d102	0.0060368786
189	0x3d25cc50	0.04047805
190	0x3d6331c2	0.055467375
191	0x3c24299f	0.010019689
192	0xbd80a85b	-0.06282111
193	0xbd1e3a4a	-0.038629808
194	0x3cf05ef0	0.029342145
195	0xbd3740ef	-0.04473966
196	0x3cb9e981	0.022694351
197	0x3e2fe651	0.17177702
198	0x3e050c67	0.12993012
199	0x3d871df1	0.06597508
200	0xbcc5c4a2	-0.024141613
201	0x3cb786fe	0.022403236
202	0x3dd1a586	0.10236649
203	0xbd5774bc	-0.05260156
204	0x3df32a3f	0.11873292
205	0x3e2de134	0.1698044
206	0x3c67a0c0	0.014137447
207	0xbe2d4b57	-0.16923271
208	0x3ebc15f1	0.3673549
209	0xbcbfdfe8	-0.023422197
210	0x3dd338e8	0.103135884
211	0x3e275f80	0.16345024
212	0x3d8d071c	0.06886122
213	0x3d7946b9	0.060858462
214	0x3cf7501c	0.030189566
215	0x3e0bf317	0.1366695
216	0xbb86efee	-0.0041179573
217	0x3e1ebf12	0.15502575
218	0x3e283da7	0.16429769
219	0x3d7c7327	0.061633255
220	0x3d6f4969	0.05841962
221	0x3df0c3d6	0.11756103
222	0x3e475f13	0.19469862
223	0x3dde8893	0.10865893
224	0xbe5eb319	-0.21748008
225	0x3dec2d39	0.11532063
226	0x3e1053d7	0.14094482
227	0x3e2e5770	0.17025542
228	0x3df1c2ef	0.11804759
229	0xbc50d1f2	-0.012745367
230	0xbd22e02d	-0.039764572
231	0xbe1d2f38	-0.15350044
232	0x3de070fa	0.109590486
233	0xbc3ce4e8	-0.011529185
234	0xbcbe3077	-0.02321647
235	0x3df433b2	0.119239226
236	0x3dd4889e	0.1037762
237	0x3d73b6af	0.059500393
238	0xbd892ed3	-0.06698384
239	0x3db9630e	0.09052096
240	0x3daa674e	0.08320485
241	0x3d11bfd7	0.035583343
242	0x3e063087	0.13104449
243	0x3e219082	0.15777782
244	0x3d846341	0.06464244
245	0x3d839241	0.0642438
246	0x3d7ab8ec	0.06121151
247	0xbe23b224	-0.15985924
248	0x3d5aa2d9	0.05337796
249	0x3e0752d1	0.13215186
250	0x3e104149	0.14087404
251	0x3e0924b4	0.13392907
252	0x3de671b1	0.11252154
253	0x3dcf4816	0.10121171
254	0x3df625e2	0.12018944
255	0x3d363fb4	0.044494346

fc2.bias f4 [256]
0	0x3f477a24	0.77920747
1	0x3f4a6fcc	0.7907684
2	0x3f52084f	0.8204393
3	0xbeaf82c0	-0.34279442
4	0xbd47136a	-0.0486025
5	0x3f480ace	0.78141487
6	0x3f51da50	0.81973743
7	0x3f478107	0.77931255
8	0x3f5b8cfd	0.85762006
9	0x3f61c35c	0.8818872
10	0x3f538af9	0.8263393
11	0x3f53b912	0.8270427
12	0x3f66eec9	0.9020811
13	0xbd509f0b	-0.050932925
14	0xbefa20b8	-0.48853087
15	0xbf193337	-0.5984377
16	0xbcdc8c7c	-0.026922457
17	0xbe91c0c1	-0.28467372
18	0xbef08696	-0.4697768
19	0xbf0649ab	-0.5245616
20	0x3f5ae851	0.85510737
21	0x3f4b76f6	0.79478395
22	0x3f572d5f	0.84053606
23	0x3f559f43	0.8344614
24	0xbeade095	-0.33960405
25	0xbe97bad7	-0.29634735
26	0x3f5f40c5	0.87208205
27	0x3f60b2e3	0.8777296
28	0xbf0850f3	-0.5324852
29	0xbc5835e4	-0.013196442
30	0x3f4891a4	0.7834723
31	0xbc8d00f2	-0.017212365
32	0xbf066143	-0.5249216
33	0xbe26abbb	-0.16276447
34	0xbf1a9e85	-0.6039813
35	0x3e8aee0d	0.27134743
36	0xbeaf5ef8	-0.34252143
37	0xbed4d272	-0.41566807
38	0x3d1a0c6a	0.037609495
39	0xbed7910d	-0.42102852
40	0x3f4eda9a	0.8080231
41	0xbec86135	-0.39136663
42	0xbe4ab221	-0.19794513
43	0x3f501290	0.81278324
44	0x3f47cea7	0.780497
45	0x3f55edf0	0.8356619
46	0xbeebabcf	-0.46029517
47	0x3f4876cf	0.7830629
48	0x3f44d256	0.7688345
49	0x3f57f6dc	0.8436105
50	0x3f57901f	0.84204286
51	0x3f58a88f	0.846322
52	0xbcaa2b68	-0.02077265
53	0x3f5ff316	0.87480295
54	0x3f6252b3	0.8840744
55	0x3f43224b	0.762242
56	0xbe0bc1dd	-0.13648172
57	0x3f4a9919	0.7913986
58	0xbe7722eb	-0.24134414
59	0xbe483a2e	-0.19553444
60	0xbc351809	-0.011053094
61	0xbf172964	-0.5904753
62	0xbe4b2af0	-0.19840598
63	0xbf19bca2	-0.60053456
64	0x3f56b45b	0.8386895
65	0xbedf7145	-0.43641105
66	0x3f5ee5ae	0.87069213
67	0x3f5d1f65	0.8637603
68	0x3f5923a2	0.84819996
69	0x3f4791d5	0.779569
70	0x3f46a6bb	0.7759816
71	0x3f604e18	0.8761916
72	0xbf0654a8	-0.52472925
73	0x3f496882	0.7867509
74	0xbf0fd165	-0.56178886
75	0x3d828155	0.063723244
76	0xbf146d98	-0.57979727
77	0x3f5e6f9c	0.8688905
78	0xbed935fe	-0.42424005
79	0xbf0d55a3	-0.55208796
80	0xbeda60ac	-0.4265188
81	0xbec07e35	-0.37596288
82	0x3f53fecc	0.82810664
83	0x3f64c1b0	0.89358044
84	0xbd99b940	-0.07506037
85	0x3f4e8801	0.80676275
86	0xbf046156	-0.5171102
87	0x3f51bf0a	0.8193213
88	0xbef965ef	-0.48710582
89	0xbd39713c	-0.045274004
90	0x3f3c70ea	0.73609793
91	0x3f5f6190	0.87258244
92	0x3f5f9b6a	0.8734652
93	0x3f4fe3d2	0.81207
94	0xbc8aca3d	-0.016942138
95	0xbe64c128	-0.22339308
96	0xbe5c0985	-0.21488006
97	0xbe959b04	-0.2921983
98	0xbedfc41d	-0.4370431
99	0x3f57e7cf	0.84338087
100	0x3f62ed58	0.8864341
101	0x3f507e3a	0.81442606
102	0x3f445f97	0.7670836
103	0xbee19807	-0.440613
104	0xbf2adcd0	-0.66743183
105	0xbee97877	-0.4559972
106	0xbe756f20	-0.23968172
107	0x3f4c127c	0.79715705
108	0x3d182ff7	0.037155118
109	0xbc8cae58	-0.017172977
110	0xbea8b458	-0.3295009
111	0x3f513285	0.8171771
112	0xbf31627a	-0.6929089
113	0xbe6f482c	-0.23367375
114	0x3f57ba85	0.8426898
115	0xbed7125b	-0.42006192
116	0x3f6b6c4e	0.91962135
117	0x3f536cba	0.8258778
118	0x3f5d6a14	0.8648999
119	0x3cc2b509	0.023767965
120	0x3f3ed473	0.7454292
121	0x3f467065	0.7751525
122	0x3f664f4d	0.89964753
123	0xbee7cfd2	-0.45275742
124	0x3f4c2266	0.7973999
125	0xbe73c1e0	-0.23804426
126	0xbf18a158	-0.5962119
127	0xbf01ec62	-0.50751317
128	0x3f4060ca	0.7514769
129	0x3f53b016	0.8269056
130	0x3f52a2f3	0.8227989
131	0x3f54a524	0.83064485
132	0x3d36a022	0.04458631
133	0x3f63adae	0.8893689
134	0xbe1fd594	-0.15608817
135	0x3f6c7c17	0.92376846
136	0xbf395d2f	-0.7240781
137	0x3f4aeaf2	0.7926475
138	0xbe8eb834	-0.2787491
139	0x3f4f116b	0.8088595
140	0x3f50e5db	0.8160073
141	0x3f615fc1	0.88036734
142	0x3f4c8cf1	0.7990256
143	0xbe43296c	-0.1905877
144	0x3f4aaff6	0.79174745
145	0xbf13ff2a	-0.57811224
146	0x3fcff669	1.6247073
147	0x3f55afee	0.8347157
148	0xbefc9c98	-0.49338222
149	0x3f3af767	0.73033756
150	0xbf068a30	-0.5255461
151	0xbeb40958	-0.3516338
152	0x3f460b8e	0.7736138
153	0x3f5b5eb6	0.8569139
154	0x3f4b3007	0.7937016
155	0x3f5baaf0	0.85807705
156	0xbe47f340	-0.19526386
157	0x3f558c8f	0.834176
158	0x3f64c64b	0.8936507
159	0x3f5465dd	0.8296793
160	0x3f506641	0.8140603
161	0x3f464fe9	0.77465683
162	0x3f52e44d	0.8237961
163	0x3f665f53	0.89989203
164	0x3f59993f	0.8499946
165	0x3f4e8f3d	0.80687314
166	0x3f68a186	0.90871465
167	0x3f57fff7	0.84374946
168	0x3cd4b28b	0.025964042
169	0xbed386da	-0.4131382
170	0x3f4de7fb	0.804321
171	0xbe6c8658	-0.23098123
172	0xbe389e73	-0.18029194
173	0xbeffb2aa	-0.49940997
174	0xbde629a2	-0.112384096
175	0x3f473734	0.7781861
176	0x3f55a825	0.83459693
177	0x3f53ed32	0.82783806
178	0x3f6a592f	0.91542333
179	0xbf083925	-0.53212196
180	0x3f5275be	0.8221091
181	0xbe90c4a2	-0.2827502
182	0x3f6120a0	0.87940407
183	0xbeb65c97	-0.35617515
184	0x3d1c7dfa	0.038206078
185	0xbecc8107	-0.3994219
186	0x3f5335b3	0.82503814
187	0xbefb90fb	-0.4913405
188	0x3f5f984b	0.87341756
189	0xbf2231de	-0.6335734
190	0x3f632f13	0.88743705
191	0xbd8d81f5	-0.06909553
192	0x3f50c576	0.815513
193	0x3f5a41d7	0.85256714
194	0x3f5d8625	0.86532813
195	0xbec210f3	-0.37903556
196	0x3f4a0263	0.7890989
197	0x3f4457a0	0.76696205
198	0x3f5615d4	0.8362706
199	0x3f43383f	0.762577
200	0xbebee113	-0.37281093
201	0xbe8d086e	-0.27545494
202	0x3f4f00a5	0.8086036
203	0x3f5acebc	0.854717
204	0x3f4c072a	0.7969843
205	0xbc240111	-0.01001002
206	0x3f655180	0.89577484
207	0x3f4b645e	0.79450023
208	0xbf03e734	-0.5152466
209	0x3f4f1a6a	0.8089968
210	0x3f50a243	0.8149759
211	0x3f502de1	0.81320006
212	0x3d2cb245	0.0421622
213	0x3f61250a	0.8794714
214	0xbe979e9f	-0.29613206
215	0x3f5c0061	0.8593808
216	0xbf0fc67b	-0.5616223
217	0x3f498a19	0.78726345
218	0x3ff3c858	1.9045515
219	0x3f59579c	0.84899306
220	0x3f421419	0.75811917
221	0xbed96ae0	-0.42464352
222	0xbeec5582	-0.46158987
223	0xbf225432	-0.6340972
224	0x3f681124	0.90651155
225	0xbf0a19f3	-0.53945845
226	0xbefbafd2	-0.49157578
227	0x3d02583b	0.031822424
228	0x3f5b18f6	0.8558496
229	0x3f5d9f5c	0.8657129
230	0xbcc3b7e1	-0.023891391
231	0x3f53b4fc	0.82698035
232	0x3f491c53	0.78558844
233	0x3f4c0c01	0.79705817
234	0xbe7c9633	-0.24666671
235	0xbf86abfc	-1.0521235
236	0x3f542d16	0.82881296
237	0xbd492f82	-0.049117573
238	0x3f57e733	0.84337157
239	0xbf1017b8	-0.5628619
240	0x3f581839	0.8441196
241	0xbe078dc3	-0.13237672
242	0x3f4a2f2f	0.78978246
243	0x3f4da48f	0.8032922
244	0x3f420237	0.7578463
245	0x3f853e6e	1.0409677
246	0xbea7cfd5	-0.3277575
247	0x3f4ce346	0.8003429
248	0x3f5bf907	0.8592686
249	0x3f51e655	0.81992084
250	0x3f518e41	0.8185769
251	0x3f5dbc46	0.8661541
252	0x3f65081a	0.89465487
253	0xbd78e0b7	-0.06076118
254	0xbec5f211	-0.38661245
255	0x3f56a395	0.83843356

fc3.weight f4 [1, 256]
0	0x3e408ea9	0.1880442
1	0x3e7a812c	0.24463338
2	0x3e23592a	0.15951982
3	0xbf6cfa96	-0.92569864
4	0xbd60eb0e	-0.054911666
5	0x3e2c286c	0.16812295
6	0x3e1f544f	0.15559505
7	0x3e14df86	0.14538392
8	0x3e393c00	0.18089294
9	0x3e07df83	0.13268857
10	0x3e6c0357	0.23048149
11	0x3e4beeba	0.19915286
12	0x3e58a4bc	0.21156591
13	0xbc9d3a73	-0.01919291
14	0xbf123993	-0.571191
15	0xbe664746	-0.22488126
16	0xbd347b55	-0.04406293
17	0xbf3333a1	-0.70000654
18	0xbf2ed11d	-0.6828783
19	0xbf40ef98	-0.7536559
20	0x3e246725	0.16054972
21	0x3e6c5f22	0.23083165
22	0x3e3db716	0.18526873
23	0x3e69c49d	0.22828908
24	0xbe303265	-0.17206724
25	0xbeac6684	-0.33671963
26	0x3e3b1214	0.18268615
27	0x3e2837ee	0.16427585
28	0xbfa5501a	-1.291507
29	0xbd08e63e	-0.0334227
30	0x3e5b7cbf	0.21434306
31	0xbc064c9f	-0.008196979
32	0xbf3285b1	-0.69735247
33	0xbf9d8f26	-1.230931
34	0xbde60784	-0.11231902
35	0xbf12cbc6	-0.57342184
36	0xbf21d525	-0.6321586
37	0xbe357f98	-0.17724454
38	0x3f0330e2	0.51246464
39	0xbfc1c12a	-1.5137074
40	0x3e53c42c	0.20680302
41	0xbf96a01a	-1.1767609
42	0xbe7bedb9	-0.24602403
43	0x3e4eb111	0.20184733
44	0x3e5a5be7	0.2132412
45	0x3e2be821	0.16787769
46	0xbf179557	-0.5921225
47	0x3e38c1c4	0.18042666
48	0x3e45ed47	0.19328795
49	0x3e2e9e3f	0.17052554
50	0x3e31af14	0.17351943
51	0x3e54bd7c	0.20775408
52	0xbf31172e	-0.69175994
53	0x3e24e5ec	0.16103333
54	0x3e4ee20a	0.20203415
55	0x3e3a0107	0.18164454
56	0xbe475056	-0.1946424
57	0x3e57e9b4	0.21085244
58	0xbf30c91d	-0.69056875
59	0xbf950ea5	-1.1645094
60	0xbd309335	-0.043109138
61	0xbec91871	-0.3927646
62	0xbfa62fab	-1.2983297
63	0xbde49b72	-0.11162461
64	0x3e36f2db	0.1786608
65	0xbf309b68	-0.6898713
66	0x3e2e909a	0.17047349
67	0x3e050162	0.12988809
68	0x3e462c79	0.19352902
69	0x3e4b8967	0.19876634
70	0x3e30e21a	0.17273751
71	0x3e47f6b6	0.19527707
72	0xbf9d1bb7	-1.2274083
73	0x3e506e37	0.20354544
74	0xbfbca21d	-1.4736973
75	0xbf814e12	-1.010195
76	0xbe633f92	-0.22192219
77	0x3e60749d	0.21919484
78	0xbf38923c	-0.72098136
79	0xbee83bca	-0.45358115
80	0xbf36a977	-0.7135233
81	0xbf06c09b	-0.5263764
82	0x3e624b9f	0.2209916
83	0x3e3f45f2	0.18679026
84	0xbca54a20	-0.020176947
85	0x3e54aefd	0.20769878
86	0xbf807db5	-1.0038363
87	0x3e674dfc	0.22588342
88	0xbecc8624	-0.3994609
89	0x3b1bfe36	0.0023802645
90	0x3e3778f9	0.17917241
91	0x3e459fa3	0.19299178
92	0x3e82ad0b	0.25522646
93	0x3e48ae73	0.19597797
94	0xbb6eac7c	-0.0036418727
95	0xbf2610a7	-0.6486916
96	0xbf6d2166	-0.92629087
97	0xbf8528d7	-1.0403088
98	0xbf02c1dd	-0.5107706
99	0x3e4d906c	0.20074624
100	0x3e60f44c	0.21968192
101	0x3e4e370d	0.20138188
102	0x3e26aa01	0.16275789
103	0xbf52776b	-0.8221347
104	0xbe860482	-0.26175314
105	0xbfa562d8	-1.292079
106	0xbf82d15e	-1.0220144
107	0x3e3862b2	0.180064
108	0xbd09cca1	-0.033642415
109	0xbc8d90ab	-0.017280897
110	0xbf35a475	-0.70954067
111	0x3e58f0f5	0.21185668
112	0xbe3676b6	-0.17818722
113	0xbf3e1b40	-0.7426033
114	0x3e52ffe7	0.20605431
115	0xbf0d759c	-0.5525758
116	0x3f8e3925	1.1111189
117	0x3e43df81	0.19128229
118	0x3e4b6d38	0.19865882
119	0xbf1eb4c1	-0.6199456
120	0x3e290c4a	0.16508594
121	0x3e3ccd61	0.18437721
122	0x3e1942ea	0.14966932
123	0xbf2c8df0	-0.6740408
124	0x3e5e00e9	0.21680035
125	0xbf30e590	-0.69100285
126	0xbe3b8925	-0.18314035
127	0xbfb59746	-1.418679
128	0x3eec6f29	0.46178558
129	0x3e44f58f	0.19234298
130	0x3e212cc4	0.15739733
131	0x3e1896ba	0.14901248
132	0xbcfc138d	-0.030771041
133	0x3e75f730	0.24020076
134	0xc009bc03	-2.1521003
135	0x3e3c3090	0.183779
136	0xbfbd5682	-1.4792025
137	0x3e458696	0.19289622
138	0xbf89ca08	-1.076478
139	0x3e4d33f6	0.20039353
140	0x3e686ad1	0.22696997
141	0x3e806e9e	0.25084394
142	0x3e6fd665	0.23421629
143	0xbf85f43e	-1.0465162
144	0x3e681049	0.22662462
145	0xbe10c526	-0.14137706
146	0x3fe00655	1.7501932
147	0x3e28999e	0.1646485
148	0xbfbc95b9	-1.4733192
149	0x3e1709bd	0.14749809
150	0xbe27e92c	-0.16397542
151	0xbfc9b42d	-1.575811
152	0x3e69ea5c	0.22843307
153	0x3e13a756	0.14419302
154	0x3e124823	0.1428533
155	0x3e05abb8	0.13053787
156	0xbf796480	-0.97418976
157	0x3e26f2fa	0.16303626
158	0x3e3bccee	0.18339893
159	0x3e51c2cf	0.2048447
160	0x3e6ccceb	0.23125045
161	0x3e3fc172	0.18726137
162	0x3e40d9ca	0.1883308
163	0x3e39ec2c	0.18156499
164	0x3e350d60	0.17680883
165	0x3e77aa8b	0.2418615
166	0x3e62422c	0.22095555
167	0x3e62a0ce	0.22131655
168	0xbc98df43	-0.018661147
169	0xbde67db4	-0.11254445
170	0x3e7c6ce6	0.24650916
171	0xbf9d24b2	-1.2276824
172	0xbf8cea82	-1.1009066
173	0xbe24a7d0	-0.1607964
174	0xbf9cb72a	-1.2243397
175	0x3e5f312c	0.21796101
176	0x3e5380e5	0.20654638
177	0x3e3fba09	0.1872331
178	0x3e9a7d8c	0.3017391
179	0xbf7cc7b0	-0.987422
180	0x3e49fe3b	0.19725887
181	0xbf7d8b6e	-0.9904088
182	0x3e3f6869	0.18692173
183	0xbfa69425	-1.301396
184	0xbd4822f2	-0.04886145
185	0xbfa8e40b	-1.3194593
186	0x3e49e831	0.1971748
187	0xbff04ec3	-1.8774036
188	0x3e46c368	0.19410479
189	0xbe5a8d68	-0.21343005
190	0x3e939a3e	0.28828615
191	0xbc65581c	-0.013998058
192	0x3e3d2b62	0.1847358
193	0x3e685146	0.22687253
194	0x3e63371a	0.22188988
195	0xbed20aa5	-0.41023746
196	0x3e6fa7b1	0.23403813
197	0x3e25cf0e	0.16192266
198	0x3e1b9de0	0.15196943
199	0x3e398ed2	0.18120888
200	0xbecd63c1	-0.4011517
201	0xbf96b295	-1.1773249
202	0x3e38ed93	0.18059377
203	0x3e1732f8	0.14765537
204	0x3e26b8a6	0.16281375
205	0xbcfe3189	-0.03102948
206	0x3e938398	0.28811336
207	0x3e13e200	0.14441681
208	0xbf15a6aa	-0.58457434
209	0x3e431a37	0.19052969
210	0x3e67b501	0.22627641
211	0x3e29b065	0.16571195
212	0xbc98b507	-0.018641008
213	0x3e3cfa4d	0.18454857
214	0xbf8ba883	-1.0910801
215	0x3e69ecea	0.22844282
216	0xbee44947	-0.44587156
217	0x3e4c4b61	0.1995063
218	0x40166722	2.3500447
219	0x3e558bb8	0.2085408
220	0x3e2fb4f7	0.17158876
221	0xc02d87d4	-2.7114153
222	0xbfad7d07	-1.355378
223	0xbfb61aa7	-1.4226884
224	0x3e59ef10	0.21282601
225	0xbf205bfe	-0.6264037
226	0xbf3e00c4	-0.7421992
227	0xbf4aa7dc	-0.79162383
228	0x3e8f07e5	0.2793571
229	0x3e096f3b	0.13421337
230	0x3920bb69	0.00015328605
231	0x3e46b056	0.19403204
232	0x3e568b5f	0.20951603
233	0x3e625dd6	0.22106108
234	0xbfa19ae0	-1.2625389
235	0x3f477a47	0.77920955
236	0x3e3c26ab	0.18374126
237	0xbd1b411b	-0.037903886
238	0x3e7d944a	0.24763599
239	0xbe852b46	-0.26009578
240	0x3e1ebf17	0.15502582
241	0xbf4a812e	-0.7910336
242	0x3e3b64aa	0.18300119
243	0x3e7935c3	0.24336915
244	0x3e4db06e	0.20086834
245	0x3f5ed553	0.87044257
246	0xbf7ead47	-0.9948315
247	0x3e429a79	0.19004239
248	0x3e4ed82d	0.20199652
249	0x3e15a624	0.14614159
250	0x3e35d9ed	0.17758913
251	0x3e872ad5	0.26399866
252	0x3e600e26	0.21880397
253	0xbd66664e	-0.05624991
254	0xbe53b522	-0.20674565
255	0x3e210161	0.15723182

fc1.weight f4 [256, 23]
0	0x3faad185	1.334519
1	0xbc6435f2	-0.013928877
2	0x3d7f416c	0.06231825
3	0xba9d8c2c	-0.0012019924
4	0x3d7c18d6	0.061547123
5	0xbd0663b1	-0.032809917
6	0x3e94ffad	0.29101315
7	0xbe5cd0e2	-0.21564057
8	0x3e8d5326	0.276025
9	0x3ead60fb	0.33863053
10	0xbd907770	-0.07054031
11	0xbe2e4b3a	-0.17020884
12	0x3e361c89	0.17784323
13	0x3d866e2a	0.06563981
14	0xbddb143b	-0.10697218
15	0x3dc38b87	0.09548097
16	0xbcdfb60f	-0.027308492
17	0x3e42b28a	0.1901342
18	0x3e04ff53	0.12988023
19	0x3d100d84	0.03516914
20	0xba75ada3	-0.0009371882
21	0xbdc77e7e	-0.09740923
22	0x3db40a3d	0.08791015
23	0x3e5ce9c1	0.21573545
24	0xbedeb3aa	-0.43496448
25	0x3e796d93	0.24358205
26	0xbd1377fa	-0.03600309
27	0x3d2e7c10	0.042598784
28	0x3e005b12	0.1253474
29	0x3b65fdc6	0.0035093888
30	0x3e0bede8	0.13664973
31	0x3e481eda	0.19543019
32	0x3e8e862a	0.27836734
33	0x3df0f44a	0.117653444
34	0x3da7830b	0.08179291
35	0x3d4422c4	0.047884718
36	0xbb4cfde2	-0.0031279256
37	0x3c0dd567	0.008656836
38	0x3d14c7a8	0.03632322
39	0xbcfd54fe	-0.030924316
40	0xbc5b6733	-0.013391304
41	0xbdd3b504	-0.1033726
42	0xbda9d3ae	-0.08292328
43	0xbe85622b	-0.2605146
44	0xbe31db71	-0.17368867
45	0x3a777c25	0.0009440801
46	0xbf383741	-0.7195931
47	0xbe80dfad	-0.2517065
48	0x3eb57dd2	0.35447556
49	0xbe03ddb8	-0.12877548
50	0xbdfae6e9	-0.12251074
51	0x3e14e847	0.14541732
52	0xbe0915f2	-0.13387278
53	0x3e145c17	0.14488254
54	0x3e111585	0.14168365
55	0xbbf13c73	-0.0073619424
56	0x3d4af29d	0.04954778
57	0x3e6250c7	0.22101127
58	0xbc959e46	-0.018263947
59	0xbde039bf	-0.10948514
60	0x3bb41857	0.0054960656
61	0x3bc35b29	0.005961795
62	0xbd6bd1e8	-0.05757323
63	0xbda51361	-0.08060337
64	0x3e4d7254	0.20063144
65	0xbdd93e61	-0.10607601
66	0x3d309cfd	0.043118466
67	0xbea0bdcc	-0.31394804
68	0xbe4e445d	-0.20143266
69	0x3eee7242	0.46571547
70	0xbda9c972	-0.08290376
71	0x3ea95872	0.3307529
72	0x3f2a2f8e	0.6647881
73	0x3e6285f2	0.22121409
74	0xbee31a6b	-0.44356093
75	0xbdb6aafe	-0.08919333
76	0xbe62157d	-0.2207851
77	0xbd8b9a5e	-0.068165526
78	0xbc43c987	-0.011949903
79	0x3d3fcb7b	0.046824913
80	0xbd670dfb	-0.056409817
81	0x3d9ab997	0.0755493
82	0xbde4d4c1	-0.11173392
83	0xbd933a98	-0.0718891
84	0xbd86c680	-0.065808296
85	0xbd94d19d	-0.07266543
86	0xbd196e40	-0.03745866
87	0x3e1be6e1	0.15224792
88	0xbc342ed3	-0.010997492
89	0xbe958488	-0.29202676
90	0xbdc5b1a1	-0.09653021
91	0xbd99f682	-0.07517721
92	0xbec8c693	-0.39214
93	0x3ecf778f	0.40520903
94	0x3f35c8cc	0.71009517
95	0x3e321c51	0.17393614
96	0xbda779b5	-0.08177511
97	0x3dca711b	0.098848544
98	0x3dedf09c	0.11618158
99	0x3d845d52	0.06463112
100	0x3dd10c57	0.10207432
101	0x3e8bbec1	0.2729397
102	0x3ef9ea90	0.4881177
103	0x3c8c79d6	0.01714794
104	0x3c3dddd8	0.011588536
105	0x3cec48c5	0.028843293
106	0x3dabb589	0.083842345
107	0x3dcb41ad	0.09924636
108	0x3d31454c	0.043278977
109	0xbd10eb27	-0.03538051
110	0xbe6f2631	-0.23354413
111	0x3e607c14	0.21922332
112	0x3f2c9382	0.6741258
113	0x3f042e44	0.51633096
114	0x3def49d3	0.11684003
115	0xbf139025	-0.5764182
116	0x3e1439f2	0.1447523
117	0xbf086b34	-0.5328858
118	0xbe8552dc	-0.2603978
119	0xbe77342e	-0.24140999
120	0x3f7f2228	0.99661493
121	0x3ea25b2f	0.31710193
122	0xbcc86e58	-0.024466679
123	0x3d0df36f	0.034655984
124	0x3e8e920a	0.27845794
125	0xbe8ec221	-0.27882484
126	0xbdaa9647	-0.083294444
127	0xbcfa4e98	-0.030555055
128	0x3d5de457	0.05417284
129	0xbd88d7b8	-0.0668177
130	0xbce689b8	-0.028141841
131	0xbc76fbc2	-0.015074672
132	0x3f255eba	0.64597666
133	0xbd5d6cd5	-0.05405887
134	0x3e252e30	0.161309
135	0xbe4f4c5d	-0.20243974
136	0xbe9dc53f	-0.3081455
137	0xbeaaae03	-0.33335885
138	0x3edde5e7	0.43339464
139	0x3f6a3608	0.91488695
140	0x3e734fb9	0.2376088
141	0x3f321bc3	0.6957361
142	0x3e942dbb	0.2894114
143	0x3e8f1dab	0.27952322
144	0xbf17499b	-0.5909669
145	0xbf2ccf08	-0.67503405
146	0xbe39a148	-0.1812793
147	0xbef7013d	-0.48243132
148	0xbd8c9dd1	-0.068660386
149	0x3c3f92dd	0.01169273
150	0xbe15d3fd	-0.14631648
151	0x3cc900c7	0.024536503
152	0xbdfde94d	-0.12398014
153	0xbb77f847	-0.0037837194
154	0xbdfa3230	-0.12216604
155	0x3ea56063	0.323001
156	0x3ed01c03	0.4064637
157	0xbd95675e	-0.07295106
158	0xbd3d020d	-0.046144534
159	0xbd22c469	-0.039738093
160	0x3e8b3c3a	0.27194387
161	0x3f349f2a	0.70555365
162	0x3decfd03	0.11571696
163	0x3da2231e	0.07916854
164	0x3eaab59a	0.33341676
165	0x3d64350b	0.05571465
166	0xbf80e5fb	-1.0070184
167	0xbceeb784	-0.029140241
168	0x3e438e64	0.19097286
169	0xbd86a4a4	-0.065743715
170	0x3f55895f	0.83412737
171	0x3e17eb95	0.14835961
172	0x3da5acea	0.08089621
173	0xbd5e547d	-0.054279793
174	0xbd2c0de3	-0.04200543
175	0x3e1ba415	0.15199311
176	0x3df4a965	0.11946372
177	0xbd1b2eb8	-0.03788635
178	0x3e7d1b2a	0.24717394
179	0x3ef3589d	0.47528544
180	0x3f37cc0f	0.71795744
181	0xbecc7698	-0.3993423
182	0xbe3af6bd	-0.18258186
183	0xbe44e4ba	-0.19227877
184	0x3f82c4f4	1.0216355
185	0xbf0ec65a	-0.5577141
186	0x3e7bdb4c	0.24595374
187	0x3dbeefa5	0.09323052
188	0x3e3276bb	0.17428105
189	0xbe354ba1	-0.17704631
190	0xbe481b2c	-0.19541615
191	0x3da2c31e	0.07947372
192	0x3e86a84b	0.26300272
193	0x3ea3a936	0.31965035
194	0xbdf59bdb	-0.11992618
195	0x3caba67f	0.020953415
196	0xbcbe3e86	-0.023223173
197	0x3e020527	0.12697278
198	0x3d4ee6e3	0.05051316
199	0x3da86ac2	0.082234874
200	0xbdc3aec2	-0.09554817
201	0xbe004952	-0.1252797
202	0x3dca719a	0.09884949
203	0x3d668985	0.056283493
204	0x3d54ec4a	0.051983155
205	0x3e766242	0.2406092
206	0xbdc073a7	-0.09397059
207	0xbf6f2afe	-0.93424976
208	0xbdab043f	-0.08350419
209	0x3e23f26a	0.16010442
210	0xbe132c59	-0.14372386
211	0x3e05cc7c	0.13066286
212	0xbf4dbebd	-0.8036917
213	0x3c47016d	0.012146336
214	0x3de6c19f	0.11267399
215	0x3e3e035b	0.18555968
216	0xbe25723b	-0.16156857
217	0xbe3aaa67	-0.18229066
218	0xbc4c6009	-0.012474068
219	0xbe094bbf	-0.13407801
220	0xbda95c46	-0.08269553
221	0xbe2e8766	-0.17043838
222	0x3cdecc21	0.027196946
223	0x3d1cdee4	0.038298503
224	0xbe69b9cf	-0.22824787
225	0x3e0828c4	0.13296801
226	0xbe8c2853	-0.27374515
227	0x3e502da2	0.20329908
228	0x3cd43de7	0.025908424
229	0x3e95aa3f	0.2923145
230	0x3f0a938e	0.541314
231	0xbeedc530	-0.46439505
232	0xbdae6621	-0.08515573
233	0x3de0fd48	0.109858096
234	0x3e2f9e1d	0.17150159
235	0xbe9089d6	-0.2823016
236	0x3dd538e7	0.10411244
237	0xbc23f701	-0.010007621
238	0x3e809764	0.25115502
239	0x3e9ab4b6	0.30215997
240	0xbe1d95ee	-0.15389225
241	0xbdbf0147	-0.093264155
242	0xbc337a21	-0.010954411
243	0x3d7238f6	0.059136353
244	0x3c5d6500	0.01351285
245	0xbd489ae0	-0.048975825
246	0x3d99dc20	0.07512689
247	0x3e1faf22	0.15594152
248	0x3e83f5a7	0.25773355
249	0x3e6e2c2b	0.23259036
250	0xbd87ed0a	-0.066370085
251	0xbdbe426b	-0.09290012
252	0x3e492281	0.19642068
253	0x3fd9014d	1.6953522
254	0xbf5806cb	-0.84385365
255	0x3eb0a57c	0.34501255

fc1.bias f4 [256]
0	0x3f059800	0.5218506
1	0x3f87b31a	1.0601532
2	0x3f459ab1	0.77189165
3	0x3f7944e7	0.9737076
4	0x3f6ab5ae	0.9168347
5	0x3f2991c9	0.66238075
6	0xbeab236b	-0.3342546
7	0x3f062613	0.52401847
8	0x3f0f6663	0.56015605
9	0x3f516e7b	0.81809205
10	0x3f3463cb	0.7046477
11	0x3e912c00	0.28353882
12	0xbee606f2	-0.44927174
13	0x3ee618b5	0.44940725
14	0xbf199c32	-0.6000396
15	0x3f420c4a	0.758
16	0x3ed44906	0.41461962
17	0x3f802e57	1.0014142
18	0x3f1768e0	0.591444
19	0x3f7d322a	0.9890467
20	0xbf2cded5	-0.67527515
21	0x3f25e180	0.6479721
22	0x3f54438c	0.8291557
23	0x3f89cad3	1.0765022
24	0x3f349117	0.7053389
25	0x3f6858bc	0.907604
26	0x3f57d5aa	0.843104
27	0x3f680a3f	0.90640634
28	0xbeec2c3b	-0.46127495
29	0xbed8f900	-0.42377472
30	0x3f993f8f	1.1972522
31	0x3f642269	0.89115006
32	0x3f64cb0a	0.89372313
33	0x3f619560	0.88118553
34	0x3f708ae8	0.93961954
35	0x3f45422d	0.770541
36	0xbf0fd2f4	-0.56181264
37	0xbf5099c4	-0.8148463
38	0xbeef7ba6	-0.46774024
39	0x3f1a2afe	0.6022185
40	0x3f6588f7	0.89662117
41	0xbf097418	-0.5369277
42	0x3f50ab3f	0.815113
43	0xbf3dd967	-0.74159855
44	0xbf234d5a	-0.63789904
45	0x3f2e7096	0.6814054
46	0xbec21d90	-0.3791318
47	0x3f63dce6	0.8900894
48	0x3f858e69	1.0434085
49	0xbeff609a	-0.4987839
50	0x3f50fc94	0.81635404
51	0x3f727f7f	0.94725794
52	0x3f4906e9	0.7852617
53	0xbf133605	-0.575043
54	0x3f8c1519	1.0943938
55	0x3f0bd170	0.5461645
56	0xbee9abfa	-0.4563902
57	0xbf005c4f	-0.5014085
58	0xbebba76a	-0.36651164
59	0xbf03d1cf	-0.5149202
60	0x3fb465e9	1.40936
61	0xbf336750	-0.7007952
62	0x3f78d601	0.97201544
63	0x3f46ec44	0.7770426
64	0xbf522aae	-0.82096374
65	0xbf243db0	-0.6415663
66	0x3f2ef0e7	0.6833634
67	0xbf1b8970	-0.6075659
68	0x3f47b9ce	0.7801789
69	0xbf1b7698	-0.60727835
70	0x3f7cfba8	0.98821497
71	0xbf0133d6	-0.5046972
72	0xbe40a239	-0.18811883
73	0xbf10a913	-0.56507987
74	0xbf33536f	-0.70049185
75	0x3fa15058	1.2602644
76	0x3eab4b75	0.33456007
77	0x3f72af2e	0.94798553
78	0x3f44c9de	0.76870525
79	0xbf255fe2	-0.6459943
80	0x3f558879	0.83411366
81	0x3f54dfb1	0.83153826
82	0x3f61e5f4	0.88241506
83	0xbebdbf2b	-0.37059912
84	0x3ed8d587	0.42350408
85	0xbeb90b04	-0.36141217
86	0x3f6600cf	0.89844984
87	0x3f8a767f	1.0817412
88	0xbeaaf8cd	-0.33392945
89	0x3f5f5667	0.87241215
90	0x3f8cd354	1.1001992
91	0xbf194c21	-0.5988179
92	0x3f742e7f	0.9538345
93	0x3f5536c2	0.8328668
94	0x3f70fa74	0.9413216
95	0xbef2a8e5	-0.4739448
96	0xbf290b8b	-0.6603324
97	0x3f7ccc8a	0.987496
98	0xbf030fe1	-0.51196104
99	0x3f5d8c98	0.86542654
100	0x3ecfc3dc	0.40579116
101	0x3f449e5c	0.7680414
102	0xbf1c7175	-0.6111062
103	0xbf0f7044	-0.5603068
104	0xbf1409db	-0.5782754
105	0x3f1ae6e9	0.6050859
106	0x3f016a33	0.5055267
107	0x3eb55098	0.3541305
108	0xbe997896	-0.29974812
109	0x3f537ffb	0.8261716
110	0x3f9209a8	1.1409197
111	0xbf126e69	-0.5719972
112	0xbef98caf	-0.48740146
113	0xbf36b4c5	-0.7136958
114	0x3f8713a6	1.0552871
115	0x3f5d7478	0.8650584
116	0xbeecc337	-0.46242687
117	0xbf0acb96	-0.542169
118	0x3f609aed	0.877364
119	0xbeb27083	-0.34851465
120	0xbef97924	-0.48725235
121	0x3f4e84b4	0.8067124
122	0x3f621733	0.8831665
123	0xbf085658	-0.5325675
124	0x3f69221b	0.91067666
125	0xbf2ac409	-0.66705376
126	0xbea88e8c	-0.32921255
127	0x3f6e9e1f	0.93210024
128	0x3f63be61	0.8896237
129	0x3f82c041	1.0214921
130	0x3f47273e	0.77794254
131	0x3f5adc7d	0.8549269
132	0xbf1bdd27	-0.60884327
133	0x3f9b3a8a	1.212724
134	0xbf2a6a0e	-0.66568077
135	0x3f074046	0.5283245
136	0x3f7d5dba	0.9897114
137	0x3f81e2e9	1.0147372
138	0xbee72aec	-0.45149934
139	0xbf07eebb	-0.5309865
140	0x3f964414	1.1739526
141	0x3f4a13d4	0.78936505
142	0x3efde03b	0.49585137
143	0xbf1dc247	-0.6162457
144	0x3f3999e7	0.7250046
145	0xbeda3085	-0.42615142
146	0xbf47acfc	-0.7799833
147	0x3f2f6382	0.6851121
148	0x3f998f45	1.1996847
149	0x3f66a573	0.90096205
150	0xbec5193e	-0.3849582
151	0xbef8c382	-0.4858666
152	0xbf2653bb	-0.6497151
153	0x3f7cb34a	0.98711073
154	0xbf0c5ac3	-0.5482599
155	0x3f24bc7c	0.64350104
156	0xbf068287	-0.5254292
157	0x3f775afd	0.9662321
158	0xbed66a97	-0.41878197
159	0x3f3e68df	0.7437877
160	0x3f2a547d	0.6653517
161	0x3f76953f	0.9632148
162	0x3f74a33d	0.9556158
163	0xbf1b7586	-0.607262
164	0xbe65cb94	-0.2244094
165	0xbedfe6a5	-0.43730655
166	0x3f84e566	1.0382507
167	0xbf35f71e	-0.71080196
168	0xbed150d9	-0.40881994
169	0x3edf174c	0.43572462
170	0x3f139fd3	0.5766575
171	0xbf344389	-0.7041555
172	0x3f650876	0.89466035
173	0x3f79b464	0.9754088
174	0xbf1e8995	-0.61928684
175	0xbea26f5d	-0.31725588
176	0xbe97ce68	-0.29649663
177	0xbf24f6b2	-0.6443893
178	0xbefeb12c	-0.49744546
179	0x3f7e9a15	0.9945386
180	0x3f76d099	0.96412045
181	0x3f7aff44	0.98045754
182	0xbf0bc7ba	-0.54601634
183	0xbecda0e5	-0.40161815
184	0x3ec8d394	0.3922392
185	0x3f493964	0.78603196
186	0x3f1ffad0	0.62492085
187	0x3f347459	0.7049003
188	0x3f0b1463	0.5432798
189	0xbf1c072f	-0.6094846
190	0xbf0630d8	-0.5241828
191	0x3fc60d1b	1.547275
192	0x3f55932d	0.834277
193	0xbf1b0f70	-0.6057043
194	0x3efd1cb1	0.49435952
195	0x3f0729bb	0.5279805
196	0x3f194252	0.5986682
197	0x3f6fd18e	0.9367913
198	0xbf19af6f	-0.60033315
199	0x3f37a1e8	0.71731424
200	0x3f78bb77	0.9716105
201	0x3f22a81f	0.6353778
202	0x3edc9102	0.43079382
203	0x3f369cdc	0.713331
204	0xbf172418	-0.5903945
205	0xbf1d513d	-0.61452085
206	0x3f14ffd4	0.5820286
207	0xbef181ea	-0.4716943
208	0x3f125c8e	0.5717248
209	0xbf5c3bd8	-0.86028814
210	0x3fa5be8d	1.2948776
211	0xbf0fd2bb	-0.56180924
212	0x3eeed811	0.4664922
213	0x3efaf6d3	0.49016437
214	0x3e9ea34d	0.30983964
215	0xbf426dc8	-0.7594876
216	0xbea8e9c8	-0.3299086
217	0x3f29c1ff	0.6631164
218	0x3f6deb28	0.92936945
219	0x3f2543c7	0.64556545
220	0x3f59c0de	0.85059917
221	0xbf21ba6d	-0.6317509
222	0xbda9a81b	-0.08284017
223	0x3f047017	0.51733536
224	0x3f7e9fee	0.99462783
225	0x3f9fecd9	1.2494155
226	0xbdd42178	-0.10357946
227	0xbecfd879	-0.40594843
228	0x3de482aa	0.11157735
229	0xbf23a195	-0.6391843
230	0x3f21301a	0.6296402
231	0x3f8818ef	1.0632609
232	0xbf272dc9	-0.6530424
233	0x3e25b804	0.16183478
234	0x3f8219ad	1.0164086
235	0x3f8d316f	1.1030711
236	0xbeae836f	-0.3408465
237	0xbee4b848	-0.44671845
238	0xbeb0abcf	-0.3450608
239	0x3f0bcdd1	0.54610926
240	0xbe8445ae	-0.2583441
241	0x3f1125ef	0.5669851
242	0x3ee6b59b	0.4506043
243	0x3f0d1632	0.5511199
244	0xbecbd684	-0.398121
245	0x3ed13200	0.4085846
246	0xbf222703	-0.6334078
247	0xbece2abf	-0.40266988
248	0x3f246ab8	0.6422534
249	0xbec20470	-0.3789401
250	0x3f11e1e8	0.5698533
251	0x3f843678	1.0329123
252	0x3f577711	0.84166056
253	0x3f6e00d7	0.9297003
254	0x3f37799a	0.71669924
255	0xbf180515	-0.59382755
