model_save/bc_q/bc_q40000.pt (torch, 581121 bytes, 10 tensors)

fc1.weight f4 [256, 23]
0	0xbee830b1	-0.4534965
1	0x3f5df609	0.86703545
2	0xbccbbd76	-0.024870615
3	0x3e17f49e	0.14839408
4	0xbca529c7	-0.020161523
5	0x3e9063b0	0.28201056
6	0xbeaf8664	-0.3428222
7	0x3d70904d	0.058731366
8	0xbe0bbc2a	-0.13645998
9	0x3dc4fd49	0.09618623
10	0x3ee05bf4	0.43820155
11	0x3d2bc3e3	0.04193486
12	0x3dbf2c18	0.09334582
13	0xbe0e3dfb	-0.13890831
14	0x3db5beee	0.088743076
15	0xbdb2a80a	-0.08723457
16	0x3cc1162d	0.023570145
17	0x3d86477d	0.06556604
18	0xbd8edc6b	-0.06975635
19	0x3b35fd28	0.00277693
20	0x3e58a309	0.21155943
21	0xbe9127b2	-0.28350598
22	0x3defd7d2	0.11711086
23	0x3e0ac7c8	0.13552773
24	0x3cc512d3	0.024056828
25	0x3ec7a206	0.38990802
26	0x3d80f554	0.062967926
27	0x3e6c6051	0.23083617
28	0xbe4f93fd	-0.20271297
29	0xbe58f001	-0.21185304
30	0xbdffc990	-0.12489617
31	0x3e4e8191	0.20166613
32	0x3e269656	0.16268286
33	0xbd3fbec4	-0.046812788
34	0xbd61fd3f	-0.055173155
35	0x3df8e768	0.12153512
36	0x3cc654c2	0.024210338
37	0xbe1b6a83	-0.1517735
38	0x3e63e88b	0.22256677
39	0xbdc2b6d1	-0.09507526
40	0xbdacf674	-0.08445445
41	0xbe5b5e31	-0.2142265
42	0xbe3f4a55	-0.18680699
43	0xbdca901a	-0.098907664
44	0x3dc577d9	0.09642
45	0xbe2a8fe1	-0.16656448
46	0x3e83f3a8	0.25771832
47	0x3e798776	0.2436808
48	0xbcf1b273	-0.029504037
49	0x3daacd55	0.08339945
50	0x3e9b2778	0.3030355
51	0x3ead321b	0.3382729
52	0x3bf6961f	0.00752522
53	0xbd1c2e8d	-0.03813033
54	0x3e0ca8f9	0.13736333
55	0xbe1940f0	-0.14966178
56	0x3e10576e	0.14095852
57	0xbdbefc99	-0.09325523
58	0xbde89a33	-0.11357536
59	0xbda13e2b	-0.07873186
60	0xbc59cf16	-0.013294002
61	0xbe299205	-0.16559608
62	0xbe08e146	-0.13367185
63	0xbeb9d9ad	-0.36298886
64	0x3d5d0aeb	0.05396549
65	0xbebdf067	-0.37097475
66	0x3ec693d2	0.38784653
67	0x3e81f19c	0.25379646
68	0x3c6e9089	0.014560827
69	0xbf191483	-0.59796923
70	0x3d36388f	0.044487532
71	0xbc815079	-0.015785443
72	0xbeebceac	-0.46056116
73	0xbd0a1875	-0.03371473
74	0xbca3d657	-0.019999666
75	0xbd8c7909	-0.06859023
76	0x3e645dc2	0.22301391
77	0x3e465a11	0.19370295
78	0xbe915f93	-0.2839323
79	0xbe5a0109	-0.21289457
80	0x3e2b7636	0.16744313
81	0xbd9ccd62	-0.07656361
82	0x3dda65cb	0.10663947
83	0xbbd83f8f	-0.0065993736
84	0x3e1990dd	0.14996667
85	0xbc0e86b9	-0.008699113
86	0xbd1f4a42	-0.038889177
87	0x3e1c1b05	0.15244682
88	0xbdbf3f6c	-0.09338269
89	0x3e975cad	0.29562894
90	0x3de9f27a	0.11423202
91	0x3dfb77b9	0.12278695
92	0xbf0208e7	-0.50794834
93	0x3e396cc8	0.18107903
94	0x3ee5c19c	0.44874275
95	0x3df34250	0.118778825
96	0xbe892000	-0.26782227
97	0xbe8c096d	-0.2735094
98	0xbf9e82a7	-1.2383622
99	0xbf13f106	-0.5778965
100	0x3d14ed96	0.036359392
101	0x3e22fbb4	0.1591633
102	0x3e8e95cb	0.27848658
103	0x3dfad9be	0.12248562
104	0xbc1a0b7c	-0.009402152
105	0x3d612711	0.054968897
106	0xbe0c5693	-0.137049
107	0xbe3f46f4	-0.1867941
108	0x3ddb2d2d	0.10701976
109	0x3eb0e41b	0.3454903
110	0x3f5412b3	0.8284103
111	0x3e573fe1	0.21020462
112	0xbe168204	-0.14698035
113	0xbedc5c7c	-0.4303931
114	0x3e117273	0.14203815
115	0xbe06b27d	-0.13154025
116	0xbe73d060	-0.23809958
117	0x3e303993	0.17209463
118	0xbe219380	-0.15778923
119	0x3d20aa06	0.039224647
120	0xbd9f8572	-0.077891245
121	0xbe4d9f5a	-0.20080319
122	0x3e101fba	0.14074603
123	0x3e8ae3f6	0.27127045
124	0x3e5085f4	0.20363599
125	0x3d09a3b3	0.03360338
126	0x3e08ba96	0.13352427
127	0xbbe53d57	-0.0069958377
128	0xbe0fe438	-0.14051902
129	0x3d992d14	0.07479301
130	0xbbc67a0b	-0.006057029
131	0xbd4d2988	-0.050088435
132	0x3e73d631	0.23812176
133	0xbd26059b	-0.04053269
134	0xbe35d28a	-0.17756096
135	0xbe0a1db4	-0.13487893
136	0x3e53121c	0.20612377
137	0xbe1a2144	-0.15051752
138	0x3c51b5c4	0.012799684
139	0xbe29a690	-0.16567445
140	0xbeb145b7	-0.346235
141	0xbe84df62	-0.25951678
142	0x3e487d06	0.19578943
143	0x3ed5cc90	0.4175763
144	0xbe03036a	-0.12794271
145	0xbe154d20	-0.14580202
146	0x3e5caa18	0.2154926
147	0xbd6b3ac9	-0.05742911
148	0xbe39e672	-0.18154314
149	0xbda817d8	-0.08207673
150	0xbd6872fe	-0.05675029
151	0x3dd610ce	0.10452424
152	0xbe16b417	-0.14717136
153	0xbdff04c7	-0.12452083
154	0x3cbf9080	0.023384333
155	0x3de00394	0.109381825
156	0x3c457e77	0.012054077
157	0xbd15848d	-0.036503363
158	0xbe97c309	-0.29640988
159	0xbd760247	-0.060060766
160	0x3dafe11b	0.08587857
161	0xbc9ea07b	-0.019363632
162	0xbd35f2aa	-0.044420876
163	0xbe2676a4	-0.16256195
164	0xbeb803ba	-0.35940343
165	0xbf0d8b46	-0.5529064
166	0xbe9a2cc5	-0.3011228
167	0xbf36168d	-0.7112816
168	0xbf43fc40	-0.7655678
169	0xbe28dafd	-0.16489787
170	0x3e352130	0.17688441
171	0xbd7ad4e7	-0.061238196
172	0x3dbef69d	0.093243815
173	0xbd079c60	-0.033108115
174	0xbe585ace	-0.21128389
175	0xbe46cc9d	-0.19413991
176	0xbd8cfba7	-0.068839364
177	0x3a149edf	0.00056694256
178	0x3e31965b	0.17342512
179	0x3ecbafef	0.39782664
180	0x3f10d845	0.5658
181	0xbe1f946d	-0.15583964
182	0xbe77f662	-0.24215081
183	0xbe070853	-0.13186769
184	0x3f0c60f2	0.54835427
185	0x3f11cf9f	0.5695743
186	0xbdd3ebff	-0.10347747
187	0x3dfa6c23	0.12227657
188	0xbee0f4bc	-0.43936718
189	0x3e778795	0.24172814
190	0x3c9d8c41	0.019231917
191	0x3eb29665	0.34880367
192	0xbe179be6	-0.14805564
193	0x3cba7212	0.022759471
194	0x3e77de42	0.24205878
195	0x3ddde71a	0.10835095
196	0xbe5d3b21	-0.21604587
197	0xbe0ea235	-0.13929065
198	0xbe3f6586	-0.18691072
199	0x3de5f890	0.1122905
200	0x3e5dcaaf	0.21659349
201	0xbd5de137	-0.05416986
202	0xbdc8c24e	-0.09802686
203	0xbe4ed109	-0.20196928
204	0x3cef39ad	0.029202307
205	0xbdaba865	-0.08381728
206	0x3e329546	0.17439756
207	0x3d865e56	0.06560962
208	0xbc187cf0	-0.009307131
209	0x3e897eb3	0.26854476
210	0x3dc8796a	0.09788783
211	0x3e684450	0.22682309
212	0xbdbbc321	-0.09168077
213	0x3da6064a	0.08106668
214	0x3b07b7a4	0.0020708824
215	0x3e41d721	0.18929721
216	0x3df7d7b3	0.12101688
217	0xbe592234	-0.21204454
218	0xbbb96eda	-0.0056589665
219	0xbc41d39a	-0.011830235
220	0x3df361ee	0.11883913
221	0x3daab4b6	0.08335249
222	0xbbca761a	-0.0061786296
223	0xbde14de4	-0.110011846
224	0x3dfbfa1e	0.123035654
225	0x3dae1460	0.0849998
226	0x3e09b2a9	0.1344706
227	0xbe755493	-0.23958044
228	0x3e2f16c6	0.17098531
229	0xbe33ca93	-0.17557745
230	0xbf2dc5ff	-0.67880243
231	0x3f930a32	1.1487486
232	0x3e126d64	0.14299542
233	0xbdb611a0	-0.088900805
234	0x3e1e51ca	0.15460888
235	0x3e3101e8	0.17285883
236	0xbed5d5b1	-0.41764596
237	0x3dc52d75	0.09627811
238	0xbe263e44	-0.1623469
239	0x3d8028db	0.062577926
240	0x3c8a1ed1	0.016860398
241	0x3b18632c	0.002325247
242	0x3db3c650	0.087780595
243	0x3c69d2df	0.014271467
244	0x3e41cc1a	0.18925515
245	0x3d436ce2	0.04771126
246	0x3e1af3af	0.1513202
247	0xbda53ea8	-0.08068591
248	0xbdb82d07	-0.08992963
249	0x3e3f232a	0.18665758
250	0x3ddc330f	0.10751926
251	0x3e95567b	0.29167542
252	0xbe09985d	-0.13437028
253	0x3ee75776	0.45183915
254	0xbe1c7f06	-0.1528283
255	0x3e9641b8	0.29347014

fc1.bias f4 [256]
0	0xbe179d47	-0.1480609
1	0x3f386985	0.7203601
2	0x3f08e1c1	0.53469473
3	0x3f020cec	0.5080097
4	0x3e89ccac	0.26913965
5	0x3ef74a33	0.48298797
6	0x3e97ba6e	0.29634422
7	0x3eba9e7a	0.36449033
8	0xbeed0456	-0.4629237
9	0x3f20aa85	0.6276019
10	0xbe398c75	-0.18119986
11	0x3f024505	0.50886565
12	0x3ebde79a	0.3709076
13	0x3ea70b5b	0.3262585
14	0x3f660e6c	0.89865756
15	0x3f54494d	0.8292435
16	0xbf256030	-0.64599895
17	0x3f51f117	0.820085
18	0xbf063bc2	-0.52434933
19	0x3e999e34	0.30003512
20	0x3ef21538	0.47281814
21	0x3f0e2f99	0.5554138
22	0x3f26a3eb	0.6509387
23	0x3ee47fa7	0.4462864
24	0xbeb90360	-0.36135387
25	0x3f1d7777	0.61510414
26	0x3f44fe9e	0.76951015
27	0xbe55b203	-0.20868687
28	0xbf02ddd3	-0.51119727
29	0xbee4c336	-0.44680184
30	0xbed14a9a	-0.4087723
31	0x3e6aebc9	0.22941507
32	0x3ee6eb17	0.45101234
33	0xbe982ad5	-0.29720178
34	0x3f8859f1	1.0652448
35	0xbed81d9f	-0.422101
36	0xbedf82e6	-0.43654555
37	0x3d4e9ea9	0.05044428
38	0x3efc3fea	0.49267513
39	0xbee019a1	-0.43769553
40	0x3f52905e	0.82251537
41	0x3f0eaa3a	0.55728495
42	0x3f3ed532	0.7454406
43	0xbf098d7d	-0.5373152
44	0x3f44b7bc	0.76842856
45	0x3f872376	1.0557697
46	0xbe8ba691	-0.27275518
47	0x3f40a1cc	0.7524688
48	0x3f1ac780	0.6046066
49	0x3f51d106	0.8195957
50	0xbe9f019a	-0.3105591
51	0x3ef7de73	0.48411903
52	0x3ee6b47c	0.45059574
53	0xbeea0460	-0.45706463
54	0xbe2323df	-0.15931652
55	0xbe0a5c26	-0.13511714
56	0xbeba5e4f	-0.36400077
57	0xbeb1b456	-0.34707898
58	0x3f594bee	0.84881485
59	0xbee1e853	-0.44122562
60	0x3f19ced9	0.6008125
61	0x3f0d3859	0.55164105
62	0x3f2bdfdb	0.6713845
63	0x3ee0c60f	0.43901107
64	0xbe6cc143	-0.23120598
65	0x3f478d23	0.7794973
66	0xbe8fd5d4	-0.28092825
67	0x3ed0cb92	0.40780312
68	0x3f5f5795	0.87243015
69	0x3f3d5366	0.7395538
70	0xbee10334	-0.43947756
71	0x3f399fa7	0.72509235
72	0xbeda1b3e	-0.4259891
73	0xbedc36b2	-0.4301048
74	0xbeb6b8b0	-0.3568778
75	0x3ec504bd	0.38480178
76	0x3ee31e9a	0.44359285
77	0xbdc2caeb	-0.0951136
78	0xbf149700	-0.5804291
79	0x3ee1d1f2	0.44105488
80	0x3d9d5467	0.07682114
81	0x3f186696	0.59531534
82	0x3f33beff	0.7021331
83	0x3f0e2442	0.55524075
84	0x3f33d489	0.7024618
85	0xbea315ca	-0.3185256
86	0x3f367de7	0.7128586
87	0xbdc9ed2c	-0.0985969
88	0x3f133e14	0.575166
89	0xbe69802c	-0.228028
90	0x3f2dd147	0.67897457
91	0xbe1d84f8	-0.15382755
92	0x3f210d5d	0.62911016
93	0x3f733838	0.9500766
94	0xbedd0f32	-0.43175656
95	0xbee995e3	-0.45622167
96	0x3f2a21fa	0.66458094
97	0x3eeee574	0.46659434
98	0x3f879d02	1.059479
99	0x3f25930e	0.6467751
100	0x3f47b929	0.78016907
101	0xbf0bbde2	-0.54586613
102	0xbe98f3eb	-0.29873595
103	0xbedfba1c	-0.43696678
104	0x3eeadbbb	0.45870766
105	0xbef8ab85	-0.4856836
106	0x3f236d22	0.638384
107	0x3ef94e89	0.4869273
108	0x3f1f8498	0.62311697
109	0x3e80a3b5	0.251249
110	0x3eaec379	0.3413351
111	0xbe81f502	-0.2538224
112	0x3f309bb1	0.68987566
113	0x3f2bac21	0.6705952
114	0xbf0ea128	-0.55714655
115	0x3eaf8b7c	0.34286106
116	0x3ee5def7	0.4489667
117	0x3f01ea2e	0.50747955
118	0x3f4624d8	0.7739997
119	0xbeab9148	-0.33509278
120	0xbf090288	-0.5351949
121	0x3ef85c37	0.48507854
122	0x3f2d944f	0.67804426
123	0x3f2f0a58	0.6837516
124	0x3f4b6344	0.7944834
125	0xbeea076d	-0.4570879
126	0x3ee2c441	0.44290355
127	0x3e659e0e	0.22423574
128	0x3ed8f53c	0.423746
129	0x3f0e1366	0.5549835
130	0x3f46c2d6	0.77641046
131	0xbefcad6d	-0.49351063
132	0x3ec62b78	0.3870504
133	0x3f14d530	0.581378
134	0x3f038bae	0.5138501
135	0x3eb416cf	0.35173652
136	0x3ebcc6bd	0.36870375
137	0x3e6e1b4e	0.23252603
138	0x3f46e296	0.7768949
139	0x3f06a443	0.52594393
140	0x3f2532cf	0.6453065
141	0xbecfd54f	-0.4059243
142	0xbeec1342	-0.46108443
143	0x3f906156	1.1279705
144	0xbec370f6	-0.3817212
145	0xbed33547	-0.41251585
146	0xbef32c7d	-0.4749488
147	0x3efe1b66	0.49630278
148	0x3f45e793	0.7730648
149	0xbf09093c	-0.53529716
150	0xbeea24b0	-0.45731115
151	0xbeffe48f	-0.49979064
152	0xbe6aaaf9	-0.22916783
153	0x3f61b5ed	0.8816822
154	0x3f4aff15	0.79295474
155	0x3f4a541f	0.7903461
156	0x3e934f8a	0.2877162
157	0xbeafe22a	-0.34352237
158	0x3f216c10	0.63055515
159	0x3ea7740c	0.32705724
160	0x3f62a1d7	0.885282
161	0x3f2a6fb1	0.6657668
162	0xbed489e6	-0.41511458
163	0xbeaf7ea1	-0.34276298
164	0x3f4f5d12	0.8100139
165	0xbeccf72d	-0.4003233
166	0x3f3be8ee	0.734023
167	0xbe87c8d0	-0.26520395
168	0x3eedcc62	0.46444994
169	0xbf0bd4b7	-0.5462145
170	0x3efc9793	0.49334392
171	0x3f4cfc9d	0.8007296
172	0x3e6b63c2	0.22987273
173	0x3f6fca22	0.93667805
174	0xbf0b7766	-0.5447906
175	0xbeb4a32b	-0.35280737
176	0xbed8b3a1	-0.42324546
177	0x3edeb670	0.43498564
178	0xbeb44392	-0.35207802
179	0x3ede043a	0.433626
180	0xbe677dcc	-0.22606581
181	0x3f1c0731	0.60948473
182	0x3eda2274	0.4260441
183	0x3f135f2e	0.5756711
184	0xbeedb19f	-0.46424577
185	0x3eedc02b	0.46435675
186	0xbe88ce84	-0.2672006
187	0x3f1a7f44	0.6035044
188	0xbe8b5cfe	-0.27219385
189	0xbed9b0a6	-0.42517585
190	0x3f35af4f	0.70970625
191	0xbe969eb8	-0.29417968
192	0xbee3de20	-0.44505405
193	0xbefaab3d	-0.4895877
194	0xbef3568a	-0.47526962
195	0xbe95597b	-0.2916983
196	0x3f02c142	0.5107614
197	0x3f1b2d67	0.60616153
198	0x3f2ca949	0.6744581
199	0x3ebc128d	0.36732903
200	0xbf04116d	-0.5158909
201	0x3ed85640	0.42253304
202	0x3f3e5a0c	0.7435615
203	0xbeefac45	-0.4681112
204	0x3f1f85ba	0.62313426
205	0x3f11263f	0.56698984
206	0xbed9982b	-0.42498907
207	0xbef9f2c9	-0.48818043
208	0x3f724c61	0.94647795
209	0xbeb57f2a	-0.3544858
210	0x3f3610db	0.7111947
211	0x3f4dbf0a	0.8036963
212	0x3eb46ddf	0.35240075
213	0x3f57bc04	0.84271264
214	0xbef4eb4e	-0.47835773
215	0x3f2cf4a5	0.675608
216	0xbea1d349	-0.3160651
217	0x3f1f76f1	0.62290865
218	0x3f3e136b	0.7424838
219	0x3f5edd2a	0.8705622
220	0x3ebae83f	0.36505315
221	0x3e36f057	0.1786512
222	0x3f66bfe5	0.9013656
223	0x3f427b7d	0.7596968
224	0xbf06482e	-0.5245389
225	0xbd9260cd	-0.071473695
226	0x3eece957	0.46271774
227	0x3f65ce43	0.89767855
228	0x3f110b17	0.56657547
229	0x3e51f41b	0.20503275
230	0xbf0c50d7	-0.5481085
231	0xbf17baf7	-0.5926966
232	0x3e8dd8f2	0.2770458
233	0xbf16bb4a	-0.5887953
234	0xbefa76d6	-0.4891879
235	0x3eb54631	0.35405114
236	0xbef9ce5d	-0.48790255
237	0x3f36e0de	0.7143687
238	0xbeed4943	-0.46344957
239	0x3f406df1	0.7516776
240	0xbe6723b2	-0.2257221
241	0x3ea2f753	0.31829318
242	0x3f3f55e6	0.74740446
243	0x3f45da61	0.77286345
244	0x3f3fe8f4	0.74964833
245	0x3f49cbd6	0.78826654
246	0xbeb06274	-0.34450114
247	0xbef4cfeb	-0.4781488
248	0x3e0e656d	0.13905878
249	0x3f2bbe9d	0.6708773
250	0x3f0a0d6f	0.5392675
251	0x3f51ec49	0.8200117
252	0x3f725ab4	0.9466965
253	0x3f6ea042	0.93213284
254	0xbeb56b2d	-0.3543333
255	0x3eeee7ee	0.46661323

fc2.weight f4 [256, 256]
0	0xbd2a72a4	-0.041613236
1	0x3d8659a7	0.065600686
2	0x3d0ecdc2	0.034864195
3	0x3d90df39	0.07073826
4	0x3df35c01	0.11882783
5	0x3c89b9aa	0.016812164
6	0x3d0e12b4	0.034685805
7	0x3e310d53	0.17290239
8	0xbd251a46	-0.04030826
9	0x3dce636c	0.10077557
10	0xbc69c7c4	-0.014268819
11	0x3db6ebc0	0.089316845
12	0x3dcc1a47	0.099659495
13	0x3db6f1f8	0.089328706
14	0x3de9c488	0.114144385
15	0x3d21d316	0.039507948
16	0xbcc3898c	-0.023869298
17	0x3def6185	0.11688522
18	0xbd533a05	-0.051569004
19	0x3d01dff0	0.031707704
20	0x3df54568	0.11976129
21	0x3d36af64	0.04460086
22	0x3dbbcd48	0.09170014
23	0x3c0802e1	0.008301468
24	0xbd15beeb	-0.036559027
25	0x3d854ddb	0.065089904
26	0x3e1452b9	0.14484681
27	0xbd9e9481	-0.077431686
28	0x3cd54a3a	0.02603637
29	0x3d2f47ba	0.042793013
30	0xbd9a19e6	-0.07524471
31	0xbc279631	-0.0102286795
32	0x3d5130ed	0.05107205
33	0x3d36b8f8	0.044609994
34	0x3dc81e2e	0.09771381
35	0xbd5311e9	-0.051530752
36	0xbd3096db	-0.043112617
37	0x3cc052ac	0.023476921
38	0x3d6d1618	0.0578824
39	0xbb78dfc3	-0.003797517
40	0x3e4c01cf	0.19922565
41	0x3e09282c	0.1339423
42	0x3c7820c5	0.015144532
43	0xbca66893	-0.020313537
44	0x3d3f6861	0.046730403
45	0x3deb8505	0.11499981
46	0xbdbc5818	-0.0919649
47	0x3debede2	0.11519982
48	0x3e040228	0.12891448
49	0x3dfd50fb	0.123689614
50	0x3ca45a15	0.020062486
51	0x3df3311c	0.11874601
52	0x3dc8cb5b	0.09804412
53	0xbd3e92fe	-0.0465269
54	0x3b4e1630	0.003144633
55	0x3c92ff7b	0.017944088
56	0xbdb956c9	-0.09049756
57	0x3c4c939c	0.012486365
58	0x3e073d49	0.13206972
59	0x3cf36737	0.029712303
60	0x3dcc2ab9	0.09969086
61	0x3ac989e5	0.0015376179
62	0x3de3ba4e	0.11119519
63	0xbc16a363	-0.009194228
64	0xbd318809	-0.043342624
65	0x3d728847	0.059211995
66	0x3d7d3da8	0.061826378
67	0x3df23a71	0.11827553
68	0x3d90e689	0.07075221
69	0x3de45eed	0.11150918
70	0xbc184bf1	-0.00929545
71	0x3d94eea4	0.072720796
72	0xbd92478e	-0.07142554
73	0xbdd804d3	-0.10547795
74	0x3c436624	0.011926208
75	0x3d41409c	0.047180757
76	0x3dd5cb1f	0.10439133
77	0x3ce86ca4	0.028372116
78	0x3da2140a	0.079139784
79	0x3dcddd79	0.10052008
80	0xbceaa31e	-0.028642233
81	0x3dfe1151	0.124056466
82	0x3e19174d	0.14950295
83	0x3db4d29b	0.08829232
84	0x3d6e6a82	0.058207043
85	0xbbdc7c07	-0.0067286524
86	0x3e076a76	0.13224205
87	0x3d0e8cc4	0.034802213
88	0x3cfc7277	0.0308163
89	0x3d67b2c7	0.05656698
90	0x3de00091	0.10937608
91	0x3c98d714	0.018657245
92	0x3df95e10	0.12176144
93	0x3e301d12	0.1719859
94	0xbc92afff	-0.017906187
95	0x3d0645dc	0.032781467
96	0x3df05f98	0.11736983
97	0x3dbff6dc	0.093732566
98	0x3e0b8152	0.1362355
99	0x3cc365cc	0.023852251
100	0x3dd5c3a2	0.104377046
101	0xbdb4ce6f	-0.088284366
102	0x3bb565be	0.0055358103
103	0x3b1bc311	0.0023767392
104	0x3d5543c4	0.05206658
105	0x3d7c9791	0.061667982
106	0x3e0e6dbe	0.13909051
107	0x3d63fdb8	0.055661887
108	0x3e089d62	0.13341287
109	0x3d17ab12	0.03702838
110	0x3d562846	0.0522845
111	0xbc21f938	-0.009886079
112	0x3d425d34	0.047452167
113	0x3df3cbce	0.11904107
114	0x3d258e4f	0.04041892
115	0x3e0a128a	0.13483635
116	0x3d0407cd	0.032234002
117	0x3dc3c6f3	0.09559431
118	0x3d5f6b19	0.054545496
119	0x3d1beaf8	0.03806588
120	0xbd11a8b6	-0.035561286
121	0x3d3b8175	0.045777757
122	0x3e14e914	0.14542037
123	0x3de1901a	0.11013813
124	0x3d21c595	0.03949507
125	0xbd4636bd	-0.048392046
126	0x3d3ccaa5	0.046091694
127	0x3dd2d7d1	0.1029507
128	0x3dcf5ae9	0.101247616
129	0x3d71b27a	0.0590081
130	0x3e4e35e7	0.2013775
131	0xbd21364b	-0.03935842
132	0xbc95e182	-0.018296007
133	0x3d256fd9	0.04038987
134	0x3d40603e	0.046966784
135	0x3d3adf34	0.04562302
136	0x3b07cdab	0.0020721953
137	0x3cbf466e	0.023349013
138	0x3e01c4f8	0.12672794
139	0x3dc1aec9	0.09457166
140	0x3daf2d82	0.08553602
141	0xbd0a6bfd	-0.033794392
142	0x3d090896	0.033455454
143	0x3eb7c429	0.35891846
144	0x3b8c1485	0.004274907
145	0x3d495dc8	0.049161702
146	0xbd318711	-0.0433417
147	0x3c885a8f	0.016644744
148	0x3e1b3c4d	0.15159722
149	0xbd66a4ee	-0.056309633
150	0xbcf676ea	-0.030086
151	0xbd7a1264	-0.061052695
152	0x3dbe7804	0.09300235
153	0x3e1a5463	0.15071253
154	0x3e101464	0.14070278
155	0x3e0cdf98	0.13757169
156	0x3cf62ecd	0.030051613
157	0x3d72d804	0.05928804
158	0x3d47e438	0.04880163
159	0x3d9e7745	0.077375926
160	0x3d30c323	0.043154847
161	0x3dabdfb9	0.08392281
162	0x3d69ba69	0.05706254
163	0x3db4b890	0.08824265
164	0x3dd5188b	0.10405072
165	0x3d07f395	0.033191282
166	0x3dbb91b1	0.09158648
167	0xbcce2425	-0.02516372
168	0x3e1a6d1a	0.15080681
169	0xbd2e6f51	-0.04258663
170	0x3d6b196a	0.057397284
171	0x3b370541	0.0027926716
172	0x3d8dc45c	0.06922218
173	0x3e1604d1	0.14650275
174	0xbc224c39	-0.009905868
175	0x3d19b568	0.037526518
176	0xbd2b8351	-0.04187328
177	0x3df863d9	0.121284194
178	0xbd1fd7e2	-0.03902424
179	0x3dbeba8e	0.09312926
180	0x3c9a89dd	0.018864566
181	0x3db6b06c	0.089203686
182	0x3dc043cc	0.09387931
183	0x3d532df9	0.051557515
184	0xbd884596	-0.066538975
185	0x3ddabf50	0.10681021
186	0x3cb25848	0.021770611
187	0x3c1fec7b	0.009760971
188	0xbbaa681f	-0.0052004005
189	0x3cfba288	0.03071715
190	0x3d3f7b73	0.04674859
191	0xbbebfd27	-0.007201809
192	0xbd914552	-0.070933
193	0xbc0ce08e	-0.00859846
194	0x3cd60e94	0.026129998
195	0xbcfde7da	-0.030994345
196	0x3ba820e6	0.005130875
197	0x3e29866c	0.16555184
198	0x3de6ea06	0.11275105
199	0x3d696bbc	0.05698751
200	0xbd5d3f67	-0.054015543
201	0x3c89313e	0.016747113
202	0x3db83005	0.08993534
203	0x3bd0b72a	0.006369491
204	0x3df12bf5	0.11775962
205	0x3e25123a	0.16120234
206	0x3cbd4916	0.02310614
207	0xbe33d068	-0.1755997
208	0x3ebf06b1	0.37309793
209	0xbd2e1688	-0.042501956
210	0x3db65f1e	0.08904861
211	0x3e10c329	0.14136948
212	0x3d93296b	0.07185634
213	0x3d30ea96	0.04319247
214	0xbd05e915	-0.032692987
215	0x3e059116	0.13043627
216	0x3c02ede7	0.007991291
217	0x3e0347ff	0.12820433
218	0x3e14d556	0.14534506
219	0x3d371b22	0.04470361
220	0x3d75bb65	0.059993166
221	0x3df05738	0.11735386
222	0x3e20b27a	0.15693083
223	0x3dbb76f2	0.091535464
224	0xbe686c08	-0.2269746
225	0x3d80f099	0.0629589
226	0x3dde05d2	0.10840954
227	0x3e2177c0	0.15768337
228	0x3df2a369	0.11847574
229	0xbc9bb9c0	-0.019009471
230	0xbca584ac	-0.020204864
231	0xbe847e45	-0.25877586
232	0x3dfe59cc	0.12419471
233	0xbccd01b7	-0.025025232
234	0xbc87220a	-0.016495723
235	0x3e10a137	0.14123999
236	0x3c8b6737	0.01701699
237	0x3d58b07e	0.05290269
238	0xbd872c3b	-0.06600233
239	0x3dacd43c	0.08438918
240	0x3d62543e	0.05525612
241	0x3d3c0bcd	0.04590969
242	0x3ddd5982	0.10808088
243	0x3e0cbd03	0.13743977
244	0x3cfb6b23	0.030690735
245	0x3d571ea7	0.052519467
246	0x3d0e560b	0.034750026
247	0xbe493748	-0.19649994
248	0x3d731307	0.059344318
249	0x3dd4ec06	0.103965804
250	0x3e057f68	0.13036883
251	0x3de1f948	0.11033875
252	0x3ddc72ea	0.107641056
253	0x3debed48	0.11519867
254	0x3daddd38	0.0848946
255	0x3c9f31ce	0.019432928

fc2.bias f4 [256]
0	0x3f113f79	0.56737477
1	0x3f0f65fc	0.5601499
2	0x3f1bf131	0.60914904
3	0xbeb2d37e	-0.3492698
4	0xbd47136a	-0.0486025
5	0x3f0d26a0	0.5513706
6	0x3f1bc041	0.6084023
7	0x3f0c31f0	0.547637
8	0x3f1ecabd	0.62028104
9	0x3f2bd35f	0.671194
10	0x3f17e455	0.5933278
11	0x3f18a0bf	0.5962028
12	0x3f2c2261	0.6723996
13	0xbd509f0b	-0.050932925
14	0xbec07004	-0.3758546
15	0xbed4656c	-0.4148363
16	0xbcdc8c7c	-0.026922457
17	0xbe05f49e	-0.13081595
18	0xbedf8d1d	-0.43662348
19	0xbea2e617	-0.3181617
20	0x3f1f7917	0.62294143
21	0x3f1046f4	0.56358266
22	0x3f1bb5e8	0.6082444
23	0x3f1a719a	0.6032959
24	0xbe5166e9	-0.20449413
25	0xbe452d79	-0.19255628
26	0x3f24304e	0.6413621
27	0x3f253739	0.6453739
28	0xbec3dd9f	-0.3825502
29	0xbc5835e4	-0.013196442
30	0x3f0d5c8e	0.5521935
31	0xbc8d00f2	-0.017212365
32	0xbedad280	-0.42738724
33	0xbda369dd	-0.07979176
34	0xbed203bc	-0.41018474
35	0x3df3d5d8	0.11906022
36	0xbe53c028	-0.2067877
37	0xbe99404d	-0.2993187
38	0xbc97141d	-0.018442208
39	0xbe44970d	-0.19198246
40	0x3f13d456	0.57745874
41	0xbea5ab58	-0.32357287
42	0xbd6bd5d9	-0.057576988
43	0x3f14e89f	0.5816745
44	0x3f0cce96	0.55002725
45	0x3f1b1f6c	0.6059482
46	0xbedc1f07	-0.42992422
47	0x3f1242a5	0.5713294
48	0x3f09b49d	0.5379122
49	0x3f1d4439	0.61432225
50	0x3f1ca997	0.61196274
51	0x3f1d8c98	0.61542654
52	0xbe1b183f	-0.15145968
53	0x3f23b470	0.639472
54	0x3f2742c1	0.65336233
55	0x3f07f9a2	0.53115284
56	0xbdb65021	-0.08902002
57	0x3f0fd42d	0.5618313
58	0xbe7fe3d0	-0.24989247
59	0xbdedbef6	-0.116086885
60	0xbc351809	-0.011053094
61	0xbec77aff	-0.38961026
62	0xbd7bfba0	-0.061519265
63	0xbee3f56c	-0.4452318
64	0x3f20813b	0.6269719
65	0xbeaa52c1	-0.3326626
66	0x3f22f73a	0.6365849
67	0x3f2731e6	0.65310514
68	0x3f1e35da	0.6180092
69	0x3f0cc1ce	0.5498322
70	0x3f0d0c38	0.5509677
71	0x3f2446ae	0.6417035
72	0xbe9ac0ff	-0.3022537
73	0x3f0e61c5	0.55617934
74	0xbec09579	-0.3761404
75	0xbdd26fe0	-0.10275245
76	0xbec9cce8	-0.39414144
77	0x3f239891	0.6390467
78	0xbea92e7d	-0.3304328
79	0xbee4165b	-0.44548306
80	0xbec18537	-0.37796947
81	0xbe97266a	-0.29521495
82	0x3f18b077	0.59644264
83	0x3f29c0ae	0.6630963
84	0xbd863597	-0.0655319
85	0x3f1380cc	0.57618403
86	0xbea8c185	-0.32960144
87	0x3f16ef07	0.58958477
88	0xbebaad14	-0.36460173
89	0xbd39713c	-0.045274004
90	0x3f06415f	0.524435
91	0x3f2494fe	0.64289844
92	0x3f24a301	0.64311224
93	0x3f149b75	0.5804971
94	0xbc8aca3d	-0.016942138
95	0xbe676a6b	-0.22599189
96	0xbe046854	-0.12930423
97	0xbe2dfe4d	-0.1699154
98	0xbec02aba	-0.37532598
99	0x3f1d07b3	0.61339873
100	0x3f27d65c	0.6556146
101	0x3f152a4f	0.5826768
102	0x3f0e3e9f	0.555643
103	0xbea87b7d	-0.32906714
104	0xbef89d22	-0.48557383
105	0xbe7a96ab	-0.24471538
106	0xbe32b563	-0.17452006
107	0x3f114682	0.5674821
108	0x3d182ff7	0.037155118
109	0xbc8cae58	-0.017172977
110	0xbe50f70d	-0.20406742
111	0x3f165084	0.5871661
112	0xbf0399ea	-0.5140673
113	0xbe376f28	-0.17913496
114	0x3f1c75b8	0.61117125
115	0xbe8e0fc8	-0.27746415
116	0x3f4e6872	0.8062812
117	0x3f18435b	0.59477776
118	0x3f227f5c	0.63475585
119	0xbdb8239a	-0.089911655
120	0x3f08b2a7	0.533976
121	0x3f0b596b	0.54433316
122	0x3f2a9cb7	0.6664538
123	0xbea68b72	-0.32528263
124	0x3f112ad7	0.56705993
125	0xbe655fce	-0.22399828
126	0xbee233bc	-0.44180095
127	0xbec05e3e	-0.375719
128	0x3f10589f	0.56385225
129	0x3f18a26b	0.5962283
130	0x3f18c918	0.59681845
131	0x3f1937f1	0.59850985
132	0x3d36a022	0.04458631
133	0x3f2880e6	0.65821683
134	0xbe079345	-0.13239773
135	0x3f31ab83	0.6940233
136	0xbef465e8	-0.47733998
137	0x3f14af32	0.58079827
138	0xbe89cb45	-0.26912895
139	0x3f1424e6	0.578688
140	0x3f15cfa2	0.5851995
141	0x3f266151	0.64992243
142	0x3f11546d	0.5676945
143	0xbe3ad1f2	-0.1824415
144	0x3f0f46ee	0.55967605
145	0xbed20722	-0.41021067
146	0x3fc59e8a	1.5439007
147	0x3f1a1019	0.60180813
148	0xbeb1dbf9	-0.34738138
149	0x3f04f2a1	0.5193272
150	0xbebd936a	-0.3702653
151	0xbe1ec302	-0.15504077
152	0x3f0ae8d2	0.54261506
153	0x3f1fb214	0.623811
154	0x3f153118	0.58278036
155	0x3f25c6d3	0.64756507
156	0xbe520965	-0.20511396
157	0x3f19c400	0.600647
158	0x3f28e6e1	0.65977293
159	0x3f177f35	0.5917848
160	0x3f15642e	0.5835599
161	0x3f0b6669	0.5445314
162	0x3f18090d	0.5938881
163	0x3f2b6bef	0.6696157
164	0x3f1dfebf	0.61716837
165	0x3f135ce6	0.57563627
166	0x3f2cd6f6	0.67515504
167	0x3f1d157e	0.6136092
168	0x3cd4b28b	0.025964042
169	0xbe8e1c32	-0.27755886
170	0x3f130b84	0.57439446
171	0xbe7466f0	-0.23867393
172	0xbdf12590	-0.117747426
173	0xbeabea1c	-0.3357705
174	0xbe1d4fc3	-0.15362458
175	0x3f0bf92f	0.546771
176	0x3f19fee2	0.60154545
177	0x3f18f8b4	0.5975449
178	0x3f2e8dc5	0.68185073
179	0xbec6d7dd	-0.38836566
180	0x3f172ddc	0.5905435
181	0xbe116d82	-0.1420193
182	0x3f261dea	0.64889395
183	0xbe2ded84	-0.16985136
184	0x3d1c7dfa	0.038206078
185	0xbe8ce3a1	-0.27517417
186	0x3f182e99	0.594461
187	0xbea3c92f	-0.31989428
188	0x3f249e36	0.6430391
189	0xbedaa3f9	-0.42703226
190	0x3f280c3e	0.6564368
191	0xbd8d81f5	-0.06909553
192	0x3f15c2fc	0.5850065
193	0x3f1f5a20	0.62246895
194	0x3f2224aa	0.63337195
195	0xbe7d790c	-0.24753207
196	0x3f0efceb	0.5585467
197	0x3f0e3b39	0.55559117
198	0x3f200868	0.62512827
199	0x3f0871fe	0.5329894
200	0xbea8ad5f	-0.32944772
201	0xbe88e37e	-0.26736063
202	0x3f134bb5	0.57537395
203	0x3f1e6f91	0.61888987
204	0x3f11225a	0.5669304
205	0xbc240111	-0.01001002
206	0x3f290e44	0.6603739
207	0x3f0eab4e	0.5573014
208	0xbea6f97f	-0.32612225
209	0x3f12a0c7	0.57276577
210	0x3f15a0f7	0.5844874
211	0x3f1a0d1b	0.6017625
212	0x3d2cb245	0.0421622
213	0x3f2623eb	0.64898556
214	0xbe0bbf81	-0.13647272
215	0x3f1ff10f	0.624772
216	0xbee4600f	-0.44604537
217	0x3f0e9d11	0.55708414
218	0x3fd06aab	1.6282552
219	0x3f1e5eb7	0.61863273
220	0x3f06eecc	0.52708125
221	0xbe8e0c37	-0.27743694
222	0xbe8850f7	-0.2662427
223	0xbedaf24a	-0.42762977
224	0x3f2f2859	0.6842094
225	0xbee054f1	-0.43814805
226	0xbee16c6d	-0.44028035
227	0xbd7f1bbb	-0.062282305
228	0x3f1fea8a	0.62467253
229	0x3f27aed1	0.65501124
230	0xbcc3b7e1	-0.023891391
231	0x3f189d28	0.596148
232	0x3f0e2095	0.55518466
233	0x3f10f0db	0.56617516
234	0xbd68c024	-0.056823865
235	0xbf11db7b	-0.56975526
236	0x3f1dfa72	0.61710274
237	0xbd40f690	-0.04711014
238	0x3f1cf79e	0.61315334
239	0xbed96462	-0.42459399
240	0x3f1cb2ca	0.6121031
241	0xbe105538	-0.14095008
242	0x3f0e4c8d	0.5558556
243	0x3f12befa	0.5732266
244	0x3f07106f	0.5275945
245	0x3f3fe109	0.7495275
246	0xbe36d440	-0.17854404
247	0x3f112464	0.5669615
248	0x3f2119c1	0.6292992
249	0x3f15937f	0.58428186
250	0x3f164afd	0.58708173
251	0x3f223965	0.6336883
252	0x3f2a0f7f	0.66429895
253	0xbd78e0b7	-0.06076118
254	0xbe898d91	-0.2686582
255	0x3f1beac2	0.60905087

fc3.weight f4 [1, 256]
0	0x3e32ff6b	0.17480247
1	0x3e61b036	0.22039875
2	0x3e168a71	0.14701249
3	0xbf4cb524	-0.799639
4	0xbd60eb0e	-0.054911666
5	0x3e122a10	0.14273858
6	0x3e124b7f	0.14286612
7	0x3e01139f	0.12605141
8	0x3e24b02c	0.16082829
9	0x3df41d63	0.119196676
10	0x3e55c526	0.20875987
11	0x3e30f7ae	0.17281982
12	0x3e40f27d	0.18842502
13	0xbc9d3a73	-0.01919291
14	0xbee7e745	-0.45293632
15	0xbe849b23	-0.2589961
16	0xbd347b55	-0.04406293
17	0xbf06a99e	-0.52602565
18	0xbf0911f0	-0.53542995
19	0xbea56379	-0.32302454
20	0x3e0e7880	0.13913155
21	0x3e533847	0.20626937
22	0x3e269d5d	0.16270967
23	0x3e4fbad2	0.2028611
24	0xbdf9b77a	-0.121931985
25	0xbe2366f4	-0.15957242
26	0x3e22681a	0.15860024
27	0x3e10a52a	0.14125505
28	0xbf2f403e	-0.684574
29	0xbd08e63e	-0.0334227
30	0x3e443b25	0.19163187
31	0xbc064c9f	-0.008196979
32	0xbf0e6c06	-0.5563358
33	0xbf735850	-0.9505663
34	0xbe263082	-0.16229442
35	0xbe972b7e	-0.2952537
36	0xbebd27f1	-0.36944535
37	0xbdd55587	-0.10416704
38	0x3e824de6	0.25450057
39	0xbf308f6d	-0.6896885
40	0x3e3a6d46	0.18205747
41	0xbf2208d0	-0.63294697
42	0xbdf3813e	-0.11889885
43	0x3e357d6b	0.17723624
44	0x3e4270c0	0.18988323
45	0x3e13e98f	0.14444564
46	0xbedd114d	-0.43177262
47	0x3e2bca69	0.16776432
48	0x3e2d8c97	0.16948162
49	0x3e158140	0.14600086
50	0x3e187c4b	0.14891164
51	0x3e3ba3ac	0.18324155
52	0xbea2aa7b	-0.3177069
53	0x3e0fa55f	0.14027928
54	0x3e35b62f	0.17745279
55	0x3e20797c	0.15671343
56	0xbe124926	-0.14285716
57	0x3e3fd964	0.18735272
58	0xbebe9385	-0.37221923
59	0xbf15dd0f	-0.58540434
60	0xbd309335	-0.043109138
61	0xbe4e9cfa	-0.2017707
62	0xbf1be56b	-0.6089694
63	0xbe07481e	-0.13211104
64	0x3e297592	0.16548756
65	0xbe8904af	-0.26761386
66	0x3e17ff1a	0.14843407
67	0x3dee065e	0.11622308
68	0x3e2d02dc	0.16895622
69	0x3e328139	0.17432107
70	0x3e1df144	0.15424067
71	0x3e30c4cf	0.17262577
72	0xbf389d1b	-0.72114724
73	0x3e38e532	0.18056181
74	0xbf78ba8c	-0.9715965
75	0xbf17c845	-0.5928996
76	0xbe703a49	-0.23459734
77	0x3e46a3d3	0.19398431
78	0xbef2bb3e	-0.4740848
79	0xbea3c0b8	-0.3198297
80	0xbf1354ad	-0.5755108
81	0xbec6cdeb	-0.38828978
82	0x3e491e77	0.19640528
83	0x3e25096c	0.16116875
84	0xbcf35259	-0.029702352
85	0x3e3b85f8	0.18312824
86	0xbf1b5613	-0.60678214
87	0x3e4efe18	0.20214117
88	0xbeb30943	-0.34968004
89	0x3b1bfe36	0.0023802645
90	0x3e2a3894	0.16623145
91	0x3e2bfc91	0.16795565
92	0x3e6df389	0.23237433
93	0x3e2dd346	0.16975126
94	0xbb6eac7c	-0.0036418727
95	0xbe9f7120	-0.31140995
96	0xbeed4759	-0.46343496
97	0xbf05d725	-0.5228141
98	0xbe836c96	-0.25668782
99	0x3e33b967	0.17551194
100	0x3e486bd4	0.19572383
101	0x3e356053	0.17712526
102	0x3e1a134d	0.15046425
103	0xbf007b73	-0.5018837
104	0xbe7f8703	-0.24953847
105	0xbf14d48f	-0.5813684
106	0xbec4453f	-0.3833408
107	0x3e1eddd6	0.15514311
108	0xbd09cca1	-0.033642415
109	0xbc8d90ab	-0.017280897
110	0xbf1441ed	-0.57913095
111	0x3e3f2c68	0.18669283
112	0xbe6a6120	-0.22888613
113	0xbeee14a1	-0.46500114
114	0x3e391c37	0.1807717
115	0xbe050d84	-0.12993437
116	0x3f814ad7	1.0100964
117	0x3e29ec8b	0.1659414
118	0x3e31c3fc	0.17359918
119	0xbeea58b7	-0.4577081
120	0x3e1d6a94	0.15372688
121	0x3e22db42	0.15903953
122	0x3e041a5b	0.12900679
123	0xbec6f9a9	-0.3886235
124	0x3e443f7c	0.19164842
125	0xbed1e128	-0.40992093
126	0xbe589683	-0.21151166
127	0xbf5b54a8	-0.8567605
128	0x3ec5e3b2	0.3865028
129	0x3e2aec34	0.16691667
130	0x3e0df91c	0.13864559
131	0x3e027854	0.12741214
132	0xbcfc138d	-0.030771041
133	0x3e5c9b53	0.21543626
134	0xbf7cc5d9	-0.9873939
135	0x3e24016b	0.16016166
136	0xbf5b297f	-0.85610193
137	0x3e386537	0.1800736
138	0xbf183491	-0.5945521
139	0x3e355013	0.17706327
140	0x3e4f466b	0.20241706
141	0x3e6726b7	0.22573362
142	0x3e56ab03	0.20963673
143	0xbef9f6fe	-0.48821253
144	0x3e4dda7d	0.20102878
145	0xbe320077	-0.1738299
146	0x3fd97b34	1.6990724
147	0x3e114099	0.14184798
148	0xbf76195d	-0.9613245
149	0x3e09c901	0.13455583
150	0xbe195a30	-0.1497581
151	0xbf739296	-0.9514555
152	0x3e5069e4	0.20352894
153	0x3dfc9279	0.12332625
154	0x3e055b3f	0.13023089
155	0x3df1121d	0.11771033
156	0xbef32c6f	-0.47494838
157	0x3e11f43b	0.14253323
158	0x3e255fda	0.16149846
159	0x3e3b128c	0.18268794
160	0x3e535aec	0.20640153
161	0x3e28347f	0.16426276
162	0x3e27d890	0.16391206
163	0x3e219ecc	0.15783232
164	0x3e1f4636	0.15554127
165	0x3e5ec2f3	0.21754055
166	0x3e4c46e4	0.19948918
167	0x3e4b845a	0.19874707
168	0xbc98df43	-0.018661147
169	0xbde32f66	-0.11093025
170	0x3e638db2	0.22222021
171	0xbef8b23b	-0.4857348
172	0xbf11fbed	-0.57025033
173	0xbd85cde9	-0.06533415
174	0xbf0bec47	-0.54657406
175	0x3e464180	0.19360924
176	0x3e3bd570	0.18343139
177	0x3e25f198	0.16205442
178	0x3e8e9133	0.27845153
179	0xbf1918ae	-0.59803283
180	0x3e304277	0.17212854
181	0xbeb1e1dd	-0.34742633
182	0x3e25ef7e	0.1620464
183	0xbf3e7926	-0.7440361
184	0xbd4822f2	-0.04886145
185	0xbf2e3edb	-0.6806466
186	0x3e31c6c4	0.1736098
187	0xbf79d46d	-0.9758976
188	0x3e2d8879	0.16946591
189	0xbe6bc60f	-0.23024772
190	0x3e8805d1	0.26566938
191	0xbc65581c	-0.013998058
192	0x3e241f6b	0.1602761
193	0x3e4f6264	0.20252377
194	0x3e49a2d0	0.19691014
195	0xbe8f05fe	-0.2793426
196	0x3e55eaed	0.20890398
197	0x3e19813c	0.14990705
198	0x3e0e19fe	0.13877103
199	0x3e1f92a2	0.1558328
200	0xbe834462	-0.2563811
201	0xbf15d073	-0.58521193
202	0x3e218a83	0.15775494
203	0x3e01cf37	0.12676702
204	0x3e0ebebb	0.13939945
205	0xbcfe3189	-0.03102948
206	0x3e8819eb	0.26582274
207	0x3dfdb1ea	0.1238745
208	0xbd84a507	-0.06476789
209	0x3e2d67c9	0.16934122
210	0x3e4d7892	0.20065525
211	0x3e1ba4c8	0.15199578
212	0xbc98b507	-0.018641008
213	0x3e238eb9	0.15972413
214	0xbf4a1d21	-0.789507
215	0x3e547d59	0.20750941
216	0xbe97c8ec	-0.2964548
217	0x3e33a19d	0.1754212
218	0x40054bf1	2.08276
219	0x3e3dd745	0.1853915
220	0x3e170c78	0.1475085
221	0xbfca0102	-1.5781558
222	0xbf4aa39b	-0.7915589
223	0xbf591adf	-0.8480663
224	0x3e355760	0.17709112
225	0xbefdfd24	-0.49607193
226	0xbf0c3d30	-0.54780865
227	0xbecb2bd1	-0.39681867
228	0x3e827e47	0.25486967
229	0x3df8948a	0.121377066
230	0x3920bb69	0.00015328605
231	0x3e2c5499	0.16829146
232	0x3e3ca7f4	0.18423444
233	0x3e4932c3	0.1964827
234	0xbf1531d5	-0.5827916
235	0x3f02721b	0.5095536
236	0x3e2e015d	0.16992708
237	0xbd291499	-0.04127941
238	0x3e65f362	0.22456124
239	0xbe5c635e	-0.2152228
240	0x3e0450a7	0.12921391
241	0xbf181e3a	-0.5942112
242	0x3e259a2f	0.16172098
243	0x3e613d58	0.21996057
244	0x3e3464d0	0.17616582
245	0x3f3eba7e	0.74503314
246	0xbf0da4d6	-0.55329645
247	0x3e2c7f4d	0.16845436
248	0x3e367c9c	0.17820972
249	0x3e00664d	0.12539025
250	0x3e1c4702	0.15261462
251	0x3e77f2f4	0.24213773
252	0x3e4501d5	0.1923898
253	0xbd66664e	-0.05624991
254	0xbe43237c	-0.19056505
255	0x3e08b2f9	0.13349523

fc1.weight f4 [256, 23]
0	0x3f335cdc	0.7006357
1	0xbe261065	-0.16217192
2	0x3cdaed40	0.026724458
3	0xbd02e248	-0.03195408
4	0x3dad615d	0.08465836
5	0x3cc786dc	0.024356298
6	0x3e2ad123	0.16681342
7	0xbe2decdd	-0.16984887
8	0x3e9b71d4	0.3036028
9	0x3e818837	0.25299236
10	0xbd9d6184	-0.07684615
11	0xbe3a23fd	-0.18177791
12	0x3e2cc3b7	0.16871534
13	0x3d98d44d	0.07462368
14	0xbde6d748	-0.112715304
15	0x3ddb770a	0.10716064
16	0xbd18ed1c	-0.0373355
17	0x3e6f0181	0.23340417
18	0x3dcc5940	0.099779606
19	0x3d3c1ffd	0.045928944
20	0x3d9a9ea3	0.07549789
21	0xbd9e62e0	-0.07733703
22	0x3d9be3f4	0.07611838
23	0x3e6b1cf4	0.22960263
24	0xbebc69db	-0.3679951
25	0x3e805e43	0.25071916
26	0xbdc55cdb	-0.096368514
27	0x3d08f6d1	0.033438507
28	0x3df0476f	0.11732375
29	0x3cc1e6c3	0.023669606
30	0x3df83dbc	0.1212115
31	0x3e60b2e0	0.21943235
32	0x3e85721b	0.26063618
33	0x3dbe173e	0.09281777
34	0x3ddde591	0.10834802
35	0x3d85eb85	0.065390624
36	0x3c5f07fc	0.0136127435
37	0x3aaddc50	0.0013264511
38	0x3cdc96eb	0.026927432
39	0xbd5f1cfb	-0.054470997
40	0x3b9f9556	0.004870097
41	0xbd0aed39	-0.03391764
42	0xbd8ac605	-0.067760505
43	0xbe942ffe	-0.28942865
44	0xbe403f21	-0.18774082
45	0x3c8aa723	0.0169254
46	0xbec4fb72	-0.38473088
47	0xbe3b55d9	-0.18294467
48	0x3ea92f33	0.33043823
49	0xbe655a21	-0.22397663
50	0xbe2cda03	-0.1688004
51	0x3da419f7	0.08012765
52	0xbdb0b7c4	-0.086288005
53	0x3dc789ab	0.09743055
54	0x3e34518d	0.17609234
55	0x3de4f11e	0.11178802
56	0x3c943e97	0.018096251
57	0x3e61ed5a	0.22063199
58	0xbc5c6781	-0.013452412
59	0xbdd9ca11	-0.10634244
60	0x3cadd8f3	0.021221614
61	0xbc5c8a28	-0.013460673
62	0xbd81537c	-0.063147515
63	0xbdb7ff99	-0.08984298
64	0x3e95aca7	0.29233286
65	0xbdcac2f7	-0.09900468
66	0xbb559919	-0.0032592474
67	0xbe72035f	-0.23634098
68	0xbe4caa94	-0.19986945
69	0x3e3ce08f	0.18445037
70	0xbd89bca7	-0.06725436
71	0x3eacf806	0.33782977
72	0x3f2cf0f5	0.6755517
73	0x3e5fc77e	0.21853444
74	0xbef79b66	-0.48360747
75	0xbd6c2fb7	-0.057662692
76	0xbda1334f	-0.078711145
77	0xbd69dc74	-0.057095006
78	0x3dac5198	0.08414
79	0x3e076c24	0.13224846
80	0xbd509bfb	-0.050930005
81	0x3df190ad	0.11795173
82	0xbe04a151	-0.12952162
83	0xbdbb42a6	-0.091435716
84	0xbd6d904d	-0.057998944
85	0xbe082ec0	-0.13299084
86	0xbdf9b75d	-0.12193177
87	0x3d5a9268	0.05336228
88	0x3d842646	0.064526126
89	0xbe400ec6	-0.18755636
90	0xbcf004da	-0.029299188
91	0x3d96a31a	0.07355328
92	0xbf13f072	-0.57788765
93	0x3e3aab19	0.18229331
94	0x3f22d145	0.6360057
95	0x3da34925	0.079729356
96	0x3cf4a550	0.029863983
97	0x3d282d28	0.04105869
98	0x3d426b96	0.047465883
99	0x3d5ac534	0.053410724
100	0x3e1bcdba	0.15215197
101	0x3e2678c6	0.16257009
102	0x3ec86b90	0.39144564
103	0x3d1c13b3	0.038104724
104	0xbd1dd355	-0.03853162
105	0x3d1b829a	0.03796635
106	0x3dd72063	0.10504224
107	0x3e26937e	0.16267201
108	0x3da69b93	0.08135142
109	0xbdfacf3e	-0.122465596
110	0xbe3c6553	-0.18398027
111	0x3e30415b	0.17212431
112	0x3f2c7185	0.6736072
113	0x3eb316fb	0.3497847
114	0x3e1a29f6	0.1505507
115	0x3d64b055	0.055832226
116	0x3c9b6d43	0.018972998
117	0xbf32f53e	-0.6990546
118	0xbea95619	-0.330735
119	0xbe9a38e2	-0.30121523
120	0x3f665492	0.89972794
121	0x3ebe1e52	0.37132508
122	0xbdc014d1	-0.093789704
123	0x3cfb5500	0.03068018
124	0x3e12c9c1	0.14334776
125	0xbe651aa4	-0.22373444
126	0xbd922b30	-0.071371436
127	0xbcf02e37	-0.029318912
128	0x3d91c988	0.07118517
129	0xbd74769a	-0.05968342
130	0xbcef9c3f	-0.029249309
131	0xbc8489cf	-0.016178994
132	0x3f31a9db	0.69399804
133	0xbe9489dc	-0.29011428
134	0x3e7f0592	0.24904469
135	0xbe806cd7	-0.25083038
136	0xbed78d03	-0.4209977
137	0xbe9c9bc4	-0.3058759
138	0x3f0a7ab0	0.54093456
139	0x3f2a2a47	0.6647076
140	0x3e230c83	0.15922742
141	0x3ecb96d1	0.397635
142	0xbd809d6a	-0.06280024
143	0x3e0d0139	0.13769998
144	0xbec8f4ab	-0.39249167
145	0xbe8e4758	-0.27788806
146	0xbe69d914	-0.22836715
147	0xbe0d79c1	-0.13815977
148	0x3d8eef94	0.0697929
149	0xbca84a32	-0.020543192
150	0xbe42d119	-0.19025077
151	0x3d49aab8	0.049235076
152	0xbe18e073	-0.1492937
153	0x3cc1efb0	0.023673862
154	0xbe154157	-0.14575706
155	0x3db36c49	0.08760888
156	0x3e057309	0.13032164
157	0x3e07fc17	0.13279758
158	0xbd9f8db8	-0.077907026
159	0x3e11bdc6	0.14232549
160	0x3e9495e0	0.29020596
161	0x3ea4faa3	0.3222247
162	0x3d652e70	0.05595249
163	0x3e297950	0.16550183
164	0x3edd8b39	0.4327028
165	0xbe3bbb36	-0.18333134
166	0xbf0f1f16	-0.5590681
167	0x3e0df3f4	0.13862592
168	0xbd728f41	-0.05921865
169	0xbdf292a2	-0.11844374
170	0x3f425a7d	0.75919324
171	0x3e50b64e	0.20382044
172	0x3de46150	0.111513734
173	0xbd8cd9bc	-0.06877467
174	0xbc4b302b	-0.012401621
175	0x3e302858	0.1720289
176	0x3e2e833b	0.17042248
177	0xbdf7c207	-0.12097555
178	0x3e1b84eb	0.15187423
179	0x3e55dbc4	0.20884615
180	0x3eccd8c3	0.40009126
181	0xbe8259c4	-0.2545911
182	0xbdd887dc	-0.10572788
183	0xbe7d876e	-0.24758694
184	0x3ee5ee08	0.44908166
185	0xbe989d75	-0.2980763
186	0x3e740ccf	0.23833011
187	0x3db0b92b	0.08629068
188	0x3dfccec7	0.12344127
189	0xbd0e7bf9	-0.0347862
190	0xbe2db530	-0.16963649
191	0x3dd493df	0.10379767
192	0x3e99e3d0	0.3005662
193	0x3e0f2a24	0.13980919
194	0xbdfa55e6	-0.12223415
195	0x3ba1dc39	0.0049395827
196	0xbcd13e2d	-0.025542343
197	0x3ddbab62	0.10726048
198	0x3d80ad45	0.062830485
199	0x3de8f1ef	0.1137427
200	0xbdfca78b	-0.12336644
201	0xbe30a84c	-0.172517
202	0x3e0ae8cd	0.13565369
203	0xbc17ef98	-0.009273432
204	0xbca79bdd	-0.020460064
205	0x3e8da915	0.27668062
206	0xbda330fe	-0.07968329
207	0xbf07fbed	-0.53118783
208	0x3d312c4f	0.043255147
209	0x3e20cd6c	0.15703362
210	0xbe342388	-0.17591679
211	0x3e8fd733	0.2809387
212	0xbf129de9	-0.572722
213	0x3dc42459	0.09577245
214	0x3e6f564c	0.23372763
215	0x3e62fcc0	0.22166729
216	0xbdf1da55	-0.11809222
217	0xbc86cea6	-0.01645596
218	0xbb891726	-0.0041836677
219	0xbe339141	-0.17535879
220	0xbd687b61	-0.05675829
221	0xbe440859	-0.1914381
222	0x3d8e10e9	0.06936819
223	0x3da498db	0.08036967
224	0xbe634312	-0.22193554
225	0x3ddb44dc	0.10706493
226	0xbe8bb169	-0.2728379
227	0x3e44522a	0.19171968
228	0x3e3c2dc6	0.18376836
229	0x3e796a7d	0.24357028
230	0x3eb85ab6	0.36006707
231	0xbe9d1bf0	-0.30685377
232	0xbdd3cf77	-0.10342305
233	0x3d999199	0.07498474
234	0x3e0726d3	0.13198404
235	0xbe6269dc	-0.22110695
236	0x3dfb6d69	0.12276728
237	0x3bb491fc	0.0055105668
238	0x3e904cac	0.28183496
239	0x3e5d87f6	0.21633896
240	0xbe30a9b3	-0.17252235
241	0xbdbc48cd	-0.09193573
242	0xbbfd55d7	-0.00773118
243	0x3d8e55da	0.06949969
244	0xbaafd001	-0.001341343
245	0xbd2abc81	-0.041683678
246	0x3de5a2aa	0.11212666
247	0x3e1543ca	0.1457664
248	0x3e8e6d9f	0.2781801
249	0x3e528eab	0.20562236
250	0xbdf8a665	-0.12141112
251	0xbd5dfcc3	-0.05419613
252	0x3e17a1f8	0.1480788
253	0x3f00a0d3	0.502454
254	0xbee6d937	-0.45087597
255	0x3eaa4b02	0.3326035

fc1.bias f4 [256]
0	0x3eade524	0.33963883
1	0x3f5589c9	0.8341337
2	0x3f1ae6e5	0.6050857
3	0x3f4aadf0	0.7917166
4	0x3f381b88	0.7191701
5	0x3eefdfae	0.46850342
6	0xbe612afb	-0.21989052
7	0x3e93a2cb	0.2883514
8	0x3ec98afc	0.3936385
9	0x3f13364b	0.5750472
10	0x3f039f11	0.5141459
11	0x3e406e43	0.18792062
12	0xbebb9529	-0.36637238
13	0x3eb26059	0.34839132
14	0xbf01bd55	-0.5067952
15	0x3f12fbaf	0.5741529
16	0x3e825d0b	0.2546161
17	0x3f491774	0.7855141
18	0x3edb7e48	0.42869782
19	0x3f45c78d	0.77257615
20	0xbf0a381b	-0.5399186
21	0x3ef91da4	0.48655427
22	0x3f237305	0.6384738
23	0x3f5a8387	0.85356945
24	0x3efb7a32	0.49116665
25	0x3f3c28f5	0.73499995
26	0x3f25ff76	0.6484293
27	0x3f3b6d7e	0.73213947
28	0xbe9647bc	-0.29351604
29	0xbeaf3498	-0.34219813
30	0x3f75fe18	0.9609084
31	0x3f3472eb	0.7048785
32	0x3f2fdba9	0.6869455
33	0x3f2de847	0.6793255
34	0x3f4a97e3	0.7913801
35	0x3f127daf	0.5722303
36	0xbed86d1b	-0.4227074
37	0xbf27691f	-0.6539478
38	0xbe9ddab8	-0.30830932
39	0x3ed00706	0.40630358
40	0x3f2fb8a8	0.6864114
41	0xbecfd797	-0.4059417
42	0x3f1c7977	0.6112284
43	0xbf149f10	-0.5805521
44	0xbece2453	-0.40262088
45	0x3eff7c62	0.49899584
46	0xbeb52aff	-0.35384366
47	0x3f365f52	0.712392
48	0x3f4d01cd	0.8008087
49	0xbea4d013	-0.32189998
50	0x3f1f9439	0.62335545
51	0x3f425614	0.75912595
52	0x3f1f4524	0.62214875
53	0xbee233d2	-0.4418016
54	0x3f6442bb	0.8916432
55	0x3e99ee3a	0.30064565
56	0xbeaa1dd3	-0.3322588
57	0xbed3f722	-0.41399485
58	0xbeb1bc40	-0.34713936
59	0xbec42b82	-0.38314444
60	0x3f9627de	1.1730917
61	0xbef5897b	-0.47956452
62	0x3f486b9c	0.782892
63	0x3f217de7	0.63082737
64	0xbf0830f3	-0.5319969
65	0xbeffd907	-0.49970266
66	0x3ef4e7ad	0.47833005
67	0xbeecc2e4	-0.4624244
68	0x3f162a1f	0.5865802
69	0xbed3e631	-0.4138656
70	0x3f475f12	0.7787944
71	0xbeaef54a	-0.34171516
72	0xbdf00860	-0.117203474
73	0xbed6dedd	-0.41966906
74	0xbf009c69	-0.5023866
75	0x3f7e3d1c	0.99311996
76	0x3e42838d	0.18995495
77	0x3f34b24b	0.70584553
78	0x3f0c529f	0.5481357
79	0xbed9e73f	-0.4255924
80	0x3f203a1d	0.62588674
81	0x3f26c2eb	0.6514117
82	0x3f3084ac	0.6895244
83	0xbea2213c	-0.3166598
84	0x3e642395	0.22279198
85	0xbe3e9db4	-0.18614846
86	0x3f2a74e8	0.66584635
87	0x3f596e2f	0.8493375
88	0xbe9446d7	-0.28960297
89	0x3f349e3f	0.70553964
90	0x3f5e7b10	0.8690653
91	0xbec9b7df	-0.39398095
92	0x3f41d801	0.7572022
93	0x3f246edd	0.64231664
94	0x3f3c4a65	0.7355102
95	0xbe990f80	-0.29894638
96	0xbeefa265	-0.46803585
97	0x3f3da3f1	0.7407828
98	0xbecf4403	-0.40481576
99	0x3f345bff	0.70452875
100	0x3e87ef1e	0.2654962
101	0x3f1386e9	0.5762773
102	0xbee514dc	-0.44742477
103	0xbeebeaad	-0.4607748
104	0xbee850a1	-0.45374015
105	0x3eda77e4	0.42669594
106	0x3ebfe88c	0.37482107
107	0x3e80a654	0.25126898
108	0xbe1171cb	-0.14203565
109	0x3f21c3da	0.6318947
110	0x3f6bff79	0.92186695
111	0xbed95625	-0.42448536
112	0xbec7368d	-0.38908806
113	0xbf0bf502	-0.5467073
114	0x3f4cf6a6	0.80063856
115	0x3f21b22b	0.6316249
116	0xbe989f1b	-0.29808888
117	0xbec7822e	-0.38966507
118	0x3f253440	0.6453285
119	0xbea46099	-0.32104948
120	0xbed317ce	-0.412291
121	0x3f176ffe	0.5915526
122	0x3f233ccd	0.6376465
123	0xbee1246c	-0.439731
124	0x3f2f47f5	0.6846917
125	0xbec7bd5b	-0.39011654
126	0xbe45764f	-0.19283412
127	0x3f2ee6bb	0.68320817
128	0x3f2c783f	0.6737098
129	0x3f53fdca	0.82809126
130	0x3f1e7f40	0.6191292
131	0x3f303dfd	0.68844587
132	0xbeea8e42	-0.4581166
133	0x3f76b2ed	0.9636677
134	0xbedf4551	-0.43607572
135	0x3eb3f4f0	0.3514781
136	0x3f3f82d4	0.74809
137	0x3f496539	0.7867008
138	0xbecfab24	-0.40560257
139	0xbed6f981	-0.4198723
140	0x3f6e8179	0.9316631
141	0x3f1676bf	0.5877494
142	0x3ea631f1	0.32459977
143	0xbf077122	-0.52907
144	0x3f0bc148	0.545918
145	0xbe959fa6	-0.29223365
146	0xbf19eef1	-0.6013022
147	0x3f025ae7	0.50919956
148	0x3f737dac	0.95113635
149	0x3f2dc6bb	0.67881364
150	0xbeab1379	-0.33413294
151	0xbeb5f40f	-0.35537764
152	0xbf00fd03	-0.50386065
153	0x3f3cf899	0.7381683
154	0xbedcdfc8	-0.43139482
155	0x3eea47c5	0.4575788
156	0xbeca98ec	-0.39569795
157	0x3f4a34f6	0.7898706
158	0xbea2c590	-0.31791353
159	0x3f192789	0.5982595
160	0x3f02833a	0.50981486
161	0x3f4711b0	0.77761364
162	0x3f3a3862	0.72742283
163	0xbf0a1cc6	-0.53950155
164	0xbe30d5b8	-0.17269027
165	0xbe80c3b2	-0.25149304
166	0x3f42b893	0.7606289
167	0xbee7b51a	-0.45255357
168	0xbea153d1	-0.3150926
169	0x3e881a39	0.26582506
170	0x3ecd343b	0.4007891
171	0xbef2da65	-0.47432247
172	0x3f3271d0	0.69704914
173	0x3f449d71	0.76802737
174	0xbee3ee81	-0.44517902
175	0xbe72494d	-0.23660775
176	0xbece9c54	-0.40353644
177	0xbf0cd8cb	-0.550183
178	0xbebac202	-0.3647614
179	0x3f432005	0.7622073
180	0x3f443a12	0.7665111
181	0x3f465bb6	0.7748369
182	0xbec8feac	-0.392568
183	0xbeaea677	-0.34111378
184	0x3e72138f	0.23640274
185	0x3f192b3c	0.59831595
186	0x3ef07a7b	0.46968445
187	0x3f0523b3	0.520076
188	0x3eab69c0	0.33479118
189	0xbf02f936	-0.51161516
190	0xbec4e4ef	-0.38455912
191	0x3f94547b	1.1588281
192	0x3f1c6e2e	0.6110562
193	0xbef2895a	-0.47370416
194	0x3ecd0138	0.40039992
195	0x3ea6b8f2	0.32562977
196	0x3eeb5c10	0.45968676
197	0x3f3ba04c	0.7329147
198	0xbee700c7	-0.4511778
199	0x3f0fdeca	0.56199324
200	0x3f3d59df	0.7396526
201	0x3eec2ba2	0.4612704
202	0x3e8609d0	0.2617936
203	0x3f07f40f	0.5310678
204	0xbedc25dd	-0.42997637
205	0xbee47b42	-0.44625288
206	0x3ee2e084	0.44311917
207	0xbeb90db4	-0.36143267
208	0x3ecc1e3e	0.39866823
209	0xbf26f439	-0.65216404
210	0x3f7c6933	0.9859802
211	0xbedb8774	-0.4287678
212	0x3e941eb8	0.28929687
213	0x3ea7da25	0.3278362
214	0x3e6d3330	0.23164058
215	0xbf184734	-0.5948365
216	0xbe972840	-0.29522896
217	0x3ef1aaa7	0.4720051
218	0x3f2c32ef	0.6726522
219	0x3ef4c1d2	0.47804123
220	0x3f2e5fcc	0.68114924
221	0xbec76ebc	-0.3895167
222	0xbe7d3ddf	-0.24730633
223	0x3eaa244b	0.33230814
224	0x3f4cd60c	0.8001411
225	0x3f822bc5	1.0169607
226	0xbe3413b4	-0.17585641
227	0xbe6dc9cb	-0.23221509
228	0x3de6e921	0.112749346
229	0xbef3da1c	-0.47627342
230	0x3ede0bf4	0.43368495
231	0x3f5cc65e	0.86240184
232	0xbf0a3ecb	-0.54002064
233	0x3ddefde2	0.10888268
234	0x3f48b595	0.7840207
235	0x3f61f4af	0.8826398
236	0xbe70b198	-0.23505247
237	0xbe7d9b80	-0.2476635
238	0xbe620cd9	-0.22075213
239	0x3ebfb1b1	0.37440255
240	0xbe0d6107	-0.13806544
241	0x3ec6478e	0.38726467
242	0x3e6e9a2d	0.23301001
243	0x3eab7bd0	0.334929
244	0xbe8917f0	-0.26776075
245	0x3eac060e	0.3359837
246	0xbefd69da	-0.4949482
247	0xbe8ac7c8	-0.27105546
248	0x3edf5c80	0.4362526
249	0xbea311b6	-0.3184945
250	0x3eccd78a	0.40008193
251	0x3f44bce9	0.76850754
252	0x3f3d8b29	0.74040467
253	0x3f381dfe	0.71920764
254	0x3f0dd29e	0.553995
255	0xbf062ecf	-0.52415174
