model_save/bc_q/bc_q60000.pt (torch, 581121 bytes, 10 tensors)

fc1.weight f4 [256, 23]
-0.55860484 1.1604753 0.051583815 0.17433046 -0.056950532 0.30953163 -0.43578595 -0.021526778
-0.100934684 0.08361438 0.4639836 0.059452593 0.0924461 -0.10930056 0.08486083 -0.030473178
0.024507463 0.015218063 -0.07660079 0.0672735 0.09414816 -0.26580763 0.15038374 0.10426702
0.115930386 0.3951102 0.07192054 0.2236366 -0.20569366 -0.17929024 -0.07943051 0.19002907
0.15199801 -0.029856104 -0.06347158 0.11335249 0.017760944 -0.14237392 0.21767353 -0.06551381
-0.10702654 -0.19308534 -0.19567424 -0.12599455 0.07960044 -0.16673213 0.092565894 0.46168765
-0.029713375 0.09688139 0.3480337 0.36865756 -0.029221736 -0.05944904 0.14643253 -0.268924
0.12695786 -0.076411225 -0.08304754 -0.017852606 -0.028447088 -0.16079387 -0.091819555 -0.37410602
0.08518809 -0.36241764 0.2943572 0.22683124 0.002399588 -0.8435803 0.13601424 0.011829494
-0.44071254 -0.010023266 -0.039044574 -0.014054235 0.16884755 0.18082052 -0.38259313 -0.23138075
0.15245265 -0.07599324 0.10301832 0.00058128254 0.14314583 0.0039288984 -0.07638233 0.15343823
-0.12507749 0.31375283 0.0971754 0.16399258 -0.579637 0.31612507 0.5068426 0.073954955
-0.3904572 -0.26883242 -1.3846073 -0.55785704 0.035453845 0.17509188 0.3114672 0.11888224
-0.015089005 0.039047856 -0.11248062 -0.16884606 0.05434231 0.31808564 0.73719734 0.19993177
-0.21267278 -0.3898101 0.17604285 -0.15231095 -0.23169076 0.1985179 -0.13627452 0.046636697
-0.08419232 -0.2142311 0.122107014 0.25777492 0.25986984 0.036440883 0.13693011 -0.010121536
-0.1390159 0.07088339 -0.0029993185 -0.04589396 0.24581572 -0.051764924 -0.18792525 -0.13749598
0.20385747 -0.15327194 -0.12765719 -0.22727256 -0.32609853 -0.26944864 0.27804768 0.48369798
-0.096154846 -0.22629324 0.2135011 -0.019815722 -0.19214249 -0.0732174 -0.061701577 0.095551364
-0.15690987 -0.11391672 0.018622877 0.06312043 0.054476812 -0.10201591 -0.30897552 -0.13845618
0.14788511 0.020895017 0.034202304 -0.20420986 -0.449528 -0.6582815 -0.253585 -0.76037586
-0.7906529 -0.16616721 0.29465654 -0.09590451 0.082135156 -0.036181156 -0.20019004 -0.18509436
-0.05794777 -0.020317798 0.16209616 0.42468402 0.56834066 -0.14018416 -0.19796574 -0.06287386
0.8011697 0.6336483 -0.19862522 0.119751066 -0.45000616 0.14784195 -0.013342914 0.3723475
-0.1316355 0.00043234555 0.28950062 0.11292392 -0.21675691 -0.13312027 -0.18786423 0.11380944
0.1871074 -0.041572258 -0.06420051 -0.18577272 0.0052733454 -0.026119169 0.19758219 -0.04120594
0.057269458 0.29367647 0.12424848 0.22586638 -0.09538831 0.0683514 -0.0029636873 0.17608176
0.16752213 -0.20711647 0.0007517175 -0.010522254 0.10999144 0.07733704 -0.0036309606 -0.10100937
0.117086254 0.0887341 0.124809526 -0.22739702 0.15101907 -0.16359371 -0.8794695 1.3964584
0.19819278 -0.110846326 0.17937683 0.23487118 -0.4188884 0.18914585 -0.15181877 0.063522816
0.051825255 0.007202977 0.08766984 0.012190431 0.17914169 0.048690155 0.15014035 -0.10476548
-0.10062924 0.15978286 0.13156207 0.33139512 -0.11215476 0.51699847 -0.1712491 0.31047946
00000000: ba00 0fbf 748a 943f 8d49 533d af83 323e
00000010: f644 69bd ee7a 9e3e 561f dfbe ed58 b0bc
00000020: d8b6 cebd 043e ab3d 428f ed3e 9084 733d
00000030: 6254 bd3d f9d8 dfbd 84cb ad3d e3a2 f9bc
00000040: e0c3 c83c 2f55 793c e0e0 9cbd b0c6 893d
00000050: c0d0 c03d f017 88be 32fe 193e f389 d53d
00000060: e96c ed3d e24b ca3e 134b 933d fe00 653e
00000070: 5ca1 52be dc97 37be 77ac a2bd fb96 423e
00000080: 5ea5 1b3e ca94 f4bc 63fd 81bd 5a25 e83d
00000090: 667f 913c 78ca 11be cfe5 5e3e 1b2c 86bd
000000a0: bb30 dbbd 2ab8 45be d45e 48be b704 01be
000000b0: 8e05 a33d d4bb 2abe 3093 bd3d 5362 ec3e
000000c0: 7769 f3bc c069 c63d 7931 b23e afc0 bc3e
000000d0: 6c62 efbc d680 73bd 69f2 153e 68b0 89be
000000e0: 3e01 023e 7d7d 9cbd d414 aabd a13f 92bc
000000f0: de09 e9bc 26a7 24be e40b bcbd d38a bfbe
00000100: 1877 ae3d ce8e b9be fdb5 963e 7346 683e
00000110: 6842 1d3b e1f4 57bf 5147 0b3e 7ed0 413c
00000120: 13a5 e1be a038 24bc 34ed 1fbd bc43 66bc
00000130: 5fe6 2c3e 0429 393e 3fe3 c3be 13ef 6cbe
00000140: 8c1c 1c3e 58a2 9bbd 45fb d23d 3661 183a
00000150: d294 123e fdbd 803b 576e 9cbd e91e 1d3e
00000160: 5014 00be 36a4 a03e e503 c73d aced 273e
00000170: 1763 14bf 25db a13e 70c0 013f b275 973d
00000180: 02ea c7be 67a4 89be d03a b1bf b8cf 0ebf
00000190: 0d38 113d 494b 333e a178 9f3e 8878 f33d
000001a0: e037 77bc a5f0 1f3d 3d5c e6bd fbe5 2cbe
000001b0: 0b96 5e3d 1fdc a23e f7b8 3c3f eaba 4c3e
000001c0: e5c6 59be 3095 c7be 9444 343e 67f7 1bbe
000001d0: 5840 6dbe 4748 4b3e 8c8b 0bbe 1f06 3f3d
000001e0: 066d acbd 665f 5bbe 3e13 fa3d 13fb 833e
000001f0: a90d 853e 0943 153d 6837 0c3e cdd4 25bc
00000200: 2f5a 0ebe 502b 913d 3790 44bb 4efb 3bbd
00000210: 1eb7 7b3e 7507 54bd 7a6f 40be bfcb 0cbe
00000220: 03c0 503e 52f3 1cbe 91b8 02be 23ba 68be
00000230: 63f6 a6be 2cf5 89be 445c 8e3e 43a7 f73e
00000240: d5ec c4bd 6ab9 67be 08a0 5a3e 9554 a2bc
00000250: 00c1 44be 01f3 95bd cbba 7cbd 6fb0 c33d
00000260: fbac 20be 2b4d e9bd 018f 983c 4945 813d
00000270: 1423 5f3d b8ed d0bd 0a32 9ebe 75c7 0dbe
00000280: 326f 173e 072c ab3c b717 0c3d 641c 51be
00000290: 8928 e6be 2385 28bf e5d5 81be fea7 42bf
000002a0: 3a68 4abf bd27 2abe 39dd 963e 9569 c4bd
000002b0: 7a36 a83d b132 14bd 9efe 4cbe 6089 3dbe
000002c0: a45a 6dbd 8371 a6bc 89fc 253e 2f70 d93e
000002d0: c67e 113f 708c 0fbe 88b7 4abe 03c4 80bd
000002e0: 7519 4d3f c636 223f 6964 4bbe 0c40 f53d
000002f0: 3567 e6be e163 173e 3d9c 5abc 55a4 be3e
00000300: 75cb 06be 70ac e239 6d39 943e a844 e73d
00000310: 86f5 5dbe ae50 08be 7b5f 40be ec14 e93d
00000320: 1599 3f3e ac47 2abd 8f7b 83bd 343b 3ebe
00000330: 07cc ac3b def7 d5bc fc52 4a3e 8fc7 28bd
00000340: 6193 6a3d c35c 963e fd75 fe3d 8449 673e
00000350: f25a c3bd d2fb 8b3d 6c3a 42bb c74e 343e
00000360: ec8a 2b3e 5716 54be e80e 453a 8865 2cbc
00000370: 3143 e13d e262 9e3d 69f5 6dbb 00de cebd
00000380: ebca ef3d 39ba b53d 239c ff3d c4da 68be
00000390: bea4 1a3e 1c85 27be ea24 61bf 26bf b23f
000003a0: 0cf3 4a3e 6603 e3bd 8fae 373e 1282 703e
000003b0: 8a78 d6be 73af 413e 6176 1bbe 4018 823d
000003c0: b846 543d f306 ec3b 3f8c b33d 60ba 473c
000003d0: eb70 373e 546f 473d 64be 193e 498f d6bd
000003e0: b416 cebd 1e9e 233e 35b8 063e 9fac a93e
000003f0: 65b1 e5bd 035a 043f ed5b 2fbe 2af7 9e3e

fc1.bias f4 [256]
-0.17788656 0.8256214 0.6670852 0.6009854 0.35173693 0.56489 0.32939437 0.45991006
-0.5298296 0.72962385 -0.2297903 0.58393496 0.4562083 0.42872062 0.99382424 0.93748415
-0.7151842 0.9466228 -0.5915474 0.39531234 0.5478168 0.6451224 0.7211733 0.53196317
-0.4627363 0.7255169 0.90256983 -0.23837037 -0.6060474 -0.48873028 -0.46034655 0.28774467
0.5280237 -0.38798 1.2004907 -0.44778815 -0.47153598 0.19413336 0.5776721 -0.52166903
0.9435193 0.6494123 0.85279465 -0.63063633 0.85345143 1.2126861 -0.34913194 0.8593924
0.67874104 0.901663 -0.3232454 0.6273617 0.53418297 -0.5159959 -0.23481882 -0.18600713
-0.43569773 -0.40010917 0.96818614 -0.4901689 0.68353826 0.6424177 0.76253104 0.5135638
-0.28922233 0.8663127 -0.31879035 0.49073708 0.9834984 0.84072226 -0.50973946 0.8235611
-0.49174896 -0.47620195 -0.37290293 0.46228194 0.5194773 -0.06647081 -0.6143064 0.54879487
0.10016233 0.7301262 0.7885561 0.63380826 0.81379944 -0.40642855 0.8154794 -0.09103849
0.6650029 -0.31082797 0.77589625 -0.21506085 0.7020945 1.0588056 -0.546065 -0.5262773
0.76358813 0.5578695 1.2198948 0.72982395 0.8688548 -0.6295006 -0.36149412 -0.44635022
0.5530525 -0.52571857 0.7193778 0.60082614 0.71267015 0.2992189 0.43269107 -0.31357506
0.7932983 0.7663609 -0.63160884 0.41713536 0.53113985 0.58374316 0.86480683 -0.37019014
-0.6003532 0.5622271 0.77577233 0.78636825 0.89313245 -0.5255191 0.49965656 0.29508802
0.51235473 0.64660275 0.88995594 -0.5837484 0.4709324 0.6638061 0.60570043 0.38882017
0.43456662 0.27256626 0.8822706 0.586556 0.72941154 -0.48185232 -0.5465094 1.2694229
-0.42624158 -0.49576074 -0.54770726 0.5802004 0.86278284 -0.57879204 -0.53404695 -0.5790432
-0.18868525 0.9784738 0.8899463 0.8999992 0.35524163 -0.38280487 0.72722983 0.40711617
1.0024174 0.7566208 -0.43770346 -0.43275908 0.90469706 -0.4465993 0.8251042 -0.33207366
0.56659365 -0.6140524 0.57417405 0.87362313 0.2856299 1.0430002 -0.60736436 -0.3959895
-0.4835671 0.49779686 -0.3861637 0.507505 -0.30048403 0.7418183 0.5234947 0.6642507
-0.5189401 0.57581586 -0.29873517 0.6897315 -0.3116775 -0.49357095 0.814135 -0.36360744
-0.48450288 -0.5461884 -0.5588708 -0.39457408 0.5942322 0.68966955 0.77459794 0.43854645
-0.57990545 0.48878792 0.8428119 -0.52199733 0.6871576 0.6601065 -0.48020402 -0.6015768
1.0691596 -0.439652 0.8295524 0.90498716 0.43102795 0.9480894 -0.5565776 0.77019334
-0.37825474 0.7202575 0.84451807 0.9705025 0.44090298 0.26665813 1.0203414 0.8625739
-0.5470767 -0.1077745 0.5320573 1.0102341 0.66546154 0.28115138 -0.6140847 -0.64696944
0.3620281 -0.67256045 -0.5647224 0.40094241 -0.548247 0.8101363 -0.5482065 0.8290168
-0.32566842 0.40572605 0.8451304 0.8657153 0.8722932 0.8713002 -0.3516525 -0.5113231
0.019648183 0.7637324 0.62415844 0.92073244 1.0443099 1.0475787 -0.38922903 0.5629479
00000000: e527 36be ed5b 533f 18c6 2a3f 2eda 193f
00000010: dd16 b43e a29c 103f 61a6 a83e 5579 eb3e
00000020: eaa2 07bf a1c8 3a3f 264e 6bbe c37c 153f
00000030: 2294 e93e 4581 db3e 446b 7e3f f6fe 6f3f
00000040: 5016 37bf df55 723f a76f 17bf 6166 ca3e
00000050: b93d 0c3f be26 253f d09e 383f bd2e 083f
00000060: c6eb ecbe 7abb 393f d10e 673f 5d17 74be
00000070: ec25 1bbf db3a fabe 8bb2 ebbe 4553 933e
00000080: 902c 073f 51a5 c6be aea9 993f 7d44 e5be
00000090: 2a6d f1be e5ca 463e 52e2 133f 1a8c 05bf
000000a0: 7b8a 713f e23f 263f c050 5a3f 6271 21bf
000000b0: cb7b 5a3f 4c39 9b3f 6cc1 b2be 2401 5c3f
000000c0: f9c1 2d3f 63d3 663f 6c80 a5be c79a 203f
000000d0: 37c0 083f 4f18 04bf 5874 70be a778 3ebe
000000e0: c613 dfbe 1cdb ccbe 0cdb 773f 6bf7 fabe
000000f0: 5dfc 2e3f 7d75 243f 3c35 433f eb78 033f
00000100: f314 94be abc6 5d3f 7d38 a3be e441 fb3e
00000110: 8dc6 7b3f 9339 573f 497e 02bf e6d4 523f
00000120: 85c6 fbbe bed0 f3be 22ed bebe 38b0 ec3e
00000130: 77fc 043f d921 88bd 2f43 1dbf d27d 0c3f
00000140: e821 cd3d 8de9 3a3f d0de 493f 4241 223f
00000150: 2955 503f 6717 d0be 42c3 503f 6372 babd
00000160: a13d 2a3f d824 9fbe 23a1 463f e938 5cbe
00000170: 77bc 333f f186 873f eaca 0bbf 1cba 06bf
00000180: 837a 433f 89d0 0e3f 8325 9c3f bed5 3a3f
00000190: 456d 5e3f f426 21bf c215 b9be 0488 e4be
000001a0: d994 0d3f 7e95 06bf 2529 383f becf 193f
000001b0: 8d71 363f 3833 993e af89 dd3e e98c a0be
000001c0: 9915 4b3f 3a30 443f 1eb1 21bf c492 d53e
000001d0: c8f8 073f 3170 153f fb63 5d3f 9089 bdbe
000001e0: bfb0 19bf 1dee 0f3f 0499 463f 6e4f 493f
000001f0: 54a4 643f 6b88 06bf fcd2 ff3e c715 973e
00000200: ae29 033f c287 253f 27d4 633f 8970 15bf
00000210: 0d1e f13e 32ef 293f 2f0f 1b3f 7013 c73e
00000220: 847f de3e ce8d 8b3e 7cdc 613f 8928 163f
00000230: b7ba 3a3f 59b5 f6be 0ae8 0bbf 737c a23f
00000240: 563c dabe 5ad4 fdbe 8b36 0cbf 0388 143f
00000250: 56df 5c3f b72b 14bf 4db7 08bf 2d3c 14bf
00000260: b536 41be 427d 7a3f 85d3 633f 5966 663f
00000270: 3be2 b53e 00ff c3be bc2b 3a3f 8871 d03e
00000280: 374f 803f e7b1 413f ab1a e0be 9992 ddbe
00000290: 3a9a 673f aaa8 e4be 073a 533f 8f05 aabe
000002a0: 480c 113f 8a32 1dbf 12fd 123f c4a5 5f3f
000002b0: 153e 923e 0881 853f 3b7c 1bbf 23bf cabe
000002c0: 1b96 f7be 3bdf fe3e 40b7 c5be d9eb 013f
000002d0: 0bd9 99be cee7 3d3f c003 063f 550c 2a3f
000002e0: 42d9 04bf ab68 133f d1f3 98be 3e92 303f
000002f0: 3194 9fbe 55b5 fcbe 276b 503f c12a babe
00000300: c310 f8be 01d3 0bbf 2812 0fbf 9d05 cabe
00000310: 9a1f 183f 2f8e 303f 0d4c 463f 2989 e03e
00000320: af74 14bf 6942 fa3e 85c2 573f 9ea1 05bf
00000330: 8fe9 2f3f bdfc 283f 4ddd f5be f000 1abf
00000340: 39da 883f 111a e1be 8c5d 543f 3dad 673f
00000350: b2af dc3e fdb5 723f df7b 0ebf 642b 453f
00000360: 9baa c1be cc62 383f 5632 583f da72 783f
00000370: 09be e13e 6a87 883e 8c9a 823f a5d1 5c3f
00000380: 380d 0cbf e1b8 dcbd e834 083f 5a4f 813f
00000390: b05b 2a3f 13f3 8f3e a834 1dbf ca9f 25bf
000003a0: bf5b b93e ec2c 2cbf a691 10bf 5348 cd3e
000003b0: ea59 0cbf 1865 4f3f 4357 0cbf 723a 543f
000003c0: 03be a6be 53bb cf3e 775a 583f 859f 5d3f
000003d0: 9b4e 5f3f 880d 5f3f cc0b b4be 12e6 02bf
000003e0: 3af5 a03c f783 433f d9c8 1f3f 1fb5 6b3f
000003f0: f2ab 853f 0f17 863f 0749 c7be 5b1d 103f

fc2.weight f4 [256, 256]
-0.015590424 0.071096696 0.04023821 0.08178067 0.11578627 0.020126116 0.03530709 0.1651963
-0.030764114 0.107486516 -0.007341282 0.097938366 0.10662827 0.10455096 0.11925432 0.051166233
-0.017064359 0.13992484 -0.03465078 0.037643474 0.12125015 0.04887159 0.09432761 0.016506208
-0.032187615 0.07231231 0.16029997 -0.055276472 0.019044084 0.09783216 -0.08246822 -0.009617545
0.052966256 0.038914025 0.11591499 -0.0342888 -0.02924592 0.045148157 0.060983945 -0.01476074
0.22239786 0.13585246 0.02109907 0.0001373014 0.054209493 0.14084587 -0.17803186 0.12110867
0.1341806 0.12499053 0.025804954 0.14322634 0.107073046 -0.028006157 0.017680425 0.01793465
-0.08858431 0.0228282 0.14711806 0.04906425 0.10871463 0.006530209 0.11729946 -0.003212038
-0.021433651 0.06886987 0.07953156 0.1305763 0.0866354 0.1159091 -0.00440175 0.08630437
-0.0666049 -0.10427009 0.030442007 0.049582765 0.103162676 0.04921205 0.09722791 0.10271822
-0.015259151 0.14464468 0.1513357 0.10368252 0.06935936 0.010420453 0.13621214 0.03218254
0.02077154 0.0900008 0.12475151 0.02753252 0.1238194 0.18916112 -0.010844895 0.042709876
0.1325331 0.1041464 0.15656559 0.023954028 0.1174123 -0.12309597 0.049478643 0.026337866
0.051216293 0.10021218 0.1471008 0.07283602 0.1291823 0.036434077 0.058063854 -0.011119974
0.05066727 0.12269282 0.040577658 0.1336088 0.0351318 0.09540971 0.054900788 0.05242283
-0.0260294 0.039333526 0.15028435 0.119074166 0.044840213 -0.03754851 0.053207602 0.10863456
0.1041092 0.06108616 0.23505037 -0.041611306 -0.008437703 0.047450226 0.052111853 0.049252342
0.0032667702 0.018925643 0.13291022 0.08951879 0.09073051 -0.046168968 0.039382152 0.38708794
-0.0043660123 0.061689142 -0.03489628 0.019554365 0.16168353 -0.061553147 -0.0435031 -0.0377958
0.12709157 0.16171901 0.14747472 0.13504578 0.039331455 0.0121289985 0.057936653 0.075436845
0.068534896 0.0844245 0.07632343 0.111288056 0.11574972 0.036856957 0.0991117 -0.04830266
0.16109923 -0.042286076 0.057394378 0.006997208 0.060932674 0.16252927 0.0025125802 0.058206674
-0.030639613 0.12221153 -0.038888067 0.09682555 0.026639622 0.09313131 0.09429701 0.05602059
-0.08085437 0.11681487 0.04072859 0.011120754 -0.0021919364 0.034842804 0.053102653 -0.0014763529
-0.061418798 -0.0005031844 0.022390548 -0.038520437 0.011685637 0.1724008 0.12043495 0.060245413
-0.044875722 0.019400468 0.09636848 -0.032769002 0.12041517 0.16885436 0.021479962 -0.18730064
0.38462234 -0.03167743 0.09872886 0.1505277 0.06926311 0.051946994 -0.014203829 0.1374649
0.0035048397 0.14113635 0.15476476 0.053578082 0.060857624 0.11950204 0.18158093 0.09886955
-0.21699083 0.09031679 0.12581289 0.16639896 0.12960368 -0.011890713 -0.032111313 -0.22474688
0.12001205 -0.023796247 -0.01893923 0.13810328 0.059538715 0.056106184 -0.06362358 0.08688369
0.065046996 0.041433867 0.117465526 0.14691095 0.04333451 0.05815246 0.035809144 -0.17985322
0.054714017 0.116980866 0.13497399 0.12050811 0.11281647 0.11328366 0.089900255 0.03326053
00000000: fa6e 7fbc 259b 913d d2d0 243d a07c a73d
00000010: 5a21 ed3d 86df a43c 2b9e 103d 3829 293e
00000020: 0605 fcbc e421 dc3d 238f f0bb e993 c83d
00000030: ec5f da3d d01e d63d 9c3b f43d af93 513d
00000040: 8eca 8bbc 7548 0f3e faed 0dbd 0b30 1a3d
00000050: 0052 f83d 942d 483d d62e c13d 0738 873c
00000060: 29d7 03bd 7a18 943d ad25 243e 9569 62bd
00000070: 5702 9c3c 3a5c c83d 19e5 a8bd e892 1dbc
00000080: 25f3 583d 5064 1f3d d764 ed3d 6a72 0cbd
00000090: 2495 efbc 46ed 383d 4dca 793d 08d7 71bc
000000a0: 44bc 633e e81c 0b3e f5d7 ac3c 90f8 0f39
000000b0: c60a 5e3d e639 103e fc4d 36be d307 f83d
000000c0: a466 093e 09fb ff3d e964 d33c eda9 123e
000000d0: 1d49 db3d 2b6d e5bc 8ad6 903c b0eb 923c
000000e0: b16b b5bd 3502 bb3c 1ea6 163e 98f7 483d
000000f0: c7a5 de3d 5dfb d53b b33a f03d 0e81 52bb
00000100: a095 afbc a50b 8d3d 71e1 a23d cbb5 053e
00000110: e76d b13d c061 ed3d 8e3c 90bb 58c0 b03d
00000120: 2668 88bd 8f8b d5bd 8461 f93c 4c17 4b3d
00000130: f446 d33d 9392 493d 6d1f c73d ee5d d23d
00000140: 8501 7abc bc1d 143e bff7 1a3e 8057 d43d
00000150: 480c 8e3d 8cba 2a3c 327b 0b3e d7d1 033d
00000160: 1429 aa3c 5752 b83d b87d ff3d e18b e13c
00000170: 0795 fd3d 74b3 413e c9ae 31bc 8df0 2e3d
00000180: c2b6 073e b54a d53d bb52 203e 3d3b c43c
00000190: dc75 f03d bd19 fcbd 1eaa 4a3d 82c2 d73c
000001a0: 2dc8 513d 0b3c cd3d 98a1 163e 0d2b 953d
000001b0: 5d48 043e e63b 153d 5dd4 6d3d 8d30 36bc
000001c0: 7c88 4f3d 6046 fb3d c234 263d bfd0 083e
000001d0: 5de6 0f3d 2b66 c33d a6df 603d 52b9 563d
000001e0: 9c3b d5bc 311c 213d 24e4 193e 28dd f33d
000001f0: 5faa 373d 77cc 19bd 37f0 593d cc7b de3d
00000200: 3437 d53d 7b35 7a3d 0bb1 703e 9e70 2abd
00000210: 4b3e 0abc 2b5b 423d 3d73 553d d3bc 493d
00000220: 4f17 563b f309 9b3c 9e19 083e a155 b73d
00000230: ebd0 b93d ac1b 3dbd 2e4f 213d 6430 c63e
00000240: c410 8fbb c1ad 7c3d 67ef 0ebd 7a30 a03c
00000250: 5e90 253e 271f 7cbd 4e30 32bd c5cf 1abd
00000260: 4b24 023e ab99 253e 9d03 173e 7149 0a3e
00000270: 051a 213d b5b8 463c fc4e 6d3d a27e 9a3d
00000280: 065c 8c3d c1e6 ac3d 754f 9c3d feea e33d
00000290: 300e ed3d 52f7 163d 13fb ca3d 03d9 45bd
000002a0: 32f7 243e 2a34 2dbd 5e16 6b3d d648 e53b
000002b0: 8a94 793d 136e 263e 1aaa 243b 1f6a 6e3d
000002c0: edff fabc 0a4a fa3d 1849 1fbd 794c c63d
000002d0: 563b da3c a1bb be3d ca1e c13d d975 653d
000002e0: fa96 a5bd a23c ef3d 06d3 263d d333 363c
000002f0: 97a6 0fbb 54b7 0e3d 2b82 593d 2f82 c1ba
00000300: 4792 7bbd 22e8 03ba 626c b73c 9bc7 1dbd
00000310: 1d75 3f3c d689 303e 99a6 f63d e5c3 763d
00000320: 9bcf 37bd bbed 9e3c d65c c53d ca38 06bd
00000330: 3b9c f63d 28e8 2c3e bff6 af3c bdcb 3fbe
00000340: 38ed c43e 31c0 01bd 5b32 ca3d ef23 1a3e
00000350: d1d9 8d3d 5fc6 543d 2db7 68bc 99c3 0c3e
00000360: 74b1 653b 0c86 103e a77a 1e3e b174 5b3d
00000370: d845 793d 7cbd f43d 5af0 393e 1e7c ca3d
00000380: d832 5ebe 02f8 b83d 18d5 003e 7d64 2a3e
00000390: d4b6 043e 44d1 42bc 2787 03bd 0c24 66be
000003a0: e1c8 f53d 59f0 c2bc 7226 9bbc f26a 0d3e
000003b0: dede 733d 99cf 653d 144d 82bd 13f0 b13d
000003c0: 5c37 853d 8fb6 293d c491 f03d d36f 163e
000003d0: 877f 313d 4631 6e3d 9cac 123d 712b 38be
000003e0: ce1b 603d aa93 ef3d 9f36 0a3e f5cc f63d
000003f0: 520c e73d 4301 e83d a01d b83d 323c 083d

fc2.bias f4 [256]
0.6634803 0.66219765 0.7050857 -0.35654035 -0.0486025 0.65314263 0.70430046 0.6500281
0.72587657 0.7669138 0.6975834 0.69725955 0.7741949 -0.050932925 -0.4207633 -0.49344712
-0.026922457 -0.18674053 -0.4371586 -0.40562648 0.7271048 0.665206 0.7122824 0.70438796
-0.26405197 -0.24119902 0.7434496 0.74962884 -0.4346476 -0.013196442 0.6539695 -0.017212365
-0.4789339 -0.12129079 -0.4958721 0.1927404 -0.26869807 -0.36089763 0.017765123 -0.29726076
0.6790757 -0.3598336 -0.10163342 0.6835074 0.6518108 0.7080018 -0.44400677 0.6673954
0.6398344 0.7157358 0.7134365 0.7165953 -0.112249404 0.7450706 0.7553663 0.6323813
-0.1208949 0.6628348 -0.20516442 -0.15683112 -0.011053094 -0.4573455 -0.1010738 -0.5153577
0.7230214 -0.39177483 0.7413937 0.7487882 0.7197503 0.6515355 0.6467186 0.74703944
-0.38593274 0.6580871 -0.44870993 -0.067772895 -0.47063506 0.7403498 -0.3595556 -0.4844782
-0.40683395 -0.33137566 0.698301 0.7642312 -0.0655319 0.6778609 -0.42492074 0.69119614
-0.4146739 -0.045274004 0.6204737 0.74400735 0.7451703 0.6819313 -0.016942138 -0.23881154
-0.16068046 -0.21630666 -0.415369 0.7147264 0.7575398 0.68420976 0.65160465 -0.37625197
-0.5622036 -0.32306442 -0.21547288 0.6690086 0.037155118 -0.017172977 -0.2483533 0.6888701
-0.5899097 -0.19649836 0.7128608 -0.33332476 0.86798507 0.69673014 0.73585796 -0.061205536
0.62993777 0.6456422 0.77132255 -0.37316868 0.66835356 -0.2293855 -0.5073668 -0.42759192
0.6561578 0.69717073 0.69432425 0.7025921 0.04458631 0.76021606 -0.14890623 0.79638284
-0.58371264 0.676909 -0.2798146 0.6803137 0.6861896 0.75097996 0.66897917 -0.1876489
0.6612001 -0.4862664 1.6370467 0.7058307 -0.42806 0.6151702 -0.441549 -0.21728565
0.64362407 0.7280742 0.67858845 0.74322605 -0.21571815 0.704942 0.76476026 0.69816244
0.68542403 0.6459101 0.6949749 0.7718344 0.7210146 0.67771196 0.7799296 0.7154798
0.025964042 -0.3305765 0.67535543 -0.24211933 -0.1457509 -0.40596452 -0.16028629 0.64790356
0.70553744 0.6987142 0.7862905 -0.4472708 0.6917243 -0.1838116 0.7500075 -0.23071437
0.038206078 -0.33010858 0.6961949 -0.38324684 0.74448556 -0.5170584 0.7588546 -0.06909553
0.6863925 0.72422135 0.73465735 -0.29576105 0.6604452 0.65150344 0.7209871 0.63460207
-0.37647974 -0.29248226 0.6793928 0.7238609 0.66810054 -0.01001002 0.76541686 0.66335875
-0.4052886 0.6778081 0.68572694 0.69773865 0.0421622 0.7508014 -0.20650801 0.72929245
-0.5163863 0.6587761 1.788845 0.72035366 0.6283403 -0.34560177 -0.32085156 -0.5156194
0.7892893 -0.476106 -0.4759839 -0.033565164 0.7266636 0.75075746 -0.023891391 0.6972024
0.6567853 0.66765594 -0.1309537 -0.7285875 0.7131731 -0.049117573 0.71480906 -0.4770602
0.71406806 -0.14742513 0.66089684 0.6745218 0.6292551 0.9001876 -0.20998211 0.6718744
0.73126274 0.689408 0.6886177 0.7375031 0.7656773 -0.06076118 -0.31519157 0.710531
00000000: d8d9 293f c985 293f 7f80 343f 758c b6be
00000010: 6a13 47bd 5b34 273f 094d 343f 3e68 263f
00000020: 0cd3 393f 7654 443f d394 323f 9a7f 323f
00000030: a331 463f 0b9f 50bd 4a6e d7be 1aa5 fcbe
00000040: 7c8c dcbc e938 3fbe 41d3 dfbe 46ae cfbe
00000050: 8a23 3a3f f14a 2a3f 2458 363f c552 343f
00000060: d231 87be e0fc 76be b752 3e3f ade7 3f3f
00000070: 218a debe e435 58bc 8c6a 273f f200 8dbc
00000080: d336 f5be 4e67 f8bd f3e2 fdbe bd5d 453e
00000090: cb92 89be 93c7 b8be 2a88 913c 9032 98be
000000a0: e8d7 2d3f 1c3c b8be 2f25 d0bd 57fa 2e3f
000000b0: 13dd 263f 9b3f 353f db54 e3be 6dda 2a3f
000000c0: 30cc 233f 763a 373f c6a3 363f ca72 373f
000000d0: 04e3 e5bd f2bc 3e3f b05f 413f bee3 213f
000000e0: bf97 f7bd 8baf 293f 9f16 52be 5698 20be
000000f0: 0918 35bc 3029 eabe c8ff cebd 7bee 03bf
00000100: ee17 393f b696 c8be facb 3d3f 95b0 3f3f
00000110: 8e41 383f 08cb 263f 5a8f 253f fa3d 3f3f
00000120: fa98 c5be 6578 283f 4fbd e5be 84cc 8abd
00000130: 14f7 f0be 9187 3d3f ac17 b8be 870d f8be
00000140: 8a4c d0be 12aa a9be dbc3 323f a8a4 433f
00000150: 9735 86bd 4b88 2d3f 368f d9be 3bf2 303f
00000160: 2350 d4be 3c71 39bd 5dd7 1e3f 4477 3e3f
00000170: 7bc3 3e3f 0d93 2e3f 3dca 8abc 038b 74be
00000180: 6b89 24be 7e7f 5dbe 3fab d4be 4ff8 363f
00000190: 21ee 413f 5f28 2f3f 90cf 263f 19a4 c0be
000001a0: 93ec 0fbf b368 a5be eca4 5cbe 2644 2b3f
000001b0: f72f 183d 58ae 8cbc 5450 7ebe ca59 303f
000001c0: 5204 17bf de36 49be 0c7e 363f 8ba9 aabe
000001d0: 4534 5e3f e85c 323f 3061 3c3f a8b2 7abd
000001e0: 9a43 213f cf48 253f 6575 453f f70f bfbe
000001f0: 3819 2b3f 08e4 6abe cae2 01bf 54ed dabe
00000200: f5f9 273f c879 323f 3cbf 313f 13dd 333f
00000210: 22a0 363d 859d 423f e07a 18be bfdf 4b3f
00000220: 316e 15bf e949 2d3f dc43 8fbe 0a29 2e3f
00000230: 1faa 2f3f 3940 403f 3842 2b3f 0927 40be
00000240: 6944 293f e9f7 f8be bf8a d13f 52b1 343f
00000250: ae2a dbbe cb7b 1d3f b612 e2be 2180 5ebe
00000260: 8cc4 243f 1263 3a3f f9b7 2d3f 1044 3e3f
00000270: 38e5 5cbe 1477 343f 54c7 433f c6ba 323f
00000280: f377 2f3f 5d5a 253f e0e9 313f f096 453f
00000290: 6a94 383f 887e 2d3f 77a9 473f af29 373f
000002a0: 8bb2 d43c 5341 a9be 18e4 2c3f 21ee 77be
000002b0: b93f 15be 95da cfbe 1722 24be 02dd 253f
000002c0: 1a9e 343f efde 323f 564a 493f ae00 e5be
000002d0: d814 313f 1c39 3cbe 7e00 403f 6340 6cbe
000002e0: fa7d 1c3d fe03 a9be d439 323f ee38 c4be
000002f0: 9b96 3e3f f05d 04bf 4c44 423f f581 8dbd
00000300: 6bb7 2f3f 9266 393f 8112 3c3f fe6d 97be
00000310: f012 293f eec8 263f 9c92 383f 4875 223f
00000320: f4c1 c0be 3cc0 95be b0ec 2d3f f34e 393f
00000330: a308 2b3f 1101 24bc 5cf2 433f e1d1 293f
00000340: fd81 cfbe d584 2d3f cd8b 2f3f 009f 323f
00000350: 45b2 2c3d 8534 403f d676 53be e9b2 3a3f
00000360: e431 04bf 8da5 283f dff8 e43f 1969 383f
00000370: e9da 203f b7f2 b0be a846 a4be a2ff 03bf
00000380: dd0e 4a3f 2ac4 f3be 29b4 f3be a07b 09bd
00000390: a006 3a3f a431 403f e1b7 c3bc db7b 323f
000003a0: 1523 283f 80eb 2a3f ba18 06be b684 3abf
000003b0: 8392 363f 822f 49bd bafd 363f 3c41 f4be
000003c0: 2acd 363f 9df6 16be 8930 293f 76ad 2c3f
000003d0: dd16 213f b272 663f 8d05 57be f6ff 2b3f
000003e0: 0934 3b3f 0b7d 303f 4049 303f 01cd 3c3f
000003f0: 6d03 443f b7e0 78bd ca60 a1be 5ce5 353f

fc3.weight f4 [1, 256]
0.18276292 0.23223592 0.15479077 -0.86090267 -0.054911666 0.15516433 0.15046415 0.13610075
0.17137781 0.12722296 0.21981293 0.18567973 0.19969736 -0.01919291 -0.5007938 -0.24344598
-0.04406293 -0.5495845 -0.58493143 -0.46602196 0.14992091 0.21813501 0.17404865 0.21527189
-0.14658302 -0.17637472 0.17052367 0.1526276 -0.9597042 -0.0334227 0.20295502 -0.008196979
-0.64405936 -1.0899141 -0.14832662 -0.3737306 -0.46511814 -0.14068419 0.36725157 -0.92413485
0.19403769 -0.8537883 -0.16377655 0.18921249 0.20128691 0.15601787 -0.5008813 0.17555517
0.18107666 0.15783049 0.1607748 0.19530083 -0.3723979 0.15116554 0.18945456 0.16903259
-0.15406638 0.19879037 -0.50887346 -0.7504559 -0.043109138 -0.21192911 -0.8157285 -0.13173659
0.17342386 -0.44347918 0.1597007 0.12418269 0.1808298 0.18628561 0.16340081 0.18405172
-0.9371857 0.19181842 -1.1371158 -0.7804647 -0.2361601 0.20616296 -0.5832561 -0.37117496
-0.66020644 -0.44836664 0.2085954 0.17352834 -0.029702352 0.1951256 -0.7923449 0.21378109
-0.37878454 0.0023802645 0.1740622 0.18018696 0.24346894 0.18252952 -0.0036418727 -0.43035254
-0.6114888 -0.71468455 -0.27103448 0.18766087 0.20731005 0.18917437 0.15798232 -0.60484785
-0.25644442 -0.86584544 -0.66199666 0.16730957 -0.033642415 -0.017280897 -0.62611014 0.19882861
-0.21285392 -0.6382106 0.19343121 -0.2968139 1.0668403 0.17838527 0.1858554 -0.5078645
0.16085759 0.17123972 0.1395623 -0.46134084 0.2037641 -0.5522861 -0.20557594 -1.0449402
0.42309618 0.17929465 0.14823823 0.13837075 -0.030771041 0.22750902 -1.5582308 0.17174114
-1.0676236 0.18789911 -0.7996806 0.18854664 0.21434149 0.23807704 0.22163413 -0.6797163
0.2137196 -0.16639632 1.7372528 0.15338182 -1.1564801 0.1424874 -0.15597905 -1.2320999
0.21583627 0.1339426 0.13794148 0.1253357 -0.69180274 0.15333305 0.1726331 0.19412547
0.21847834 0.1754796 0.17592536 0.16945085 0.16637978 0.22947118 0.21054566 0.20968887
-0.018661147 -0.11024274 0.23400344 -0.73462504 -0.77310973 -0.104864664 -0.82695 0.20552494
0.19507271 0.17434837 0.29003745 -0.758871 0.18433645 -0.4805522 0.17425032 -0.89675856
-0.04886145 -0.9180913 0.18515144 -1.1526172 0.18147802 -0.22291894 0.27670187 -0.013998058
0.17218965 0.2143708 0.20911278 -0.33287528 0.22124526 0.15732667 0.14668375 0.16812977
-0.30242765 -0.8487001 0.16926621 0.13762705 0.15076733 -0.03102948 0.27707353 0.13465312
-0.13242182 0.18034714 0.21314913 0.16015273 -0.018641008 0.17184028 -0.8970457 0.21799816
-0.34720114 0.18716843 2.3322513 0.19666986 0.15933578 -1.9320449 -0.98442847 -1.1102691
0.1980161 -0.5416606 -0.6194814 -0.5243305 0.2667222 0.12906265 0.00015328605 0.18097375
0.19650401 0.20859881 -0.82200456 0.632795 0.17818375 -0.037903886 0.23572631 -0.2333063
0.14222175 -0.68283087 0.17258051 0.2313669 0.18821734 0.8120444 -0.80668235 0.17964944
0.18977454 0.13612363 0.16488835 0.25311574 0.20521095 -0.05624991 -0.20070474 0.14497603
00000000: 3426 3b3e 41cf 6d3e 7981 1e3e 1e64 5cbf
00000010: 0eeb 60bd 66e3 1e3e 4613 1a3e ff5d 0b3e
00000020: aa7d 2f3e bc46 023e a416 613e d422 3e3e
00000030: 777d 4c3e 733a 9dbc 0634 00bf e749 79be
00000040: 557b 34bd 92b1 0cbf 11be 15bf 6e9a eebe
00000050: de84 193e c95e 5f3e cf39 323e 3c70 5c3e
00000060: dc19 16be 939b 34be c29d 2e3e 694a 1c3e
00000070: 2daf 75bf 3ee6 08bd 71d3 4f3e 9f4c 06bc
00000080: 13e1 24bf 4e82 8bbf efe2 17be 9e59 bfbe
00000090: f723 eebe 840f 10be 6608 bc3e 1a94 6cbf
000000a0: d1b1 463e df91 5abf 0ab5 27be ebc0 413e
000000b0: 281e 4e3e 26c3 1f3e c239 00bf bcc4 333e
000000c0: 296c 393e 519e 213e 26a2 243e f1fc 473e
000000d0: f0aa bebe 24cb 1a3e 6000 423e e116 2d3e
000000e0: 94c3 1dbe b48f 4b3e 8845 02bf e11d 40bf
000000f0: 3593 30bd f203 59be 95d3 50bf f5e5 06be
00000100: 0696 313e b40f e3be 9588 233e 7f53 fe3d
00000110: 722b 393e a8c1 3e3e 8b52 273e 0e78 3c3e
00000120: 67eb 6fbf 0c6c 443e 038d 91bf 89cc 47bf
00000130: f4d3 71be 621c 533e 4650 15bf a50a bebe
00000140: 4a03 29bf 5090 e5be 089a 553e 6ab1 313e
00000150: 5952 f3bc 01cf 473e 1ed7 4abf 6ee9 5a3e
00000160: 0cf0 c1be 36fe 1b3b 5d3d 323e ee82 383e
00000170: ec4f 793e 05e9 3a3e 7cac 6ebb 2b57 dcbe
00000180: 888a 1cbf 91f5 36bf 08c5 8abe 2c2a 403e
00000190: 1649 543e edb6 413e 1ec6 213e 4fd7 1abf
000001a0: af4c 83be 0ca8 5dbf 9d78 29bf 3353 2b3e
000001b0: a1cc 09bd ab90 8dbc c148 20bf ba99 4b3e
000001c0: 61f6 59be c561 23bf d512 463e fef7 97be
000001d0: 398e 883f a1aa 363e e150 3e3e 6803 02bf
000001e0: dab7 243e 7759 2f3e 6be9 0e3e de34 ecbe
000001f0: 89a7 503e 9f62 0dbf 8082 52be 9ac0 85bf
00000200: 10a0 d83e 0499 373e c3cb 173e 10b1 0d3e
00000210: 8d13 fcbc 20f8 683e 1b74 c7bf e9dc 2f3e
00000220: e4a7 88bf a068 403e deb7 4cbf 5f12 413e
00000230: 567c 5b3e 78ca 733e 0ff4 623e e301 2ebf
00000240: 50d9 5a3e cc63 2abe 4d5e de3f 2010 1d3e
00000250: 8a07 94bf 38e8 113e f9b8 1fbe 73b5 9dbf
00000260: 2f04 5d3e 4028 093e 8840 0d3e 0058 003e
00000270: fc19 31bf 5703 1d3e bbc6 303e d4c8 463e
00000280: c9b8 5f3e edb0 333e c725 343e 8684 2d3e
00000290: 765f 2a3e 7efa 6a3e 4899 573e aeb8 563e
000002a0: 43df 98bc f2c6 e1bd 999e 6f3e 6310 3cbf
000002b0: 85ea 45bf 49c3 d6bd ffb2 53bf 2175 523e
000002c0: 24c1 473e 6188 323e ca7f 943e 5f45 42bf
000002d0: b2c2 3c3e f00a f6be ad6e 323e f891 65bf
000002e0: f222 48bd 0808 6bbf 5798 3d3e f688 93bf
000002f0: 60d5 393e dd44 64be deab 8d3e 1c58 65bc
00000300: 7c52 303e 0584 5b3e a921 563e a16e aabe
00000310: 1e8e 623e 3e1a 213e 4434 163e 362a 2c3e
00000320: ccd7 9abe 6944 59bf 1f54 2d3e 1bee 0c3e
00000330: c062 1a3e 8931 febc 95dc 8d3e 82e2 093e
00000340: 9699 07be ecac 383e c443 5a3e 14ff 233e
00000350: 07b5 98bc e6f6 2f3e c9a4 65bf e93a 5f3e
00000360: 59c4 b1be 15a9 3f3e 9b43 1540 d363 493e
00000370: eb28 233e 3f4d f7bf 8103 7cbf 4c1d 8ebf
00000380: bcc4 4a3e 45aa 0abf 5596 1ebf 863a 06bf
00000390: d08f 883e 0029 043e 69bb 2039 2f51 393e
000003a0: 5938 493e ed9a 553e e46e 52bf dafe 213f
000003b0: cd75 363e 1b41 1bbd 3d62 713e d9e7 6ebe
000003c0: 94a2 113e 01ce 2ebf f2b8 303e 72eb 6c3e
000003d0: 0cbc 403e 24e2 4f3f bc82 4ebf 06f6 373e
000003e0: 4254 423e fe63 0b3e 7ed8 283e 6398 813e
000003f0: d222 523e 4e66 66bd 8b85 4dbe 9974 143e

fc1.weight f4 [256, 23]
0.8703668 -0.09287156 0.027426613 -0.03909988 0.09382619 0.013803102 0.24170585 -0.19053221
0.29618087 0.3070699 -0.061525963 -0.17939495 0.16398768 0.072731934 -0.10925469 0.10777253
-0.042034067 0.21053812 0.12182729 0.02349879 0.040738203 -0.07287363 0.09850595 0.20382914
-0.4083819 0.24132974 -0.059279863 0.034949478 0.107786536 0.015807347 0.12093769 0.20820498
0.27238128 0.09480584 0.0981458 0.06430008 0.007478699 0.0027697745 0.031609014 -0.052744403
-0.010295073 -0.06622059 -0.07317398 -0.26808077 -0.17515 0.024529364 -0.50046045 -0.20895013
0.35248408 -0.19664408 -0.14755258 0.1021891 -0.11283064 0.11529572 0.15968855 0.053827833
0.029356167 0.22246464 -0.019909656 -0.11307626 0.0112166675 -0.011189309 -0.054936517 -0.096684076
0.2719521 -0.10074628 0.019192522 -0.26629665 -0.21424305 0.2130163 -0.11959193 0.32664797
0.65890074 0.23322242 -0.48650438 -0.048482426 -0.114879355 -0.063095845 0.045138154 0.11166323
-0.049888127 0.10071565 -0.13086772 -0.08028011 -0.056733634 -0.10797049 -0.08324254 0.11368948
0.049827214 -0.269878 -0.063859515 0.02973806 -0.58970636 0.3136439 0.6575592 0.14855991
-0.05555694 0.06776302 0.072707824 0.060651034 0.1328116 0.18470418 0.45349193 0.03142885
-0.016459536 0.031072127 0.09806391 0.14307548 0.06713567 -0.097816154 -0.19164784 0.19112517
0.6942726 0.44955844 0.14029075 -0.2569533 0.079221904 -0.65401787 -0.32536525 -0.2365169
0.9722932 0.37052044 -0.088082634 0.03043097 0.15830812 -0.24111308 -0.07411229 -0.030163927
0.060434308 -0.067546755 -0.03100747 -0.012968387 0.67242074 -0.20423353 0.22693458 -0.20611899
-0.3658814 -0.3059128 0.46771616 0.74526685 0.12871107 0.56625324 0.01803747 0.25684965
-0.49274316 -0.49895924 -0.22032483 -0.3386713 0.0070626717 -0.009516364 -0.19884643 0.038289245
-0.14276612 0.02061032 -0.072640084 0.13793962 0.16955942 0.098826505 0.028587634 0.12855847
0.34141466 0.54077846 0.017784864 0.15572585 0.41320586 -0.062641755 -0.6700038 0.111688085
-0.01693866 -0.09620519 0.9134049 0.18625334 0.103762805 -0.06904008 -0.015051722 0.17588982
0.15732767 -0.10607906 0.19241005 0.33650157 0.5008674 -0.31914496 -0.118744135 -0.32901186
0.6061102 -0.4165918 0.2466768 0.08741472 0.14126153 -0.10243284 -0.17876168 0.11997811
0.28841007 0.23315172 -0.120787635 0.012333592 -0.02213987 0.10147814 0.055970374 0.10530998
-0.114345364 -0.17479596 0.11263891 -0.0004761168 -0.008078941 0.26250705 -0.06806577 -0.71610045
0.025601504 0.1639969 -0.18817696 0.24222034 -0.6784546 0.06221825 0.22032078 0.19994864
-0.14101225 -0.10138167 -0.013692907 -0.16697581 -0.06892073 -0.18792892 0.040249016 0.06618368
-0.23766948 0.13036267 -0.29619452 0.1892455 0.106308684 0.22302029 0.41925567 -0.3838559
-0.10399136 0.086656325 0.14963786 -0.24484894 0.12490497 0.007473566 0.2696174 0.2645325
-0.16761252 -0.09587247 -0.013801636 0.06049914 0.007984541 -0.04237371 0.09396967 0.13786301
0.27165973 0.2065574 -0.10547153 -0.07142894 0.16488242 0.7359141 -0.67592186 0.32924154
00000000: 5cd0 5e3f 7233 bebd c7ad e03c 3227 20bd
00000010: f227 c03d 6826 623c bd81 773e e01a 43be
00000020: 05a5 973e 4438 9d3e a602 7cbd 4fb3 37be
00000030: 63ec 273e 7bf4 943d ecc0 dfbd d8b7 dc3d
00000040: ea2b 2cbd 4e97 573e 9680 f93d 8980 c03c
00000050: 1add 263d c53e 95bd 7dbd c93d 96b8 503e
00000060: 6f17 d1be 251f 773e 71cf 72bd 2f27 0f3d
00000070: 30bf dc3d 697e 813c 2eae f73d b033 553e
00000080: 8f75 8b3e 9029 c23d aa00 c93d c3af 833d
00000090: e00f f53b 1b85 353b 7478 013d 840a 58bd
000000a0: aaac 28bc a99e 87bd 3ddc 95bd e241 89be
000000b0: 865a 33be cef1 c83c 2d1e 00bf 06f7 55be
000000c0: cb78 b43e 115d 49be 0618 17be 8548 d13d
000000d0: c013 e7bd 2a20 ec3d 6585 233e 937a 5c3d
000000e0: 587c f03c c5cd 633e 9319 a3bc 8794 e7bd
000000f0: 1dc6 373c 5d53 37bc 1d05 61bd 4d02 c6bd
00000100: 4e3d 8b3e 1154 cebd a339 9d3c 0958 88be
00000110: 8862 5bbe f220 5a3e 9dec f4bd 673e a73e
00000120: b8ad 283f dcd1 6e3e 1a17 f9be 8295 46bd
00000130: de45 ebbd 6538 81bd c9e2 383d b1af e43d
00000140: 7e57 4cbd 0244 ce3d 3002 06be e669 a4bd
00000150: 8761 68bd a21f ddbd 117b aabd 08d6 e83d
00000160: 9f17 4c3d 732d 8abe c7c8 82bd 3b9d f33c
00000170: fff6 16bf ef95 a03e cd55 283f 1720 183e
00000180: ad8f 63bd 57c7 8a3d d7e7 943d 386d 783d
00000190: c4ff 073e 1823 3d3e 1830 e83e 8abb 003d
000001a0: 26d6 86bc f98a fe3c bbd5 c83d 6182 123e
000001b0: 6d7e 893d d653 c8bd 553f 44be 51b6 433e
000001c0: d9bb 313f 862c e63e 61a8 0f3e 628f 83be
000001d0: 183f a23d b76d 27bf 4696 a6be 7c31 72be
000001e0: 35e8 783f dbb4 bd3e ab64 b4bd 5f4a f93c
000001f0: 861b 223e 59e6 76be 2fc8 97bd 571a f7bc
00000200: f789 773d f455 8abd 6103 febc 5c79 54bc
00000210: c423 2c3f 9822 51be 8a61 683e db10 53be
00000220: cf54 bbbe 9aa0 9cbe 7e78 ef3e cfc9 3e3f
00000230: d6cc 033e f9f5 103f 51c3 933c cc81 833e
00000240: d548 fcbe 9677 ffbe d59c 61be 5366 adbe
00000250: fc6d e73b 86ea 1bbc 669e 4bbe 2fd5 1c3d
00000260: 4831 12be f9d6 a83c 53c4 94bd 0b40 0d3e
00000270: fca0 2d3e 8d65 ca3d 9d30 ea3c d5a4 033e
00000280: e7cd ae3e 7570 0a3f 90b1 913c 9976 1f3e
00000290: b88f d33e 524a 80bd 5e85 2bbf b9bc e43d
000002a0: f2c2 8abc 3a07 c5bd e7d4 693f 32b9 3e3e
000002b0: 9881 d43d e364 8dbd 7f9b 76bc 761c 343e
000002c0: 811a 213e fa3f d9bd 2407 453e ef49 ac3e
000002d0: d938 003f f866 a3be 2030 f3bd 3e74 a8be
000002e0: 0a2a 1b3f 854b d5be d898 7c3e 7d06 b33d
000002f0: dda6 103e 4fc8 d1bd 4d0d 37be 15b7 f53d
00000300: 7caa 933e 53bf 6e3e 825f f7bd d612 4a3c
00000310: ac5e b5bc c5d3 cf3d 3141 653d c2ac d73d
00000320: e72d eabd b6fd 32be 3baf e63d 519f f9b9
00000330: 895d 04bc 5367 863e 1166 8bbd 5c52 37bf
00000340: 3fba d13c ceee 273e 76b1 40be 9c08 783e
00000350: 33af 2dbf 90d8 7e3d c59b 613e 56bf 4c3e
00000360: 8465 10be 31a1 cfbd 3758 60bc b5fb 2abe
00000370: 5026 8dbd 7070 40be 27dc 243d 4f8b 873d
00000380: a15f 73be cb7d 053e cfa6 97be 93c9 413e
00000390: 5eb8 d93d 6e5f 643e aea8 d63e c388 c4be
000003a0: 6cf9 d4bd df78 b13d ab3a 193e aeb9 7abe
000003b0: 2dce ff3d d1e4 f43b 4b0b 8a3e ce70 873e
000003c0: 9ea2 2bbe c958 c4bd 4220 62bc f2cd 773d
000003d0: 98d1 023c 0e90 2dbd 2c73 c03d f62b 0d3e
000003e0: fc16 8b3e c883 533e 7501 d8bd 5649 92bd
000003f0: f0d6 283e de64 3c3f 3709 2dbf 5992 a83e

fc1.bias f4 [256]
0.42023987 0.93718 0.6820265 0.8742635 0.79763013 0.5581605 -0.28445345 0.42685232
0.4742483 0.68312556 0.6019167 0.23539296 -0.40773565 0.41421032 -0.529235 0.65522975
0.33270195 0.8828298 0.49384177 0.8721127 -0.5964648 0.56049263 0.7350631 0.96218204
0.5911372 0.8164797 0.7351534 0.81370014 -0.38898405 -0.37609944 1.0713223 0.79850423
0.81090564 0.7736898 0.85834527 0.6665791 -0.4775012 -0.72596806 -0.38758454 0.49735355
0.7848508 -0.45891187 0.70332074 -0.667686 -0.46531698 0.5853994 -0.37674248 0.8061243
0.914864 -0.3993928 0.7088952 0.8478935 0.70144045 -0.50268835 1.0026617 0.40819034
-0.40525442 -0.4514157 -0.35843176 -0.43788856 1.3020035 -0.57183886 0.8671394 0.7030817
-0.63642913 -0.5735758 0.5681285 -0.52997905 0.67740285 -0.5066479 0.8722597 -0.4274496
-0.1438415 -0.4775727 -0.587372 1.1131612 0.25299612 0.81728584 0.646256 -0.50486696
0.7208147 0.7364293 0.778675 -0.33642554 0.31321254 -0.26924458 0.77263016 0.951618
-0.31605238 0.7816867 0.97128206 -0.46734992 0.85368675 0.7293394 0.8357588 -0.36601734
-0.5590989 0.8689491 -0.45741916 0.78015083 0.3389119 0.66479677 -0.5069812 -0.508986
-0.50017184 0.50873214 0.4455665 0.31299365 -0.21265173 0.7238051 1.035971 -0.50808364
-0.43344545 -0.61341923 0.92069995 0.7403843 -0.33984703 -0.44636688 0.75044924 -0.36813378
-0.45006102 0.68650305 0.768506 -0.48399165 0.78502136 -0.41642395 -0.25156215 0.8100974
0.7748533 0.9249208 0.7125566 0.77124506 -0.51703894 1.086651 -0.546939 0.43581071
0.8593781 0.89509577 -0.42356217 -0.4578738 1.0569774 0.6815603 0.39836815 -0.5672437
0.6249727 -0.33937907 -0.6847112 0.59183145 1.0688186 0.779681 -0.34221745 -0.41752908
-0.575174 0.8562615 -0.48641 0.54664266 -0.45307207 0.87660456 -0.35014862 0.67110765
0.59241885 0.8791824 0.82331365 -0.59760743 -0.20098922 -0.32315835 0.8929811 -0.5642405
-0.35761297 0.3478245 0.4732584 -0.55552477 0.7913673 0.86770386 -0.5197804 -0.27506077
-0.38578555 -0.5836752 -0.43689206 0.8797765 0.85766304 0.8689994 -0.46351415 -0.37430564
0.3038695 0.6850533 0.5421331 0.6058899 0.43526784 -0.53691137 -0.44257873 1.3720871
0.7191352 -0.4890346 0.446845 0.41123727 0.5350892 0.8245914 -0.5324585 0.6368467
0.85453516 0.53101647 0.35930306 0.608616 -0.47860876 -0.5210229 0.50602233 -0.41148266
0.48538214 -0.73498935 1.1420782 -0.49065477 0.3727254 0.39878744 0.27295038 -0.6626375
-0.3195089 0.55707693 0.79263926 0.5593015 0.7648307 -0.46820083 -0.1952703 0.4140897
0.881849 1.1299698 -0.13995185 -0.3204537 0.15324293 -0.55296975 0.5278529 0.9612349
-0.5865556 0.119148806 0.88844055 0.9909759 -0.28069445 -0.31491366 -0.2706681 0.4498332
-0.19998592 0.46804005 0.31444412 0.4173632 -0.3425073 0.3729593 -0.5553733 -0.33436003
0.5485959 -0.3496877 0.488651 0.8832217 0.7960901 0.821497 0.6288142 -0.5728701
00000000: ae29 d73e 07eb 6f3f 4a99 2e3f bccf 5f3f
00000010: 7d31 4c3f 9be3 0e3f e2a3 91be 638c da3e
00000020: acd0 f23e 51e1 2e3f 3617 1a3f da0a 713e
00000030: bac2 d0be 6013 d43e f27b 07bf 23bd 273f
00000040: e957 aa3e 2201 623f d4d8 fc3e c742 5f3f
00000050: ebb1 18bf 727c 0f3f 182d 3c3f 9051 763f
00000060: c454 173f d004 513f 0333 3c3f a74e 503f
00000070: eb28 c7be 1b90 c0be 1721 893f c66a 4c3f
00000080: 8397 4f3f 8910 463f 84bc 5b3f eea4 2a3f
00000090: 0a7b f4be 0bd9 39bf 7b71 c6be 20a5 fe3e
000000a0: fbeb 483f 7ff6 eabe d40c 343f 78ed 2abf
000000b0: 073e eebe bcdc 153f 64e4 c0be 2a5e 4e3f
000000c0: 8734 6a3f 377d ccbe 287a 353f 8c0f 593f
000000d0: 9a91 333f 2fb0 00bf 3857 803f 53fe d03e
000000e0: 827d cfbe f51f e7be 5e84 b7be ee32 e0be
000000f0: 0da8 a63f 0864 12bf d9fc 5d3f 2afd 333f
00000100: 05ed 22bf ddd5 12bf df70 113f b5ac 07bf
00000110: 466a 2d3f adb3 01bf 694c 5f3f adda dabe
00000120: 304b 13be 6984 f4be 035e 16bf 117c 8e3f
00000130: b588 813e a539 513f 0971 253f f63e 01bf
00000140: 5087 383f a186 3c3f 3f57 473f f83f acbe
00000150: 655d a03e 6dda 89be 17cb 453f 3d9d 733f
00000160: 9ed1 a1be 9f1c 483f f1a5 783f 7d48 efbe
00000170: 378b 5a3f fdb5 3a3f 4af4 553f a066 bbbe
00000180: 1b21 0fbf 7373 5e3f d832 eabe f7b7 473f
00000190: dc85 ad3e 1f30 2a3f 85c9 01bf e84c 02bf
000001a0: 430b 00bf 453c 023f 4b21 e43e b440 a03e
000001b0: 60c1 59be 4b4b 393f b39a 843f c511 02bf
000001c0: 90ec ddbe 0b09 1dbf feb2 6b3f d389 3d3f
000001d0: 6e00 aebe 338a e4be 711d 403f 087c bcbe
000001e0: 666e e6be aabe 2f3f cfbc 443f c1cd f7be
000001f0: 29f7 483f 8535 d5be c1cc 80be 8b62 4f3f
00000200: c95c 463f 9cc7 6c3f 1c6a 363f 5170 453f
00000210: aa5c 04bf 6117 8b3f 3204 0cbf 9522 df3e
00000220: 3400 5c3f ff24 653f 24dd d8be 6f6e eabe
00000230: 094b 873f bc7a 2e3f e9f6 cb3e e236 11bf
00000240: 36fe 1f3f 18c3 adbe 3c49 2fbf 4482 173f
00000250: 0ccf 883f 2d99 473f 2037 afbe 5fc6 d5be
00000260: 9a3e 13bf f433 5b3f bb0a f9be c6f0 0b3f
00000270: 10f9 e7be 2869 603f ae46 b3be b6cd 2b3f
00000280: c3a8 173f 1912 613f afc4 523f cdfc 18bf
00000290: 1ed0 4dbe 0375 a5be 699a 643f 1172 10bf
000002a0: 0c19 b7be 0e16 b23e ed4e f23e df36 0ebf
000002b0: 0c97 4a3f d721 5e3f 5410 05bf c4d4 8cbe
000002c0: af85 c5be bd6b 15bf 51b0 dfbe 0839 613f
000002d0: ce8f 5b3f bf76 5e3f ba51 edbe fda4 bfbe
000002e0: c894 9b3e a75f 2f3f 3cc9 0a3f 9a1b 1b3f
000002f0: 6ddb de3e 0673 09bf ae99 e2be 8da0 af3f
00000300: 3f19 383f be62 fabe dec8 e43e b18d d23e
00000310: 9bfb 083f 6c18 533f 334f 08bf 6308 233f
00000320: d1c2 5a3f b2f0 073f 92f6 b73e 42ce 1b3f
00000330: 350c f5be c261 05bf ae8a 013f dbad d2be
00000340: 0284 f83e 4328 3cbf 9e2f 923f 1a37 fbbe
00000350: ddd5 be3e de2d cc3e 27c0 8b3e 9ca2 29bf
00000360: ac96 a3be 989c 0e3f 68ea 4a3f 622e 0f3f
00000370: f2cb 433f 05b8 efbe f0f4 47be 9103 d43e
00000380: dbc0 613f daa2 903f 8a4f 0fbe 8212 a4be
00000390: b7eb 1c3e 6d8f 0dbf 5e21 073f 7e13 763f
000003a0: 8228 16bf 4a04 f43d d770 633f 99b0 7d3f
000003b0: 2fb7 8fbe 5d3c a1be 0295 8abe 8a50 e63e
000003c0: 1cc9 4cbe f2a2 ef3e d2fe a03e a1b0 d53e
000003d0: 1e5d afbe 85f4 be3e f22c 0ebf 3d31 abbe
000003e0: c870 0c3f 440a b3be 7730 fa3e d11a 623f
000003f0: 90cc 4b3f a14d 523f f8f9 203f 9da7 12bf

fc2.weight f4 [256, 256]
0.12984255 0.25124452 0.15459731 0.08374228 0.12467407 0.23808977 -0.10977727 0.05078222
0.18263553 0.18487324 0.21505077 0.11071341 -0.25067616 0.085690394 -0.05291459 0.17102781
0.0674212 0.16595294 0.1318235 0.15557966 -0.2149578 0.12129145 0.13962153 0.13597338
0.12723275 0.13514157 0.032721996 0.12498547 -0.13585706 -0.061936077 0.15689275 0.1387872
0.22400658 0.11866509 0.116514005 0.023849718 -0.1095176 -0.10801953 -0.010742189 0.07424588
0.10443649 -0.13389838 0.19675626 -0.124936305 -0.13250719 0.10802764 -0.038881272 0.1042931
0.17245877 -0.018356947 0.16852063 0.13117601 0.08717735 -0.49796218 0.17825839 0.14095707
0.014801539 -0.22104709 -0.11660319 -0.25604433 0.27981418 -0.11265823 0.17953193 0.3378923
-0.057963785 -0.13794795 0.081215315 -0.12826541 0.13282765 -0.09105295 0.13141389 -0.106418796
-0.01029045 -0.18829545 -0.13575873 0.11108462 0.12172212 0.17278323 0.18701592 -0.11576314
0.1400351 0.18948075 0.07772633 -0.12950787 0.12092958 -0.07129141 0.18499093 0.12903094
-0.03936243 0.14059684 0.16200128 -0.08869908 0.20055087 0.24342452 0.11526073 -0.22592548
-0.09659889 0.16860355 -0.12548688 0.13594896 0.12854123 0.1437718 -0.12744601 -0.13078372
-0.09899932 0.1342217 0.08086679 0.038191937 -0.06948355 0.19153057 0.1599422 -0.14835747
-0.07343684 -0.2685134 0.17716612 0.27772298 -0.16328248 -0.05278363 0.11220126 -0.004123381
-0.14505184 0.14680414 0.076490715 -0.055053413 0.13924012 -0.05496563 -0.0011519335 0.24589242
0.21815085 0.14208978 0.062481783 0.18398243 -0.12909068 0.11264495 -0.15220585 0.1684666
0.18123981 0.19360486 -0.17916563 -0.14272381 0.15828687 0.21884403 0.08075079 -0.060806915
0.15790044 -0.03861978 -0.111351095 0.12958659 0.26535362 0.1799328 -0.49290854 -0.13567409
-0.1802812 0.18371609 -0.19807354 0.16291748 -0.049978152 0.1755319 -0.2630304 0.14887695
0.10746065 0.12733427 0.16309202 -0.13892895 -0.105800994 -0.12572312 0.0590311 -0.044420112
-0.27408743 0.1336515 0.109083086 -0.24482867 0.21121769 0.14925909 -0.07059468 -0.14659172
0.033273656 -0.13566677 -0.07715694 0.14354686 0.14381067 0.033096824 -0.08939157 -0.22418788
0.14348696 0.2201576 0.07918781 0.12353467 0.1143175 -0.00026690034 -0.1575194 0.05052751
0.11260862 -0.08843108 0.06452045 0.10196574 0.047967464 0.1030059 -0.08536983 0.177492
0.1150104 0.065720096 0.03260684 0.15377797 -0.12201314 -0.12245003 0.15023977 -0.12191169
0.030701261 -0.22253838 0.17898884 -0.10614864 -0.06587622 0.09905136 0.08697329 -0.23498908
-0.65865666 0.043564036 0.116872855 0.111242786 0.18581901 -0.7872072 -0.055400908 0.1315833
0.34095216 0.07603725 -0.014499813 -0.0022756474 0.0032311208 -0.14038697 0.13888644 0.21389495
-0.08987225 0.10539213 0.17570387 0.21329327 -0.5414262 -0.11588345 -0.0043996405 0.09478157
-0.11216849 0.04502087 0.02341237 0.09170304 -0.13625802 0.13871467 -0.19753313 -0.049892195
0.15344134 -0.16522126 0.14976896 0.13128084 0.13753773 0.12542337 0.19366916 -0.12891234
00000000: 72f5 043e 1fa3 803e c24e 1e3e 1381 ab3d
00000010: 1e55 ff3d cecd 733e e8d2 e0bd 0401 503d
00000020: cf04 3b3e 694f 3d3e 4536 5c3e b6bd e23d
00000030: a058 80be 727e af3d f8bc 58bd ea21 2f3e
00000040: 2014 8a3d 91ef 293e bdfc 063e 4650 1f3e
00000050: e61d 5cbe a767 f83d f2f8 0e3e 9b3c 0b3e
00000060: 4d49 023e 8d62 0a3e 8007 063d 62f8 ff3d
00000070: 1d1e 0bbe afb0 7dbd 7ea8 203e 3b1e 0e3e
00000080: fb61 653e af06 f33d e59e ee3d 7c60 c33c
00000090: c34a e0bd 5839 ddbd 0200 30bc 390e 983d
000000a0: cce2 d53d a81c 09be 797a 493e 9bde ffbd
000000b0: f7af 07be 983d dd3d f841 1fbd 9f97 d53d
000000c0: 0899 303e 4f61 96bc ac90 2c3e 0153 063e
000000d0: 0a8a b23d e6f4 febe 5e89 363e 0d57 103e
000000e0: 2782 723c 2b5a 62be a7cd eebd 3e18 83be
000000f0: ce43 8f3e 5cb9 e6bd 38d7 373e 3800 ad3e
00000100: 6f6b 6dbd 3a42 0dbe 3754 a63d 0258 03be
00000110: f903 083e f879 babd 5d91 063e 19f2 d9bd
00000120: 4799 28bc 86d0 40be 5604 0bbe 5580 e33d
00000130: 7249 f93d 16ee 303e 1a81 3f3e 3a15 edbd
00000140: 5c65 0f3e 3e07 423e fb2e 9f3d b69d 04be
00000150: eda9 f73d 3b01 92bd 436e 3d3e b020 043e
00000160: 803a 21bd 9ef8 0f3e aae3 253e dda7 b5bd
00000170: 355d 4d3e 4744 793e d10d ec3d 0259 67be
00000180: a4d5 c5bd 69a6 2c3e a27f 00be 3436 0b3e
00000190: 50a0 033e ea38 133e 3581 02be 2bec 05be
000001a0: 28c0 cabd 6a71 093e 7d9d a53d 266f 1c3d
000001b0: 644d 8ebd 9720 443e e3c7 233e 05eb 17be
000001c0: 0e66 96bd 977a 89be 096b 353e b531 8e3e
000001d0: 8633 27be a633 58bd c6c9 e53d 6d1d 87bb
000001e0: 7888 14be d353 163e 2aa7 9c3d b07f 61bd
000001f0: f694 0e3e a423 61bd 79fc 96ba 39cb 7b3e
00000200: f062 5f3e fc7f 113e e6ec 7f3d e465 3c3e
00000210: 5930 04be 65b2 e63d dadb 1bbe 8282 2c3e
00000220: ee96 393e 5a40 463e 3277 37be 3126 12be
00000230: f415 223e a618 603e ac60 a53d ac10 79bd
00000240: a7b0 213e c62f 1ebd 0b0c e4bd 59b2 043e
00000250: 6edc 873e 4e40 383e 825e fcbe 26ee 0abe
00000260: a39b 38be 1220 3c3e cad3 4abe d7d3 263e
00000270: e4b5 4cbd a2be 333e ecab 86be 3373 183e
00000280: 5414 dc3d ea63 023e 9801 273e 6443 0ebe
00000290: 31ae d8bd 90bd 00be 98ca 713d ddf1 35bd
000002a0: 3055 8cbe f0db 083e f466 df3d 5eb4 7abe
000002b0: 7349 583e 60d7 183e f293 90bd 241c 16be
000002c0: f549 083d 3bec 0abe 7504 9ebd f3fd 123e
000002d0: 1b43 133e 8990 073d ed12 b7bd 8291 65be
000002e0: 3fee 123e fe70 613e 382d a23d bfff fc3d
000002f0: 4b1f ea3d c2ee 8bb9 c44c 21be eff5 4e3d
00000300: 599f e63d 5b1b b5bd 4c23 843d 6ad3 d03d
00000310: 8879 443d c2f4 d23d 61d6 aebd 76c0 353e
00000320: 938a eb3d 4298 863d c08e 053d f977 1d3e
00000330: 06e2 f9bd 15c7 fabd 74d8 193e d6ac f9bd
00000340: 3681 fb3c 1ae1 63be da48 373e 7564 d9bd
00000350: 1dea 86bd 70db ca3d 0d1f b23d faa0 70be
00000360: b99d 28bf 3470 323d 095b ef3d 42d3 e33d
00000370: 5747 3e3e 6986 49bf 10ec 62bd c6bd 063e
00000380: 4891 ae3e 6bb9 9b3d a090 6dbc 0723 15bb
00000390: 36c1 533b 9ac1 0fbe 3f38 0e3e 4707 5b3e
000003a0: f10e b8bd d4d7 d73d b7eb 333e 8d69 5a3e
000003b0: e89a 0abf 4d54 edbd dc2a 90bb d71c c23d
000003c0: 98b8 e5bd ce67 383d 4ccb bf3c cece bb3d
000003d0: 3987 0bbe 380b 0e3e 2046 4abe c25b 4cbd
000003e0: ba1f 1d3e c32f 29be 095d 193e 7c6e 063e
000003f0: b1d6 0c3e fc6e 003e 3551 463e 9901 04be
