model_save/bc_q/bc_q80000.pt (torch, 581121 bytes, 10 tensors)

fc1.weight f4 [256, 23]
000000 63 9d 02 bf 9f 7a b7 3f 3e 52 cf 3d 73 d7 35 3e
       -0.51021403 1.4334296 0.10123108 0.17757969
000010 40 e4 a6 bd 16 6e a2 3e 5f 50 fd be 1a 00 a1 bd
       -0.08149004 0.31724614 -0.4947538 -0.078613475
000020 51 7e 85 bd d4 22 ce 3d d0 ce 05 3f 94 6c 82 3d
       -0.065182336 0.10065237 0.52268696 0.06368366
000030 df 5a 94 3d c1 84 a1 bd 4e 20 a6 3d 27 10 95 3a
       0.07243895 -0.07886649 0.081116304 0.0011372612
000040 e1 b3 d4 3c e0 a4 91 bc 25 c8 f5 bd 0d 7f 7c 3d
       0.02596468 -0.017778814 -0.12001065 0.061644603
000050 c4 67 1c bd 9e ec 4e be ff 31 26 3e 87 60 8f 3d
       -0.038184896 -0.2020745 0.1623001 0.07000833
000060 2f 3c 25 3e 09 ff ce 3e 06 72 7e 3d 02 87 64 3e
       0.1613624 0.4042895 0.06212046 0.22317126
000070 83 31 38 be 0f cc 1c be 38 ce 86 bd df f0 32 3e
       -0.17987637 -0.15312217 -0.06582302 0.17474698
000080 65 cb f4 3d 4b c1 38 bc 51 47 84 bd 92 e9 fb 3d
       0.11952857 -0.011276553 -0.06458915 0.123004094
000090 fa 0a a5 3b 99 ba 11 be fc 32 51 3e 7e ef 8f bd
       0.005036709 -0.14231338 0.20429605 -0.070281014
0000a0 69 eb eb bd f0 cd 32 be fc c0 3e be 6c c8 f1 bd
       -0.1151951 -0.17461371 -0.18628305 -0.118058056
0000b0 ab a3 96 3d c6 f1 23 be 66 56 62 be d9 fa 18 3f
       0.07355436 -0.16010198 -0.22103271 0.59757763
0000c0 fb da 50 bd de ed 0a 3e 6e d2 b5 3e 4b 36 d3 3e
       -0.050990086 0.13567302 0.35512108 0.4125236
0000d0 ff 4b 9d bd aa 26 47 bd 73 88 11 3e 42 ba aa be
       -0.07680511 -0.048620857 0.14212207 -0.33345228
0000e0 20 05 13 3e 4a d7 95 bd c9 e2 80 bd 4a 18 5a bb
       0.14357424 -0.07316454 -0.06293256 -0.0033278638
0000f0 70 b8 29 bd ff 4a 26 be 8b df 6f bd 76 5e c5 be
       -0.04143566 -0.16239546 -0.058562797 -0.3854863
000100 5e 67 bd 3d 0b 09 bc be 2e be 59 3e 2f 89 6b 3e
       0.09248231 -0.3672565 0.21263954 0.2300155
000110 1d 5e 6b 3c bd f6 89 bf 01 e8 01 3e f6 d7 87 3c
       0.0143657 -1.0778424 0.12686159 0.01658247
000120 da 23 cc be 6e f0 8f 3c 54 ec 37 bd 70 b0 22 3d
       -0.39871103 0.0175707 -0.044903114 0.039719045
000130 20 7e 18 3e ab 22 2f 3e ac 62 de be 33 cf 7c be
       0.14891863 0.17103069 -0.43434656 -0.24688415
000140 8b a3 18 3e 01 82 81 bd 9c 8b db 3d 41 68 17 3b
       0.14906137 -0.063236244 0.10719988 0.0023102912
000150 da 3f 05 3e 2c 8a 84 3c 98 dc bc bd 6a dd 48 3e
       0.13012639 0.016179167 -0.092217624 0.19615713
000160 2a 55 21 be af 67 a7 3e c3 6d 8c 3d 83 8e 3e 3e
       -0.15755144 0.32696292 0.06856873 0.18609051
000170 f7 88 13 bf 2c 0d c6 3e 3c 87 0f 3f e0 db 80 3d
       -0.57630867 0.38681924 0.56065726 0.06291938
000180 9d 4c ed be 46 f7 71 be 61 e8 bf bf 36 10 07 bf
       -0.46347514 -0.23629484 -1.4992791 -0.5275911
000190 59 81 18 3d 76 28 59 3e 7e 11 bf 3e d0 95 e1 3d
       0.03723273 0.21206841 0.37318033 0.110149026
0001a0 3d 5a c6 bc b0 50 8f 3c 46 38 b0 bd de e6 12 be
       -0.02421295 0.01749453 -0.08604483 -0.14345881
0001b0 49 1b 86 3c e7 88 8d 3e 7c 7e 29 3f b4 02 20 3e
       0.016370432 0.2764351 0.66208625 0.15626031
0001c0 26 eb 7b be f4 bd b9 be 56 64 77 3e ea fe 09 be
       -0.24601421 -0.36277735 0.24159369 -0.13476148
0001d0 9c bf 82 be d2 95 67 3e 82 bf e6 bd b2 6d 3a 3d
       -0.2553681 0.22615746 -0.11266996 0.04551477
0001e0 ad e2 b7 bd 45 c8 67 be ba 75 ef 3d 37 d3 7b 3e
       -0.08978782 -0.2263499 0.116923764 0.24592291
0001f0 20 6a 9a 3e e8 dc 12 3d b8 98 0f 3e 1c db 52 bc
       0.30159092 0.035855204 0.14023101 -0.012869623
000200 fb a7 0a be 17 30 8b 3d 00 04 c8 b9 19 16 32 bd
       -0.13540642 0.06796282 -0.00038149953 -0.043478105
000210 c7 9a 86 3e 70 14 7b bd 09 70 3a be fc a6 03 be
       0.2628996 -0.061298788 -0.182068 -0.12856668
000220 e7 b8 55 3e 27 fe 28 be fe 37 82 be 42 a0 d6 be
       0.20871316 -0.16503201 -0.25433344 -0.41919142
000230 fd c9 98 be c9 26 79 be 3d ca a0 3e 60 0b 08 3f
       -0.29841605 -0.24331202 0.31404296 0.53142357
000240 76 a2 7b bc 2e fc 90 be 99 fe 57 3e 38 f1 80 3d
       -0.015358558 -0.28317398 0.21093215 0.06296009
000250 ac 8e 47 be 30 a7 9a bd 54 11 8c bd af ed 98 3d
       -0.19488019 -0.0755142 -0.068392426 0.074672095
000260 f6 8b 1d be bc 44 c4 bd 95 c5 9d 3c 97 a2 16 3d
       -0.15385422 -0.095834225 0.019259254 0.03677615
000270 15 4f 8c 3d 2c 98 b1 bd 55 d8 a9 be 93 3e 1c be
       0.06851021 -0.086716026 -0.3317286 -0.15258245
000280 e8 1e 07 3e 8e 38 52 3e 77 52 a1 3d b3 42 87 be
       0.13195384 0.20529386 0.07877057 -0.26418075
000290 55 e9 07 bf 8d 51 43 bf 3e fd 88 be 33 85 4f bf
       -0.5309041 -0.7629631 -0.26755708 -0.8106262
0002a0 67 a8 48 bf c0 51 2f be de 8d b8 3e 9f 0e 10 be
       -0.7838196 -0.17121029 0.36045736 -0.14068078
0002b0 75 71 9c 3d f8 c2 f3 bc 97 1f 48 be 3f f7 35 be
       0.07638828 -0.029756054 -0.195433 -0.17770098
0002c0 fa 61 2d bd a9 58 01 bd 62 00 20 3e 02 3b de 3e
       -0.042329766 -0.031578694 0.15625146 0.43404394
0002d0 53 87 02 3f 7a 3c f6 bd 43 9e 31 be 67 0b ae bd
       0.5098774 -0.12023254 -0.17345528 -0.084982686
0002e0 5e fc 73 3f 7c 13 3f 3f ad c6 8a be fe d8 b5 3d
       0.95306957 0.74639106 -0.27104703 0.088792786
0002f0 e4 e0 f8 be 3d 9e f1 3c 82 36 dd bb 3b 68 b2 3e
       -0.48609078 0.0294944 -0.0067508826 0.34845147
000300 a5 6a e2 bd 8c ee 82 bd 4e d2 a1 3e df 9c d9 3d
       -0.11055497 -0.063931555 0.31605762 0.10625624
000310 24 91 59 be 7c 4d 06 be 57 e3 3c be 06 3c 05 3e
       -0.21246773 -0.13115495 -0.18446098 0.13011178
000320 6d 8b 15 3e 29 6e c7 bc e6 11 b0 bd fb ae 43 be
       0.14603968 -0.02434452 -0.08597164 -0.19109719
000330 70 16 1f bd 25 81 c8 3b 5a c0 2f 3e 22 18 c1 bd
       -0.038839757 0.006118911 0.1716322 -0.09428431
000340 02 80 5b 3d 8e 7c a8 3e 65 51 0d 3e a8 af 67 3e
       0.053588875 0.32907528 0.13800581 0.22625601
000350 df dc de bd a7 51 8e 3d 99 a8 6a bc 71 10 29 3e
       -0.108819716 0.06949168 -0.014322423 0.16510178
000360 93 45 46 3e fa 7e 59 be 58 86 fa 3b 6e 57 25 bc
       0.19362478 -0.21239844 0.0076454096 -0.010091646
000370 f6 00 d4 3d fa 84 8e 3d c2 9d 74 38 c6 32 ad bd
       0.10351746 0.06958957 5.8321057e-05 -0.0845695
000380 67 f4 e2 3d 9c a8 be 3d 7a d2 fe 3d 98 7d 55 be
       0.11081772 0.093095034 0.12442489 -0.20848691
000390 56 be 16 3e c5 15 2c be a3 c7 72 bf 2c a6 c7 3f
       0.14721045 -0.1680518 -0.9483587 1.5597587
0003a0 11 c5 64 3e 61 57 ea bd 2e 59 3b 3e f3 dc 5f 3e
       0.223408 -0.114424475 0.18295738 0.21861629
0003b0 72 f4 d0 be eb 34 a0 3e 2a bb 0c be ca 79 c4 3d
       -0.40811497 0.31290373 -0.13743272 0.09593542
0003c0 b8 9e bb 3d b8 bd 4d 3c 9d 2e ac 3d fc 4d 3e 3c
       0.091611326 0.0125574395 0.08407328 0.011615273
0003d0 7e 09 33 3e 9a 86 33 3d df 9a 14 3e 09 ea 08 be
       0.1748409 0.043829538 0.14512204 -0.13370527
0003e0 b4 7f ef bd 32 55 f5 3d 9b e0 04 3e 65 c0 bb 3e
       -0.11694279 0.1197914 0.12976305 0.36670223
0003f0 48 52 8d bd ec 74 1e 3f 29 84 56 be 91 03 ab 3e
       -0.069004595 0.6189716 -0.20948853 0.33401158

fc1.bias f4 [256]
000000 e1 df 4c be 0f c7 63 3f b9 12 44 3f 90 9c 29 3f
       -0.20007278 0.88975614 0.7659107 0.6625452
000010 02 8b d1 3e 15 a9 1e 3f b0 75 b8 3e 55 f3 08 3f
       0.40926367 0.6197675 0.36027288 0.53496295
000020 f6 10 10 bf cf 97 4d 3f 7a 40 87 be c5 45 23 3f
       -0.5627588 0.80309767 -0.2641638 0.63778335
000030 14 00 05 3f 76 91 00 3f 43 a9 86 3f ff af 81 3f
       0.51953244 0.50221956 1.0520405 1.0131835
000040 3b d8 40 bf 80 c4 84 3f 6f 36 22 bf 31 c1 ef 3e
       -0.7532994 1.0372467 -0.6336431 0.4682708
000050 88 d8 19 3f 7e f0 37 3f 46 ce 43 3f 05 e4 14 3f
       0.60096025 0.71851337 0.76486623 0.5816043
000060 c2 d0 07 bf 71 e1 48 3f 3c 4f 7b 3f c8 53 86 be
       -0.53052914 0.78468996 0.9816778 -0.26235795
000070 3c 93 2c bf 3c 96 00 bf 1d 56 fb be d6 4c a6 3e
       -0.6741216 -0.5022924 -0.49089137 0.32480496
000080 14 6a 17 3f 04 2c e7 be 6a dc a3 3f 83 51 e2 be
       0.5914624 -0.4515077 1.280164 -0.44202814
000090 57 8c f8 be 06 3a ac 3e 09 2c 23 3f 81 8e 16 bf
       -0.4854457 0.33638018 0.6373907 -0.58811194
0000a0 2f 0d 82 3f b6 54 37 3f c3 9d 6a 3f ea 02 30 bf
       1.0160273 0.71613634 0.91646975 -0.68754447
0000b0 7b d3 67 3f c1 29 a3 3f dc fc c4 be 85 04 6f 3f
       0.9055707 1.2747117 -0.38474166 0.9336627
0000c0 9c fa 39 3f 76 e8 75 3f 70 68 94 be 4c 02 3a 3f
       0.72648025 0.9605783 -0.2898593 0.72659755
0000d0 5f 21 18 3f 01 f6 0f bf f4 f9 93 be 59 d2 64 be
       0.5942592 -0.5623475 -0.28901637 -0.22345866
0000e0 b6 48 fb be 21 37 e6 be 10 4a 85 3f 21 52 08 bf
       -0.49078912 -0.44963935 1.0413227 -0.5325032
0000f0 b7 2a 3b 3f d4 55 36 3f e7 fe 52 3f ae fe 12 3f
       0.7311205 0.71224713 0.824202 0.5741986
000100 88 ab b1 be d7 19 6a 3f 44 c6 b1 be c2 e0 0c 3f
       -0.3470118 0.9144568 -0.34721577 0.55030453
000110 ea b7 86 3f 34 24 68 3f 4b f2 13 bf 4c ad 64 3f
       1.0524876 0.9068024 -0.57791585 0.8932693
000120 6a b9 0a bf 71 a3 01 bf 09 d2 c5 be 95 51 02 3f
       -0.5418917 -0.50640017 -0.38636807 0.50905734
000130 c7 75 15 3f 0d 00 f4 bc af ba 28 bf b0 27 1e 3f
       0.5838284 -0.02978518 -0.65909857 0.6177931
000140 0c 86 fd 3d 3e fa 50 3f 6b 26 53 3f 58 00 31 3f
       0.12379083 0.8163184 0.82480496 0.6914115
000150 68 61 62 3f e7 20 f0 be f5 47 60 3f 19 2e b1 bd
       0.8842988 -0.46900102 0.876098 -0.086513706
000160 b8 ce 3a 3f 68 d1 cd be b1 a3 57 3f 32 01 89 be
       0.7297168 -0.40198827 0.8423415 -0.26758724
000170 62 58 40 3f 68 00 91 3f 44 e4 21 bf 0b 6e 11 bf
       0.7513486 1.1328249 -0.6323893 -0.5680854
000180 15 84 52 3f 2d 08 20 3f 33 e6 a6 3f c8 7a 45 3f
       0.8223279 0.62512475 1.3039001 0.77140474
000190 20 0e 6e 3f 58 7a 2e bf 1f f1 dc be 66 b9 ea be
       0.92990303 -0.6815543 -0.4315271 -0.45844573
0001a0 4c f0 1e 3f c2 4f 13 bf 54 96 42 3f c3 d8 30 3f
       0.62085414 -0.57543576 0.7601063 0.6908075
0001b0 b8 45 44 3f da 74 b0 3e 01 19 03 3f 27 cd c1 be
       0.7666888 0.3446415 0.5121003 -0.3785183
0001c0 af 8f 5c 3f 74 b9 52 3f 50 f4 2f bf 2f d3 e8 3e
       0.86156744 0.8231423 -0.68732166 0.4547362
0001d0 f8 63 15 3f f2 b6 22 3f 7f 66 6e 3f 50 21 d0 be
       0.58355665 0.635604 0.93125147 -0.40650415
0001e0 af ca 27 bf dc 70 1b 3f b9 a3 57 3f 56 7c 5b 3f
       -0.65543646 0.60719085 0.84234196 0.85736597
0001f0 3c 0f 76 3f 2d 56 17 bf 89 d2 09 3f a6 b2 b7 3e
       0.96116996 -0.5911587 0.53836876 0.35878485
000200 5b 05 13 3f bd 78 33 3f 1b e1 76 3f cf f7 23 bf
       0.57430047 0.70106107 0.96437234 -0.6405
000210 94 b1 07 3f fd c1 39 3f f9 51 30 3f e1 9e d1 3e
       0.5300534 0.7256163 0.6887508 0.40941527
000220 8c 61 fb 3e 90 58 a1 3e 15 13 76 3f 16 33 21 3f
       0.4909786 0.3151288 0.96122867 0.62968576
000230 0a f6 49 3f 41 3c 07 bf f7 a8 1e bf 03 4b ab 3f
       0.7889105 -0.52826315 -0.6197657 1.3382267
000240 6a 73 f4 be ad 71 0c bf 11 db 1b bf dc 48 24 3f
       -0.47744304 -0.54860955 -0.60881144 0.64173675
000250 96 85 6d 3f aa 57 20 bf 22 ff 17 bf e0 bf 23 bf
       0.9278196 -0.62633765 -0.59373677 -0.63964653
000260 a3 e5 2e be 84 f5 85 3f 53 8d 72 3f dd e9 76 3f
       -0.17079787 1.046555 0.94746894 0.964506
000270 0e fb d9 3e be 47 f9 be d3 52 4b 3f 6b 6a e5 3e
       0.42574352 -0.48687547 0.79423255 0.44807753
000280 62 a2 89 3f 3f f1 52 3f 22 81 e0 be 06 1c 04 bf
       1.075268 0.8239936 -0.4384852 -0.5160526
000290 56 96 78 3f e5 b2 f5 be f6 8b 63 3f 10 31 c1 be
       0.97104394 -0.47988048 0.8888544 -0.37732744
0002a0 f6 3a 23 3f 04 94 29 bf d1 80 24 3f f8 ad 6a 3f
       0.6376184 -0.6624148 0.6425906 0.91671705
0002b0 24 23 99 3e c8 d4 8d 3f aa 4b 27 bf 5c ac db be
       0.29909623 1.1080561 -0.6534983 -0.42904937
0002c0 e8 ed 0b bf e5 d9 0a 3f 75 96 d9 be 50 dd 0e 3f
       -0.5465989 0.5423873 -0.42497602 0.55806446
0002d0 f6 a6 bc be f6 75 4f 3f 7e 04 17 3f ad 1d 3a 3f
       -0.3684613 0.8103937 0.5899123 0.7270153
0002e0 de ef 12 bf cc 49 24 3f 1b aa a6 be 8b f9 3f 3f
       -0.5739726 0.64175105 -0.32551655 0.7499015
0002f0 52 51 b1 be 13 0b 0e bf 0c fd 5e 3f dc 10 d4 be
       -0.34632355 -0.5548565 0.8710487 -0.41419113
000300 6c 2b fd be 11 34 17 bf 32 dc 1e bf 5b f5 f1 be
       -0.4944719 -0.5906382 -0.6205474 -0.47257504
000310 f4 5c 27 3f 70 4a 3e 3f d9 a1 58 3f e5 11 fa 3e
       0.6537621 0.7433233 0.8462196 0.48841777
000320 39 b9 24 bf d1 ff 07 3f 9d d7 67 3f 93 97 12 bf
       -0.6434513 0.5312472 0.90563375 -0.57262534
000330 0d f3 38 3f 25 b7 37 3f 7c 32 0b bf a5 6e 27 bf
       0.72245866 0.7176383 -0.5437391 -0.65403205
000340 7a 3e 92 3f 5b 6d fe be 5d 29 64 3f 18 60 79 3f
       1.1425316 -0.49692807 0.89125615 0.9741225
000350 7b 8f fa 3e 35 70 82 3f 8e 44 20 bf e4 40 52 3f
       0.48937592 1.0190493 -0.62604606 0.82130265
000360 48 42 de be 87 87 4b 3f dc 65 6c 3f 4f 3f 84 3f
       -0.43409944 0.79503673 0.92342925 1.033182
000370 60 bd fd 3e 60 54 a8 3e b6 fd 8b 3f 80 3f 70 3f
       0.49558544 0.32876873 1.0936801 0.93846893
000380 b7 f9 0e bf 41 12 c1 bd a0 c6 17 3f bc 30 8b 3f
       -0.55849785 -0.0942731 0.5928745 1.0874248
000390 85 4a 3b 3f 3a e7 a7 3e 36 dc 29 bf 9a cd 35 bf
       0.7316058 0.327936 -0.6635164 -0.7101685
0003a0 43 95 d6 3e 71 bf 3a bf 42 de 23 bf b5 32 e4 3e
       0.41910753 -0.72948366 -0.64011014 0.44569936
0003b0 54 d0 14 bf c5 36 60 3f ae e6 18 bf 8a 19 62 3f
       -0.58130383 0.8758357 -0.5972699 0.8832022
0003c0 45 e1 c8 be 5f f8 f0 3e 9d 7d 6a 3f b2 0b 6e 3f
       -0.39234367 0.47064492 0.9159792 0.92986596
0003d0 b9 fe 73 3f 67 25 6d 3f 26 87 b8 be e4 69 05 bf
       0.9531055 0.92635196 -0.3604061 -0.521147
0003e0 1e 6e 8a bd c9 e0 54 3f 4d cc 2f 3f 4a 5e 7e 3f
       -0.067592844 0.83155495 0.68671113 0.99362624
0003f0 85 df 8c 3f 67 37 90 3f 87 e4 c7 be 19 7c 21 3f
       1.1005713 1.1266907 -0.3904154 0.63079983

fc2.weight f4 [256, 256]
000000 83 91 28 bc e7 ad 97 3d a1 29 58 3d 3f 0d b9 3d
       -0.010288599 0.07406216 0.052774075 0.090357296
000010 00 66 de 3d 24 c9 b4 3c ea 42 14 3d 7c 9a 23 3e
       0.10859299 0.022068568 0.036196627 0.159769
000020 69 6e b4 bc 6f 10 e9 3d 61 90 67 3b 6b 23 d2 3d
       -0.022025304 0.113800876 0.003533386 0.10260662
000030 c2 1e e0 3d d7 5e ea 3d ac 5b eb 3d 2b 94 77 3d
       0.109433666 0.114438705 0.114920944 0.06044404
000040 9a 55 9a bb 29 ff 20 3e 4b b5 13 bd 89 43 25 3d
       -0.0047099115 0.15722336 -0.036061566 0.04034761
000050 1a f7 f4 3d 0c b3 54 3d c8 66 c1 3d e3 c3 c1 3c
       0.119611934 0.051928565 0.09443432 0.023652976
000060 ba 1e df bc 36 e4 9c 3d f0 9e 2d 3e a0 fe 03 bd
       -0.027236331 0.07660715 0.16955161 -0.03222525
000070 0b 4e 6e 3c 32 35 16 3e 0b 30 a0 bd 47 2a 04 bc
       0.014544974 0.1466873 -0.078216635 -0.00806672
000080 e9 01 56 3d 0f 6c 59 3d d9 30 02 3e 21 cb 90 bc
       0.052247915 0.05308157 0.12713946 -0.017674984
000090 9d 8b b2 bc eb d3 5d 3d c0 c0 81 3d 3e 89 7b bc
       -0.021795088 0.05415718 0.06335592 -0.015352545
0000a0 fd 08 6a 3e cf 72 0a 3e f8 14 bc 3c 10 67 d3 3c
       0.22854991 0.13520359 0.022959217 0.02580598
0000b0 b0 44 6a 3d ab 7f 1a 3e d4 dc 7e be bb 2a 00 3e
       0.05719441 0.15087764 -0.24888927 0.125163
0000c0 ad d0 0b 3e fe 7b ff 3d cc 7d 16 3d 38 cd 26 3e
       0.13653822 0.124748215 0.036741063 0.16289222
0000d0 b9 a6 e6 3d 05 9d 92 bc e9 af 3f 3d fe ae 93 3c
       0.112622686 -0.017897138 0.04679862 0.018027779
0000e0 41 f2 a2 bd 12 2a 20 3d f6 66 22 3e 9d 51 8c 3d
       -0.079563625 0.03910262 0.15859589 0.06851504
0000f0 3c ef e8 3d 92 b1 2c 3c ad 3c f6 3d e6 11 44 37
       0.11373755 0.010540383 0.12023292 1.1686678e-05
000100 b5 e6 8f 3b 4d 32 95 3d 30 b0 d6 3d c2 4f 0f 3e
       0.004391516 0.07284985 0.10482824 0.13995269
000110 05 05 c5 3d 1a ee ef 3d 40 e5 3d 3b 01 ac c0 3d
       0.09620098 0.11715336 0.0028975755 0.09407807
000120 b8 40 75 bd 49 81 c0 bd cc b1 17 3d 3a bf 42 3d
       -0.059876174 -0.09399659 0.037034795 0.04754565
000130 4d 18 cd 3d b2 93 64 3d 97 07 d0 3d ef 87 c6 3d
       0.10014401 0.055804916 0.10157698 0.09693896
000140 c3 39 55 3b ea b3 25 3e 04 d3 19 3e 41 fb e5 3d
       0.003253565 0.16181913 0.15021902 0.112295635
000150 93 c7 92 3d 6c 44 5c 3c c3 87 0b 3e a5 6e 08 3d
       0.07166972 0.013444047 0.13626008 0.033308644
000160 95 52 38 3c 82 09 ed 3d 26 77 0b 3e 38 5b 6a 3d
       0.011250158 0.11574079 0.1361967 0.0572159
000170 83 30 00 3e c1 7c 4c 3e eb 23 42 bc 2e 12 68 3d
       0.12518506 0.19969465 -0.011849384 0.056657963
000180 2a 33 16 3e 59 49 e8 3d ae 7a 2a 3e 28 71 ac 3c
       0.14667955 0.11342115 0.16648361 0.02105005
000190 a7 74 02 3e 27 64 0d be ce b8 9f 3d d1 f6 22 3d
       0.12739812 -0.13807736 0.077989206 0.039786164
0001a0 f1 20 5b 3d 5c 70 f0 3d 32 ee 18 3e 5a bb b3 3d
       0.053498212 0.11740181 0.14934614 0.08775969
0001b0 2e 81 f8 3d 32 86 0d 3d a7 68 79 3d 19 3c a8 bc
       0.12134014 0.034551807 0.06089082 -0.02053647
0001c0 23 c4 53 3d 0a 1a fa 3d 2d c9 18 3d c9 46 03 3e
       0.051700722 0.12211998 0.03730123 0.12819971
0001d0 a4 97 1b 3d b4 64 be 3d eb 14 47 3d 74 79 7d 3d
       0.037986413 0.09296551 0.048603933 0.061883405
0001e0 fd da 00 bc 33 e4 04 3d 05 cf 1a 3e 85 db fc 3d
       -0.007864711 0.03244419 0.15118034 0.123465575
0001f0 5f 4b 40 3d 85 64 e7 bc 62 d2 62 3d 31 09 e7 3d
       0.04694688 -0.028246174 0.055376418 0.1128105
000200 f8 c8 cd 3d f1 10 82 3d 0b 91 84 3e 8c 5c 30 bd
       0.10048097 0.063508876 0.2589191 -0.04305701
000210 46 17 5c bb 2b c8 57 3d bf ee 63 3d 8a 35 4d 3d
       -0.0033583208 0.05268113 0.055647608 0.050099887
000220 22 30 f0 3b cb bc 69 3c de 7d 0f 3e ca 09 a5 3d
       0.0073299566 0.014266203 0.14012858 0.08058508
000230 4a d6 be 3d 9a a2 3a bd e4 b0 36 3d a0 0d bb 3e
       0.09318216 -0.045565225 0.04460229 0.36533833
000240 e1 a6 8b bb cf 69 70 3d d7 65 cd bc db 81 b8 3c
       -0.004261837 0.058694657 -0.025072975 0.022522857
000250 d2 e1 2b 3e 8b 39 8a bd bb b4 33 bd 31 e2 b3 bc
       0.16785362 -0.06749257 -0.04387353 -0.021958442
000260 02 60 12 3e 70 57 2b 3e 4e 0b 1a 3e 41 4c 05 3e
       0.14294437 0.16732574 0.15043375 0.1301737
000270 bd 70 1a 3d e1 48 1d bb e1 78 82 3d 66 5e 93 3d
       0.03770517 -0.0023999738 0.06370712 0.071957394
000280 b9 61 b1 3d ab 10 b1 3d 84 73 c0 3d 37 87 10 3e
       0.08661217 0.08645757 0.09397033 0.1411408
000290 f6 96 01 3e 5b 4d 61 3d 92 9e d3 3d 83 ed 39 bd
       0.12655243 0.055005413 0.10332979 -0.045392524
0002a0 5a 35 20 3e c7 38 23 bd 67 4e 6a 3d b9 7e 14 3c
       0.15645352 -0.03984907 0.057203677 0.009063416
0002b0 01 20 62 3d 00 02 2a 3e 51 dc 8a 3c bc 2f ae 3d
       0.055206303 0.16602325 0.016950758 0.08505198
0002c0 26 6e 00 bc a2 c1 ea 3d 23 db 68 bc 19 2c c5 3d
       -0.007838761 0.11462714 -0.0142124025 0.096275516
0002d0 67 35 da 3c 22 ba c3 3d 30 d9 c0 3d b8 95 76 3d
       0.026636792 0.095569864 0.09416425 0.060201377
0002e0 f5 f5 9e bd e1 34 f8 3d 64 de 81 3d 0c 03 1d 3c
       -0.07761756 0.12119461 0.06341246 0.009583246
0002f0 66 01 da 3a 9f 9c 1f 3d 56 7b 5f 3d 8f 54 9f 3b
       0.0016632497 0.038967725 0.05456098 0.004862375
000300 c4 fa 77 bd d2 3c 95 bc c3 29 d0 3c 19 58 32 bd
       -0.060541883 -0.018217478 0.025410539 -0.043541048
000310 ff d3 88 3c e4 ed 2d 3e bb 64 01 3e 97 8c 82 3d
       0.01670265 0.1698528 0.12636082 0.06374472
000320 c2 d3 0f bd 88 b3 ad 3c ec 60 ce 3d 65 19 48 bd
       -0.035114057 0.021203771 0.1007708 -0.048852343
000330 8a b4 f6 3d b9 22 31 3e bc 06 98 3c b0 2e 40 be
       0.12046154 0.17298402 0.018557899 -0.1876781
000340 d1 ea c2 3e 74 0f de bc 17 52 d9 3d 36 69 21 3e
       0.38069776 -0.027106978 0.106113605 0.15762791
000350 9b 3a 8b 3d 59 11 6a 3d cf 94 22 3c 79 d5 0e 3e
       0.067982875 0.05714545 0.009923174 0.13948621
000360 01 80 30 bb 2b f1 18 3e 61 39 23 3e 73 49 71 3d
       -0.0026931765 0.14935748 0.15939857 0.058907937
000370 b7 77 78 3d ad 82 f4 3d f8 78 41 3e 90 a0 d5 3d
       0.060661044 0.11938987 0.18893802 0.104310155
000380 5e 9d 68 be 13 59 d4 3d f3 10 10 3e 53 5c 2d 3e
       -0.22716281 0.10368552 0.14068966 0.1692975
000390 53 ce 00 3e ab 34 e6 bb 75 57 1f bd 7e 0b 42 be
       0.12578706 -0.0070253215 -0.038901765 -0.18949696
0003a0 f9 db ea 3d b8 85 7c bc 86 26 b7 bc 06 f9 01 3e
       0.11467738 -0.01541274 -0.022357237 0.12692651
0003b0 bf 65 b5 3d 1b 55 6e 3d 6b 26 8b bd 27 f0 b3 3d
       0.08857297 0.05818663 -0.06794437 0.0878604
0003c0 cd cc 9c 3d 82 ce 1d 3d fe c6 ff 3d 67 d3 1c 3e
       0.0765625 0.03852702 0.124891266 0.15315019
0003d0 d0 8f 64 3d 83 7e 78 3d c7 75 37 3d c7 0c 28 be
       0.055801213 0.060667526 0.044790056 -0.16411124
0003e0 66 75 5f 3d d9 64 00 3e 04 09 0d 3e 05 79 02 3e
       0.05455532 0.1253847 0.1377297 0.12741478
0003f0 f5 43 ee 3d 3e ac d6 3d 8c 28 dc 3d 79 f0 2a 3d
       0.116340555 0.10482071 0.10749921 0.04173324

fc2.bias f4 [256]
000000 50 e1 3a 3f fc e1 3b 3f 5a 78 45 3f d2 bc b2 be
       0.7300005 0.733917 0.77136767 -0.34909683
000010 6a 13 47 bd 3b a5 39 3f 2e 48 45 3f e9 42 39 3f
       -0.0486025 0.72517747 0.7706326 0.7236772
000020 65 ee 4c 3f 1d 40 55 3f fe 3d 45 3f cd 1b 45 3f
       0.8005126 0.83300954 0.7704772 0.76995546
000030 30 6d 58 3f 0b 9f 50 bd 57 af e8 be 17 d6 0d bf
       0.84541607 -0.050932925 -0.45446274 -0.554048
000040 7c 8c dc bc da cb 6f be 52 49 e8 be fb 83 f2 be
       -0.026922457 -0.23417607 -0.4536844 -0.47366318
000050 d2 a4 4c 3f 69 cc 3c 3f 65 c8 48 3f ec 12 47 3f
       0.79938996 0.73749405 0.7843078 0.7776325
000060 16 35 9c be 4e 2e 8c be 1e b0 50 3f 2d 6a 52 3f
       -0.3050925 -0.27379078 0.81518734 0.8219326
000070 40 6d f7 be e4 35 58 bc bb ef 39 3f f2 00 8d bc
       -0.4832554 -0.013196442 0.72631425 -0.017212365
000080 43 32 01 bf a2 97 13 be ec ec 0e bf 9a f2 6e 3e
       -0.5046732 -0.14413312 -0.55830264 0.23334733
000090 cc d5 9f be f5 55 ca be 56 b0 ef 3c 09 a5 bb be
       -0.31217802 -0.39518705 0.029258888 -0.3664935
0000a0 91 40 40 3f 6b a0 c1 be 61 a6 1c be ab a5 41 3f
       0.7509852 -0.37817702 -0.15297844 0.75643414
0000b0 6a 4d 39 3f a8 a2 47 3f ac db e6 be cd dd 3b 3f
       0.7238375 0.7798257 -0.4508947 0.73385316
0000c0 ce 3a 36 3f c4 71 49 3f 19 05 49 3f da 1f 4a 3f
       0.7118348 0.7868922 0.78523403 0.7895485
0000d0 7b 55 86 bd c0 94 51 3f 55 be 53 3f 7d 97 34 3f
       -0.06559273 0.818676 0.827123 0.7054365
0000e0 5d 69 0e be 1b 16 3c 3f 06 0c 64 be 23 ea 40 be
       -0.1390738 0.7347123 -0.22270212 -0.18839316
0000f0 09 18 35 bc b2 2e 07 bf 84 ad 29 be d9 2f 11 bf
       -0.011053094 -0.52805626 -0.16570097 -0.56713635
000100 c3 19 4a 3f 09 06 d8 be 73 81 50 3f 1c 9e 50 3f
       0.7894556 -0.42192104 0.81447524 0.81491256
000110 ab a4 4a 3f d2 2c 39 3f b2 2c 38 3f 8b 03 52 3f
       0.79157513 0.72334015 0.719432 0.82036656
000120 69 34 eb be 82 dc 3a 3f 8a 47 03 bf d4 da e1 ba
       -0.45938423 0.7299272 -0.51281035 -0.0017231354
000130 d3 77 07 bf 97 f2 4f 3f e9 84 c8 be 6b 15 04 bf
       -0.5291721 0.8122954 -0.39163902 -0.5159518
000140 cc 28 d6 be a9 da b5 be 67 7b 45 3f 86 1e 56 3f
       -0.41828 -0.35518387 0.7714142 0.83640325
000150 40 b9 99 bd 23 0f 40 3f db 7d f6 be 36 3b 43 3f
       -0.07506037 0.75023097 -0.48142895 0.76262224
000160 3d 85 e7 be 3c 71 39 bd 66 d8 2f 3f 28 f3 50 3f
       -0.4521884 -0.045274004 0.6868957 0.81621027
000170 61 11 51 3f bd 4e 41 3f 3d ca 8a bc 1d 10 7c be
       0.81667143 0.7551077 -0.016942138 -0.24615522
000180 c6 9b 41 be 74 d8 84 be fe 9c dd be d3 69 49 3f
       -0.18907079 -0.2594639 -0.43283838 0.786771
000190 40 58 54 3f ee f5 41 3f 89 cb 37 3f 8c 7f d1 be
       0.8294716 0.75765884 0.71794945 -0.40917623
0001a0 7e db 1e bf 0b 1f cb be 2c 2e 6e be 2d ba 3d 3f
       -0.6205367 -0.3967212 -0.232598 0.74112207
0001b0 f7 2f 18 3d 58 ae 8c bc e8 8d 95 be ef c3 42 3f
       0.037155118 -0.017172977 -0.29209828 0.7608022
0001c0 9f cb 25 bf 67 c6 51 be a4 2f 49 3f 41 c7 c0 be
       -0.64763826 -0.2048584 0.7858832 -0.3765202
0001d0 9e 80 66 3f 37 fa 44 3f 6e ed 4e 3f 3e d8 a6 bc
       0.90040004 0.769443 0.8083104 -0.020366784
0001e0 78 40 32 3f c4 e1 37 3f bf 05 58 3f 87 30 d4 be
       0.6962962 0.71828866 0.8438377 -0.41443273
0001f0 ef 9f 3d 3f e9 1f 6d be 45 73 0e bf a7 a3 f2 be
       0.74072164 -0.23156704 -0.5564464 -0.47390482
000200 26 e3 35 3f 02 25 45 3f cd 3f 44 3f a8 7b 46 3f
       0.71049726 0.77009594 0.7665985 0.77532434
000210 22 a0 36 3d 9c 0a 55 3f 71 33 20 be f9 0c 5e 3f
       0.04458631 0.83219314 -0.15644623 0.86738545
000220 b6 12 2a bf 11 51 3e 3f 9e 24 8e be 71 94 40 3f
       -0.664348 0.7434245 -0.27762312 0.75226504
000230 e6 53 42 3f 32 db 52 3f 83 e9 3d 3f 7e ec 41 be
       0.7590927 0.82365716 0.74184436 -0.18937871
000240 01 18 3c 3f a5 e7 09 bf c6 44 d3 3f 9c 5d 47 3f
       0.7347413 -0.53869087 1.6505363 0.7787721
000250 90 a4 ee be 7b 71 2e 3f 17 1d fb be d9 96 91 be
       -0.46609926 0.6814191 -0.4904563 -0.284354
000260 15 7a 37 3f dd 1f 4d 3f e7 a9 3e 3f c6 2e 4f 3f
       0.7167066 0.80126745 0.74478 0.80930746
000270 3c 50 4d be c2 3c 47 3f c9 7a 56 3f ec d3 45 3f
       -0.20050138 0.77827084 0.83781105 0.7727649
000280 ce f3 41 3f 6e c5 37 3f ba 6c 44 3f ab e7 57 3f
       0.7576264 0.7178563 0.76728404 0.8433787
000290 57 43 4b 3f 51 ee 3f 3f 24 41 5a 3f 91 82 49 3f
       0.7939963 0.74973017 0.85255647 0.78714854
0002a0 8b b2 d4 3c c7 5f c0 be d1 71 3f 3f 87 41 75 be
       0.025964042 -0.37573072 0.74783045 -0.23950778
0002b0 16 0a 1e be 4e d6 e8 be 2d e4 0e be 8e 90 38 3f
       -0.15433535 -0.45476002 -0.1395423 0.7209557
0002c0 8f 25 47 3f cc 63 45 3f e5 d3 5b 3f d0 37 f8 be
       0.77791685 0.771054 0.858702 -0.48480082
0002d0 ae f5 43 3f 2f 65 6b be eb 96 52 3f 45 6b 96 be
       0.7654675 -0.22987817 0.8226153 -0.29378715
0002e0 fa 7d 1c 3d cd 6d bf be f5 b1 44 3f 16 b6 e1 be
       0.038206078 -0.3738846 0.7683404 -0.44084233
0002f0 e1 07 51 3f d3 97 15 bf 77 b5 54 3f f5 81 8d bd
       0.8165265 -0.5843479 0.83089393 -0.06909553
000300 39 50 42 3f f5 c3 4b 3f 94 bf 4e 3f 17 86 ac be
       0.7590366 0.7959588 0.80761075 -0.33696052
000310 dc 94 3b 3f c0 c5 37 3f fe 8a 49 3f 0b d4 34 3f
       0.73274016 0.7178612 0.7872771 0.7063605
000320 90 e9 be be f2 92 97 be b2 9d 40 3f 81 5b 4c 3f
       -0.3728757 -0.29604298 0.75240624 0.79827124
000330 dc 8b 3d 3f 11 01 24 bc 3f c3 56 3f 27 ea 3c 3f
       0.74041533 -0.01001002 0.8389167 0.7379479
000340 4b c0 ed be 00 71 40 3f 4a 15 42 3f 50 9d 43 3f
       -0.4643577 0.75172424 0.75813735 0.76411915
000350 45 b2 2c 3d e5 95 52 3f c6 72 82 be 37 94 4d 3f
       0.0421622 0.8225997 -0.2547819 0.8030428
000360 29 a2 0c bf 22 0a 3b 3f 9d cf ee 3f e2 c7 4a 3f
       -0.54934937 0.73062336 1.8657109 0.79211247
000370 b5 87 33 3f 6f 89 cb be 2d 1a cc be f2 84 14 bf
       0.7012895 -0.3975329 -0.3986372 -0.5801536
000380 ea 6b 5b 3f da 08 03 bf 8e 4f fc be f5 16 ab bc
       0.8571154 -0.5118538 -0.49279445 -0.02088497
000390 5a 7c 4c 3f 72 1d 51 3f e1 b7 c3 bc 89 34 45 3f
       0.79877245 0.81685555 -0.023891391 0.7703329
0003a0 ed 82 3a 3f 0a 80 3d 3f 8b c2 48 be 6c 41 62 bf
       0.72856027 0.740235 -0.19605462 -0.88381076
0003b0 66 96 47 3f 82 2f 49 bd c1 5c 49 3f f0 60 05 bf
       0.77963865 -0.049117573 0.78657156 -0.5210104
0003c0 82 9b 49 3f e0 36 12 be c0 e1 3b 3f 55 20 3f 3f
       0.7875291 -0.14278746 0.7339134 0.7465871
0003d0 eb 91 33 3f c3 3f 7e 3f 91 e0 8b be 52 97 3e 3f
       0.7014453 0.9931604 -0.27319768 0.74449646
0003e0 95 88 4d 3f 89 78 43 3f 70 08 43 3f 1b 60 4f 3f
       0.8028653 0.763558 0.7618475 0.8100602
0003f0 7f 82 56 3f b7 e0 78 bd 98 ff af be d8 1f 48 3f
       0.8379287 -0.06076118 -0.3437469 0.7817359

fc3.weight f4 [1, 256]
000000 df 01 3f 3e 78 e2 75 3e ae 22 22 3e 6c a3 67 bf
       0.18653058 0.24012172 0.15833542 -0.90483737
000010 0e eb 60 bd 37 4e 27 3e aa d3 1d 3e 5c 83 11 3e
       -0.054911666 0.1633843 0.15412775 0.14210266
000020 8d db 35 3e d2 30 06 3e 29 fe 67 3e 8b 00 47 3e
       0.17759533 0.13104561 0.22655548 0.19433801
000030 6f 08 54 3e 73 3a 9d bc 4d a8 09 bf a9 1d 6d be
       0.20706342 -0.01919291 -0.5377243 -0.23155846
000040 55 7b 34 bd 9d 5e 22 bf 2e 56 23 bf d3 59 1e bf
       -0.04406293 -0.6342562 -0.63803375 -0.6185581
000050 00 3e 20 3e 2f a6 67 3e 53 68 39 3e 06 e5 64 3e
       0.15648651 0.22621988 0.18106203 0.2235299
000060 31 f5 25 be ce e5 5f be 0c 88 36 3e 17 92 23 3e
       -0.16206814 -0.21865007 0.17825335 0.15973698
000070 e9 ac 94 bf 3e e6 08 bd 4c 58 57 3e 9f 4c 06 bc
       -1.1615268 -0.0334227 0.21029776 -0.008196979
000080 71 2d 2e bf b1 c2 97 bf c0 df 04 be 75 21 f1 be
       -0.6803809 -1.185629 -0.12975979 -0.47095838
000090 58 44 10 bf ab 02 2a be b9 51 e7 3e 17 ba 9b bf
       -0.56354284 -0.1660258 0.45179537 -1.2166165
0000a0 5b ea 4e 3e 07 c8 86 bf c0 59 59 be b8 fe 49 3e
       0.20206587 -1.0529794 -0.21225643 0.19726074
0000b0 73 e4 55 3e 81 84 27 3e 48 ae 0e bf 3c 71 37 3e
       0.20887928 0.1635914 -0.5573468 0.17914289
0000c0 d6 6b 41 3e 17 bf 29 3e 10 e1 2c 3e 01 39 50 3e
       0.18888792 0.16576801 0.1688273 0.20334245
0000d0 cb 2f 00 bf b6 35 21 3e 71 2a 4a 3e 77 79 35 3e
       -0.50072926 0.15743145 0.19742753 0.17722116
0000e0 fc a9 2c be d6 78 53 3e 32 14 1f bf 36 f9 6e bf
       -0.16861719 0.20651564 -0.6214019 -0.93349016
0000f0 35 93 30 bd 00 f0 93 be 7a 08 83 bf 50 4c 02 be
       -0.043109138 -0.28894043 -1.0236962 -0.12724423
000100 60 74 35 3e 80 3c 1c bf ee 80 2a 3e 21 2b 03 3e
       0.17720175 -0.61029816 0.16650745 0.12809421
000110 be 6b 41 3e c8 e8 46 3e 5b 7c 2d 3e 52 b0 43 3e
       0.18888757 0.19424736 0.16941969 0.1911023
000120 27 b2 8d bf 78 14 4c 3e 20 36 aa bf 87 3b 6b bf
       -1.1069993 0.19929683 -1.3297768 -0.91887707
000130 8f 7b 69 be fc 99 5b 3e b1 83 2b bf 62 e9 d3 be
       -0.2280104 0.21445459 -0.6699782 -0.41388994
000140 ee bf 33 bf c4 0c f6 be 3a bb 5d 3e 00 55 3a 3e
       -0.70214736 -0.48056614 0.21653453 0.18196487
000150 20 4a a5 bc 30 fc 4f 3e 66 da 6f bf 26 ba 62 3e
       -0.020176947 0.20311046 -0.93692625 0.22141322
000160 51 2b c6 be 36 fe 1b 3b 4b 09 36 3e 37 d1 40 3e
       -0.38704923 0.0023802645 0.17776982 0.18829809
000170 41 66 80 3e c9 a9 43 3e 7c ac 6e bb 8f 76 10 bf
       0.25078014 0.19107737 -0.0036418727 -0.56430906
000180 c1 51 47 bf 55 56 65 bf 97 2d bd be 96 a6 48 3e
       -0.7785912 -0.8958486 -0.36948845 0.19594797
000190 af 3b 5c 3e c2 c9 49 3e 65 53 25 3e 5d b7 33 bf
       0.21507142 0.19705871 0.16145094 -0.70201665
0001a0 2c 7f 85 be c4 71 8d bf 4d 52 61 bf ea 91 33 3e
       -0.26073587 -1.1050344 -0.88016206 0.1753613
0001b0 a1 cc 09 bd ab 90 8d bc bb 83 2b bf 49 13 54 3e
       -0.033642415 -0.017280897 -0.6699788 0.20710482
0001c0 bb f2 44 be 78 35 34 bf 68 6c 4e 3e af de f2 be
       -0.1923322 -0.70394087 0.20158541 -0.4743552
0001d0 19 02 8c 3f 68 20 3f 3e 6f b5 46 3e 16 80 12 bf
       1.093814 0.18664706 0.19405149 -0.57226694
0001e0 6a 05 28 3e 5c f0 37 3e 2f 65 15 3e 00 42 0b bf
       0.16408315 0.17962784 0.1458938 -0.54397583
0001f0 43 23 59 3e 7b 32 26 bf 04 62 44 be 04 85 9d bf
       0.21204858 -0.6492078 -0.19178015 -1.2306218
000200 95 d9 e4 3e 58 40 40 3e 9c e5 1d 3e 07 78 14 3e
       0.44697252 0.18774545 0.1541962 0.14498912
000210 8d 13 fc bc 0c 39 71 3e 14 3c f6 bf c6 70 37 3e
       -0.030771041 0.23556918 -1.9237084 0.17914113
000220 f8 2c a8 bf a9 1a 44 3e de 42 79 bf 30 c4 48 3e
       -1.3138723 0.19150795 -0.97367656 0.1960609
000230 41 be 63 3e 51 1c 7c 3e 2b 2a 6b 3e f8 0b 65 bf
       0.22240545 0.24620177 0.22965305 -0.8947139
000240 2c 69 63 3e ca 74 1c be ea b2 de 3f ba 45 24 3e
       0.22208089 -0.15278926 1.739835 0.16042224
000250 4d cb aa bf 26 a4 15 3e 63 c5 25 be b7 31 b7 bf
       -1.3343292 0.14613399 -0.16188578 -1.4312047
000260 69 4e 65 3e 2b ba 0f 3e 54 eb 10 3e 5f 17 04 3e
       0.22393192 0.14035861 0.1415227 0.1289954
000270 da 16 5a bf be 55 23 3e e0 a9 37 3e 3d d4 4d 3e
       -0.8519112 0.15950677 0.17935896 0.20100494
000280 cf f0 67 3e 0f 79 3b 3e f9 4c 3c 3e be 43 35 3e
       0.22650455 0.18307899 0.18388738 0.17701623
000290 fc 1d 31 3e 62 1e 73 3e 16 31 5e 3e ff 2c 5e 3e
       0.17296594 0.23742059 0.21698412 0.21696852
0002a0 43 df 98 bc 0c 69 df bd a1 b4 77 3e 0f 1b 82 bf
       -0.018661147 -0.10908708 0.24189998 -1.0164508
0002b0 37 ae 7e bf a2 f2 0a be 90 b5 89 bf bf 91 5a 3e
       -0.9948458 -0.1356912 -1.0758533 0.2134466
0002c0 b3 20 4f 3e 39 00 3b 3e b5 30 98 3e 57 17 60 bf
       0.20227318 0.18261804 0.2972466 -0.87535614
0002d0 4b 42 45 3e 32 dc 41 bf e2 c8 3a 3e 31 8b 8c bf
       0.1926357 -0.75726616 0.18240693 -1.0979978
0002e0 f2 22 48 bd 3d c8 92 bf 61 74 45 3e 3f 43 b8 bf
       -0.04886145 -1.1467358 0.19282676 -1.4395522
0002f0 60 19 42 3e 0c fd 5d be 5d 5a 91 3e 1c 58 65 bc
       0.18954992 -0.21678561 0.28389254 -0.013998058
000300 b8 83 38 3e 27 8e 63 3e a3 7b 5e 3e 39 3a bf be
       0.18018997 0.22222196 0.21726851 -0.37349108
000310 93 e3 6a 3e e6 88 24 3e 22 1e 1a 3e f4 b2 34 3e
       0.22938375 0.16067848 0.15050557 0.1764639
000320 80 28 b9 be 59 12 86 bf 02 8e 34 3e 2a 6f 13 3e
       -0.36163712 -1.0474349 0.17632297 0.14397874
000330 8a 40 22 3e 89 31 fe bc bf 62 91 3e 4f 47 10 3e
       0.15844932 -0.03102948 0.2839565 0.14089702
000340 e0 cc ca be 90 62 3f 3e fb db 62 3e d3 05 28 3e
       -0.39609432 0.18689942 0.22154228 0.16408472
000350 07 b5 98 bc 91 39 38 3e 91 1c 7f bf d5 c8 65 3e
       -0.018641008 0.1799071 -0.99652964 0.22439893
000360 a0 40 cf be 0a c1 47 3e 57 ce 18 40 4a 23 51 3e
       -0.40478992 0.19507232 2.387594 0.20423618
000370 84 42 2b 3e bb c2 17 c0 82 e3 93 bf 07 fd a7 bf
       0.16724592 -2.3712604 -1.1553805 -1.3124093
000380 11 cb 56 3e d0 0a 17 bf 86 50 30 bf f3 e9 2e bf
       0.20975901 -0.59000874 -0.6887287 -0.6832573
000390 8a a1 8c 3e c3 e9 07 3e 69 bb 20 39 92 ee 41 3e
       0.27466995 0.13272767 0.00015328605 0.18938664
0003a0 e1 b0 51 3e af d9 5d 3e 3b b6 89 bf 8d 86 39 3f
       0.2047763 0.21665071 -1.0758737 0.72470933
0003b0 3b 89 3a 3e 1b 41 1b bd b3 03 79 3e 52 40 7a be
       0.18216412 -0.037903886 0.24317817 -0.24438599
0003c0 f0 2d 1a 3e a5 6e 41 bf de 69 37 3e ac b7 74 3e
       0.15056586 -0.75559455 0.17911479 0.2389819
0003d0 c2 fe 48 3e fb 53 5b 3f 25 f8 6b bf 7d be 3e 3e
       0.19628432 0.8567502 -0.92175514 0.18627353
0003e0 d9 29 4a 3e 7d ef 11 3e d3 24 31 3e 5c 0b 85 3e
       0.19742526 0.14251514 0.17299204 0.2598523
0003f0 ae fb 5a 3e 4e 66 66 bd 93 b4 4c be 2f 45 1c 3e
       0.2138507 -0.05624991 -0.19990759 0.15260766

fc1.weight f4 [256, 23]
000000 a6 91 8a 3f 39 c6 cb bc 99 f7 23 3d ca f2 6d bc
       1.0825698 -0.024874793 0.04003105 -0.014523217
000010 47 72 9a 3d 03 32 54 3a 24 69 8e 3e 4d e7 4f be
       0.07541328 0.00080946105 0.2781459 -0.20303078
000020 85 c7 92 3e 51 5e a7 3e 88 61 6f bd d0 b7 33 be
       0.28667846 0.32689145 -0.058442622 -0.17550588
000030 d2 66 2a 3e ad 13 92 3d d1 43 dc bd 4b ef d3 3d
       0.16640785 0.07132659 -0.107551225 0.10348376
000040 fb cf 1f bd 3b 60 4c 3e b4 5f 05 3e 6b b6 f4 3c
       -0.039016705 0.19958584 0.13024789 0.02987214
000050 27 ce f5 3b 20 12 b3 bd 5e 31 bd 3d 8a f6 36 3e
       0.007501382 -0.087436914 0.09237932 0.17867485
000060 b8 01 dc be 72 71 77 3e ef c4 1e bd 4b 45 0f 3d
       -0.4297006 0.2416437 -0.03876203 0.034978192
000070 c2 f5 e3 3d 5e 8c 46 3c 43 16 03 3e bf 58 4d 3e
       0.11130859 0.012118427 0.12801461 0.20053385
000080 60 f6 8e 3e 50 04 d4 3d e5 99 b5 3d 4c 56 6a 3d
       0.27922344 0.10352385 0.08867244 0.057211205
000090 c5 53 7b 3b 49 e1 af 3b 1e 36 1e 3d 32 06 24 bd
       0.003834949 0.0053674323 0.03862583 -0.04004497
0000a0 30 5b 55 bc 83 92 bc bd 8c 5b a5 bd 55 96 85 be
       -0.013022229 -0.092076324 -0.08074102 -0.26091257
0000b0 47 68 2d be 04 8c 53 3c ea e7 23 bf c1 ca 86 be
       -0.1693431 0.0129118 -0.6402575 -0.26326564
0000c0 35 95 b6 3e 49 f2 22 be e3 63 0f be 22 a3 f9 3d
       0.3566071 -0.15912737 -0.14002948 0.12189318
0000d0 dd 1b f6 bd f7 2b 08 3e b4 72 18 3e 7b 68 18 3b
       -0.12017033 0.13298021 0.14887506 0.0023255635
0000e0 80 f0 2c 3d 13 cf 64 3e 5f 0d a1 bc a1 f9 e3 bd
       0.042221546 0.22344618 -0.019659696 -0.11131597
0000f0 26 67 a0 3b 61 18 81 bb b4 eb 6a bd 51 4d c8 bd
       0.0048951088 -0.003939674 -0.05735369 -0.09780372
000100 1b 95 68 3e 77 94 d1 bd 04 89 ee 3c b0 a8 95 be
       0.22713129 -0.102333955 0.029118069 -0.2923026
000110 60 5c 56 be ba 12 a5 3e a3 5c d1 bd d5 c7 a1 3e
       -0.20933676 0.3224085 -0.10222747 0.31597772
000120 2f dd 25 3f 03 74 68 3e df e7 ef be 91 13 53 bd
       0.64790624 0.22700505 -0.4685659 -0.05153233
000130 11 ba 33 be f0 d6 84 bd 28 0f f1 3b a0 5e b7 3d
       -0.17551447 -0.064863086 0.007356543 0.08953595
000140 ad 3a 5e bd c6 36 b6 3d 8a 45 04 be bd 4e 91 bd
       -0.054255176 0.08897166 -0.12917152 -0.07095096
000150 53 ba 7c bd d4 ce c5 bd dc 32 84 bd 0d fd 05 3e
       -0.06170113 -0.0965859 -0.06455013 0.13084812
000160 9a 6e ba 3c 49 fb 95 be e2 a3 ad bd 7a 84 11 bd
       0.022757817 -0.29293278 -0.08478524 -0.03552673
000170 98 0a 04 bf f9 61 c1 3e 0d ca 2f 3f 77 76 35 3e
       -0.51578665 0.3777006 0.6866768 0.17720972
000180 71 bb 9b bd 90 c4 ae 3d f0 7d b3 3d 56 d7 86 3d
       -0.07604111 0.08533585 0.08764255 0.06584041
000190 9f 14 ee 3d fe 68 63 3e cb 8d ef 3e 9d 3c ca 3c
       0.11625027 0.2220802 0.46787867 0.024687106
0001a0 3e 41 96 3b 04 7d f0 3c 9c ff bb 3d 35 e8 f2 3d
       0.004585414 0.029356487 0.09179613 0.11860696
0001b0 ad ad 5e 3d 5f d2 91 bd 69 23 63 be 4f 07 57 3e
       0.05436485 -0.07120203 -0.22181477 0.20998882
0001c0 a7 1d 32 3f ef 66 fe 3e 89 0f 02 3e ec 72 e7 be
       0.69576496 0.49687907 0.12701239 -0.45204866
0001d0 f0 3c 09 3e b0 b9 17 bf 94 00 95 be 6e cd 6b be
       0.13402152 -0.5926771 -0.29102004 -0.23027584
0001e0 35 1d 80 3f 9e 28 af 3e 83 59 57 bd af 82 16 3d
       1.0008913 0.34210676 -0.0525756 0.036745723
0001f0 b1 65 51 3e 8d d9 7d be 27 6c a6 bd 47 99 08 bd
       0.20448948 -0.2479002 -0.08126097 -0.0333493
000200 c2 45 60 3d 23 42 87 bd 60 e6 0d bd d6 02 8e bc
       0.054754026 -0.066044115 -0.03464353 -0.017335337
000210 67 95 29 3f d0 6e 00 be 65 3e 3f 3e d4 35 4c be
       0.66243595 -0.12542272 0.18676145 -0.19942409
000220 90 cb a2 be bd 0f a3 be 16 34 af 3e 39 6a 57 3f
       -0.3179593 -0.31847945 0.34219426 0.8414646
000230 c1 cf 26 3e 97 34 27 3f c6 3b e0 3d 81 d1 96 3e
       0.1629019 0.6531462 0.10948901 0.29456714
000240 28 89 0a bf 09 ed 1b bf f0 03 47 be 70 d6 d3 be
       -0.54115534 -0.6090856 -0.19435096 -0.4137454
000250 75 d2 ad bc 42 af 21 3c e3 b0 48 be be fe ae 3c
       -0.021218518 0.009868445 -0.19598727 0.021361705
000260 64 7c 13 be 71 8d c7 3c 86 c9 bf bd 7d da 54 3e
       -0.1440292 0.024359437 -0.093646094 0.20786472
000270 b3 a3 8b 3e 14 2c 51 bc 27 48 5c 3d aa 47 74 3d
       0.2727333 -0.012766857 0.053779747 0.059638657
000280 4a e3 b9 3e 84 e7 2d 3f 99 40 5d 3d 4e 06 08 3e
       0.3630622 0.6793139 0.054016683 0.13283655
000290 d9 65 be 3e 3a 3c 22 3c 5a 69 55 bf b0 fc 21 3c
       0.3718708 0.009902054 -0.8336388 0.009886906
0002a0 7c 92 7d 3d 16 d5 9f bd d3 d0 66 3f ac ae 17 3e
       0.061907277 -0.07804315 0.9016239 0.14812726
0002b0 7d 8f bd 3d 29 c1 6e bd fd f1 f3 bc 3f bc 2c 3e
       0.09255884 -0.05828968 -0.029778475 0.16868685
0002c0 09 61 03 3e 8f de 82 bd 65 a0 66 3e a2 46 d7 3e
       0.12829985 -0.06390106 0.22522123 0.42046076
0002d0 42 f6 18 3f b4 a3 c1 be 29 d3 2e be 57 79 89 be
       0.5975076 -0.37820208 -0.17072739 -0.26850387
0002e0 2a d9 4d 3f 41 ce 05 bf 4f ca 82 3e 2e 5e c2 3d
       0.8040949 -0.52267843 0.25544974 0.094906196
0002f0 6c a0 28 3e ff 7e 14 be 5f dd 41 be 47 6f e1 3d
       0.16467446 -0.1450157 -0.18932103 0.110075526
000300 76 56 8d 3e 22 05 8f 3e 5a 3d f6 bd 24 00 96 3c
       0.27605027 0.27933604 -0.12023421 0.018310614
000310 9c 2e b7 bc 0b b9 ea 3d 89 0a 59 3d 49 5d c2 3d
       -0.022361092 0.114610754 0.052988563 0.09490449
000320 8d af d9 bd 5e 6e 1a be 64 18 e3 3d 48 a6 06 3d
       -0.10629187 -0.15081164 0.110886365 0.032873422
000330 83 2c 47 3c 3f 31 7e 3e 24 ac 9d bd 94 93 59 bf
       0.0121566085 0.24823473 -0.07698849 -0.8499081
000340 02 a1 c8 bc ec f1 25 3e c5 a2 26 be b5 3d 3c 3e
       -0.024490837 0.16205567 -0.16273029 0.18382914
000350 66 ca 3c bf d0 dc fe 3c 89 34 30 3e 7c cb 47 3e
       -0.73746336 0.031111151 0.1720754 0.19511217
000360 fe c7 13 be 1e 93 20 be 5b 9e 0d bc 20 58 12 be
       -0.1443176 -0.15681121 -0.008643712 -0.1429143
000370 a4 23 a4 bd f3 12 38 be 00 18 02 3d 05 18 5a 3d
       -0.080146104 -0.17975979 0.03176117 0.053245563
000380 8f 09 73 be ee ac 05 3e 4b 84 8b be a0 ff 3e 3e
       -0.23734115 0.13054249 -0.2724937 0.186522
000390 5a 49 24 3d b0 58 83 3e 66 02 e9 3e d7 c3 e4 be
       0.040109016 0.256536 0.45509642 -0.44680664
0003a0 3d 75 be bd 61 e3 d3 3d 1c 33 26 3e 9e e3 86 be
       -0.09299705 0.103461035 0.16230434 -0.26345533
0003b0 7c ad e9 3d 44 63 ba 39 f7 54 85 3e a0 cb 90 3e
       0.11410043 0.00035550643 0.26041386 0.28280354
0003c0 c0 1b 22 be e6 e4 c2 bd a3 48 6c bc db 69 78 3d
       -0.15830898 -0.09516315 -0.014421615 0.060647827
0003d0 e9 8c 52 3c 59 6c 2e bd d3 d7 a5 3d bf b9 12 3e
       0.012850978 -0.042583797 0.08097806 0.14328669
0003e0 e8 53 87 3e d2 ee 60 3e 48 04 b9 bd 63 e0 b2 bd
       0.26431203 0.21966103 -0.0903402 -0.087342046
0003f0 b9 15 3a 3e 48 cd 94 3f e7 f8 4d bf e3 74 aa 3e
       0.18172349 1.1625147 -0.8045792 0.33292302

fc1.bias f4 [256]
000000 fa 1a f5 3e 33 f3 80 3f 77 b5 3b 3f b6 0c 6e 3f
       0.47872144 1.0074219 0.7332377 0.92988145
000010 34 e4 5c 3f 7d ef 1e 3f ff 73 9b be e6 5c fb 3e
       0.8628571 0.6208418 -0.30361935 0.49094313
000020 7e 6a 05 3f 6b 02 44 3f 62 45 29 3f bd 98 88 3e
       0.5211562 0.7656619 0.66121495 0.2667903
000030 04 bd dd be 5d ba e0 3e 92 07 12 bf d9 d9 35 3f
       -0.4330827 0.43892184 -0.570428 0.71035534
000040 6e e1 c2 3e 0a eb 73 3f 6e 7f 0c 3f 25 f0 70 3f
       0.38062614 0.95280516 0.5488194 0.9411643
000050 74 65 24 bf aa 78 1c 3f e4 f4 48 3f 29 29 84 3f
       -0.64217305 0.6112162 0.78498673 1.0325061
000060 0c 29 29 3f 71 07 5e 3f 45 1f 4b 3f 22 14 5e 3f
       0.6607826 0.86730105 0.7934459 0.8674947
000070 47 a3 df be f7 ba cf be 67 b5 92 3f 7a c0 5a 3f
       -0.43679258 -0.4057233 1.146161 0.85449946
000080 30 1e 5d 3f 7d 31 57 3f cc d0 67 3f ea aa 39 3f
       0.8637419 0.8405989 0.90552974 0.7252642
000090 e0 3b 06 bf a6 09 46 bf 39 6c d9 be e3 a9 0e 3f
       -0.5243511 -0.7735847 -0.4246538 0.55727977
0000a0 22 b7 58 3f ba 7c 01 bf f4 8e 42 3f 70 11 36 bf
       0.8465444 -0.5058094 0.7599938 -0.7112036
0000b0 d9 5e 0e bf e4 3b 24 3f c9 81 c3 be a6 f2 5a 3f
       -0.55613476 0.64153886 -0.38184956 0.855265
0000c0 0d 46 7d 3f 27 6d e3 be 29 6b 44 3f 5e 44 67 3f
       0.98935014 -0.44419214 0.76726013 0.90338695
0000d0 b3 6b 40 3f 2f 65 0b bf d1 63 87 3f 3f 90 f8 3e
       0.75164336 -0.5445127 1.0577337 0.4854755
0000e0 99 d7 df be ff 6f f5 be a6 4a b9 be b6 90 f6 be
       -0.43719175 -0.4793701 -0.36189765 -0.4815728
0000f0 8b 16 af 3f f5 51 24 bf e9 87 6d 3f 5c d6 3e 3f
       1.3678755 -0.64187557 0.9278551 0.74545836
000100 e4 f0 43 bf dc 94 1d bf 06 a0 23 3f 2c b7 15 bf
       -0.76539445 -0.61555266 0.6391605 -0.58482623
000110 31 91 3c 3f 6c 47 0f bf 8d ee 6f 3f 77 a1 f1 be
       0.73659045 -0.55968356 0.93723375 -0.471935
000120 96 d6 2f be 62 57 07 bf 26 e9 26 bf 5b a0 99 3f
       -0.17171702 -0.5286771 -0.65199506 1.2002062
000130 9a e3 9b 3e 65 60 64 3f 59 0a 37 3f 9c b2 14 bf
       0.30447084 0.89209586 0.71500164 -0.58085036
000140 11 66 49 3f 9b 5c 4a 3f 03 27 57 3f 90 98 b6 be
       0.78671366 0.79047555 0.840439 -0.3566327
000150 fc 62 c0 3e 17 ec a7 be 2f af 57 3f c4 4e 83 3f
       0.3757552 -0.3279731 0.84251684 1.0258412
000160 70 28 ac be 69 55 55 3f d6 73 85 3f 82 e9 09 bf
       -0.336246 0.8333345 1.0425975 -0.5387193
000170 f0 4f 69 3f de bf 49 3f f9 d8 64 3f 81 93 db be
       0.911376 0.7880839 0.89393574 -0.42885974
000180 6f 1e 1c bf 56 4b 6f 3f 3e fd f7 be 75 fe 53 3f
       -0.6098394 0.9347433 -0.48435396 0.82810146
000190 72 1f c2 3e d6 07 39 3f 5b cd 10 bf 1c 48 09 bf
       0.37914616 0.7227758 -0.5656335 -0.53625655
0001a0 23 a1 0a bf 3c d4 0f 3f 3a c0 f4 3e 21 88 ac 3e
       -0.54152125 0.5618322 0.47802907 0.33697608
0001b0 6b 73 8a be e4 7c 47 3f 59 c6 8c 3f 72 65 0d bf
       -0.27041182 0.7792494 1.0998031 -0.5523292
0001c0 2a b6 ef be 0c 18 2d bf bd 67 7f 3f 2b fc 50 3f
       -0.46818668 -0.6761482 0.9976767 0.8163478
0001d0 9f 41 d0 be cb e8 f8 be f6 18 52 3f 45 30 c0 be
       -0.40675065 -0.48615107 0.8206934 -0.37536827
0001e0 fb f6 f5 be 31 b9 40 3f 22 f9 57 3f f6 43 01 bf
       -0.48039994 0.7528258 0.8436452 -0.50494325
0001f0 33 21 5b 3f 2e d6 07 bf bd fb 96 be a4 82 61 3f
       0.85597533 -0.5306119 -0.29488936 0.88089967
000200 19 34 57 3f 59 c4 7a 3f 04 b5 41 3f 34 c7 51 3f
       0.8406387 0.9795585 0.7566683 0.81944585
000210 0f e0 0c bf ac b4 94 3f d8 8a 1d bf 84 e8 fd 3e
       -0.55029386 1.1617637 -0.61539984 0.49591458
000220 9b af 6e 3f ab 06 77 3f be 6a e4 be 93 cc fe be
       0.932367 0.9649455 -0.44612688 -0.49765453
000230 f1 20 90 3f d5 3e 3e 3f d9 62 e8 3e 44 26 19 bf
       1.1260053 0.74314624 0.45387915 -0.59824014
000240 32 f9 2d 3f ce 1a c4 be 6c b4 3d bf 01 de 24 3f
       0.67958367 -0.383017 -0.74103427 0.6440125
000250 77 7c 92 3f 8d fe 58 3f 74 45 b6 be f2 89 ea be
       1.1444234 0.84763414 -0.35599864 -0.4580837
000260 fa 37 1b bf 81 f7 6e 3f 7b 34 04 bf f5 7b 1a 3f
       -0.6063229 0.9334641 -0.5164258 0.60345393
000270 24 0b ff be 99 7f 6e 3f 32 55 c5 be bd c6 37 3f
       -0.49813187 0.9316345 -0.3854156 0.71787626
000280 ba 2a 23 3f 53 a1 6e 3f af 94 65 3f 6c b4 1f bf
       0.6373707 0.9321491 0.8968 -0.62384677
000290 1f 4d 4b be bd 72 c6 be 4f 16 7b 3f 44 4f 25 bf
       -0.19853638 -0.38759413 0.98080915 -0.64574075
0002a0 4b 88 c6 be e5 63 cc 3e 1f c1 07 3f 13 2e 21 bf
       -0.38775858 0.39919963 0.53029054 -0.6296093
0002b0 34 57 59 3f 8c a0 6d 3f 5a 74 13 bf 6b 79 99 be
       0.84898686 0.928231 -0.57599413 -0.29975447
0002c0 7c 41 aa be 82 da 1c bf 06 33 f5 be 27 57 73 3f
       -0.33253086 -0.61270916 -0.4789049 0.9505486
0002d0 1e 2f 6b 3f 0c fa 6d 3f 1b f4 03 bf 2b dc c5 be
       0.9186877 0.92959666 -0.5154435 -0.38644537
0002e0 c7 b0 b2 3e a5 83 3e 3f ed c3 16 3f dd 43 29 3f
       0.34900495 0.74419624 0.5889271 0.66119176
0002f0 34 25 00 3f 9c 80 11 bf 25 bf f8 be 92 68 bc 3f
       0.5005677 -0.5683687 -0.48583332 1.4719412
000300 9b 62 49 3f b9 6a 09 bf 37 7f f3 3e 89 3b f5 3e
       0.78666085 -0.5367847 0.47557995 0.47896984
000310 9c b4 12 3f d5 e9 62 3f 66 50 13 bf 54 bc 2e 3f
       0.5730684 0.8863805 -0.57544553 0.68256116
000320 9a 3f 6d 3f c9 87 17 3f 13 23 d4 3e 4c 8c 2a 3f
       0.92675173 0.59191567 0.4143301 0.66620326
000330 38 6f 08 bf aa 9b 12 bf 12 ec 0c 3f 11 13 e1 be
       -0.53294706 -0.57268775 0.55047715 -0.4395986
000340 c0 35 09 3f d1 9c 4e bf d9 89 9e 3f 6d a3 06 bf
       0.5359764 -0.8070803 1.2385818 -0.5259312
000350 ec 99 de 3e bf e7 e4 3e ed a8 94 3e 77 f4 37 bf
       0.43476808 0.44708058 0.2903513 -0.718574
000360 29 1e a8 be ad b5 1e 3f 4e 4c 5e 3f 85 e2 1c 3f
       -0.3283551 0.61995965 0.8683518 0.6128314
000370 7e 34 50 3f 21 ac 0d bf ed b0 f7 bd 4b a6 f1 3e
       0.81330097 -0.5534077 -0.12094293 0.47197184
000380 44 c1 71 3f a3 b7 99 3f 09 89 07 be 94 a3 bf be
       0.94435525 1.2009166 -0.13235869 -0.37429488
000390 df 28 17 3e 5c d6 19 bf 5b b7 16 3f 81 56 82 3f
       0.14761685 -0.6009271 0.5887353 1.0182649
0003a0 7f de 1b bf c8 83 11 3e 04 a6 76 3f 19 61 87 3f
       -0.6088638 0.14210427 0.9634707 1.0576507
0003b0 57 3f a1 be f6 32 c6 be 71 0d a0 be a6 75 00 3f
       -0.31493637 -0.38710755 -0.31260255 0.5017952
0003c0 2e 20 7a be 8b 3a 06 3f 4c 95 c2 3e f5 bf f9 3e
       -0.24426338 0.5243308 0.3800453 0.48779264
0003d0 a9 7e c3 be bb 10 ca 3e 44 36 18 bf 97 47 bd be
       -0.38182572 0.3946589 -0.594578 -0.3696868
0003e0 55 9a 19 3f 43 0b b3 be 57 43 0a 3f 46 f8 77 3f
       0.60001117 -0.3496953 0.54009 0.9686321
0003f0 92 c5 51 3f d1 04 62 3f 78 98 2d 3f 7f f0 16 bf
       0.81942093 0.882886 0.67810774 -0.5896072
